self_avoidance_gym/pth/actor.pth (torch, 432962 bytes, 123 tensors)

fc1.weight f4 [64, 6]
000000 36 a7 d7 3e ff 13 10 be eb 70 4c 3e 08 c7 47 3c
       0.4211976 -0.14070128 0.1996495 0.012193449
000010 cf e6 6b be 86 ca 10 bd 47 7a af 3e f6 82 87 be
       -0.23037265 -0.03534939 0.34272978 -0.26467103
000020 ac a0 9f 3e b9 5f da bd 33 a3 5a 3e 42 e1 1c bc
       0.3117727 -0.10662789 0.21351318 -0.00957519
000030 05 3b 84 be 87 b5 28 bd a9 c0 b2 3e 81 61 99 3e
       -0.25826278 -0.041188743 0.34912613 0.29957202
000040 c7 cc 43 be a2 ec 20 3e df 5b a2 be 53 90 1f 3e
       -0.19121085 0.15715268 -0.31710717 0.15582399
000050 d6 ab c9 bd c0 46 17 be 9a 23 46 3e dc 46 97 3b
       -0.09847228 -0.14773083 0.19349518 0.0046166014
000060 0c c3 c9 3e a8 27 b5 3e 6c fe e2 3d d5 f1 9b be
       0.3940662 0.35381818 0.11083683 -0.3045794
000070 b7 0b 73 be 30 b2 a9 be 4f 0a b2 be fd 75 3e 3d
       -0.23734938 -0.3314376 -0.3477349 0.04649924
000080 88 f3 96 3e eb e0 e2 bd 97 c3 ac 3b 09 e6 c5 be
       0.29482675 -0.11078056 0.0052723396 -0.38652065
000090 46 e4 d9 3e af ed 83 be 16 d4 c4 3e 5d 87 60 bd
       0.4255697 -0.25767276 0.3844306 -0.054816592
0000a0 f6 f8 9c 3d e1 02 1b bd 00 d1 a5 be ab 61 b9 be
       0.07664673 -0.037844542 -0.32386017 -0.36207327
0000b0 30 56 a4 3e 12 c6 87 be 2f 57 94 3e 62 e3 67 bb
       0.32097006 -0.26518303 0.28972766 -0.0035383333
0000c0 c0 c7 88 bd d7 a3 ac 3e ff b8 b1 bd 40 7c 85 be
       -0.06678724 0.3371875 -0.08677863 -0.26071358
0000d0 06 6e 65 be 94 47 dd 3d 90 30 10 3e d3 1f 64 be
       -0.22405252 0.10804668 0.14081025 -0.22277765
0000e0 c0 4f 9c 3e 47 1f b5 3e f5 9a 06 be 14 34 f5 bc
       0.30529594 0.35375425 -0.13145049 -0.02993206
0000f0 ab af 8c be c6 c4 95 bc 35 64 95 be cd d9 d3 3e
       -0.27477774 -0.018282305 -0.29178014 0.41377106
000100 dc 4e a1 3e 58 39 86 3e 8d 3c a5 be 66 8c f3 bd
       0.31505477 0.26215625 -0.3227276 -0.11892013
000110 81 08 86 3e e6 7f 79 3e 86 73 bd bd cf bd c7 3e
       0.26178363 0.24365196 -0.0925055 0.39012
000120 be 2f b3 be b3 ca 07 3d 67 58 8e be d7 b8 d6 bc
       -0.34997362 0.033152293 -0.2780182 -0.026211185
000130 f9 f9 8d be de 8c 73 be c8 51 72 be e9 2e 58 3e
       -0.27729777 -0.23784205 -0.2366401 0.21111645
000140 9f 6d 82 3e b8 b3 08 3e 37 94 c7 3e 0a cf c1 3c
       0.2547426 0.13349807 0.38980266 0.023658294
000150 d6 19 9b 3e 45 6a b8 be d7 5e 5e be 83 fb 1b be
       0.3029315 -0.36018577 -0.21715866 -0.15232663
000160 d1 3c b8 be 72 ea 32 3d d3 2e 2c bd 61 1c 10 3d
       -0.359839 0.043680616 -0.042036843 0.035183314
000170 53 07 3f be 8a 3c 97 be d8 e2 54 3e 3a ed 4c 3e
       -0.18655138 -0.29538375 0.20789659 0.2001237
000180 98 73 53 be 92 53 86 3e 76 de b1 3e a6 2c ac 3e
       -0.20649564 0.26235634 0.34740037 0.33627814
000190 6b ab 62 3e 6d 3d 0d 3e 4b 1c 95 be ff 35 92 3e
       0.22135703 0.13792963 -0.29123148 0.2855682
0001a0 59 de f5 bd f3 9b a3 be d6 60 df 3d 09 a0 b0 3e
       -0.120053 -0.31954917 0.10907142 0.34497097
0001b0 f8 ef 7e 3d 3c e4 44 3e d9 a0 bb be 1e b5 33 3e
       0.06224057 0.1922769 -0.36646155 0.1754956
0001c0 77 5a 6d 3e ee a1 71 3e 56 95 8f be b7 25 d3 bd
       0.23179041 0.23596928 -0.28043622 -0.10309928
0001d0 27 c3 00 be d2 96 2f 3e 5c 89 4c 3d ff 0c d0 3c
       -0.12574445 0.17147377 0.049935684 0.025396822
0001e0 80 98 41 be 5d a3 ac 3e 9f 01 2d 3c a2 13 90 be
       -0.1890583 0.33718386 0.0105594685 -0.2813998
0001f0 03 5b 7d 3e 04 4c b8 3e e8 98 69 be c5 8a 62 be
       0.2474175 0.35995495 -0.22812235 -0.22123249
000200 c4 9b b1 3e 10 e3 b3 bc 83 6d 47 be 84 e5 93 bd
       0.34689152 -0.021958858 -0.19475369 -0.07221511
000210 74 bb 98 3d 7d 7c ce 3e 66 4a 9d 3e da d2 b8 be
       0.07457629 0.40329352 0.30720824 -0.36098367
000220 b3 cd 17 be 38 60 0f be 4f 6f 4e 3d e4 14 75 3e
       -0.14824562 -0.14001548 0.05039912 0.2393375
000230 f6 3c c6 3e 57 ac 41 be a2 52 b1 3e 13 15 e4 3d
       0.38718385 -0.18913399 0.34633356 0.11136832
000240 be 1e 9c 3e d6 8a 50 3e 42 84 84 be a4 a4 c5 bb
       0.30492204 0.20365462 -0.25882155 -0.0060315896
000250 d7 87 f5 bd c6 9b cd bc f1 71 d5 bd 71 c7 ba 3e
       -0.119888 -0.025098693 -0.10422123 0.36480287
000260 8f 96 ba bd 29 6b c6 bc e8 ef a3 3e c4 6c 6c be
       -0.09110748 -0.02422102 0.3201897 -0.23088366
000270 11 6a be 3e 40 e1 9d 3e c5 39 bb be b4 39 c9 be
       0.37190297 0.30835915 -0.36567512 -0.39301836
000280 a1 f4 4c 3e fb 82 3b be 8d f8 21 be b9 fa 89 3e
       0.20015194 -0.18311684 -0.15817471 0.269491
000290 18 8e 13 be 25 da ca bd 6a ec 21 3d 83 10 8f 3e
       -0.14409673 -0.09904889 0.039532103 0.27942285
0002a0 3f cc 68 be 0c 94 1a be b5 d6 4b be c3 3e e0 3e
       -0.22734164 -0.15095538 -0.19906123 0.43797883
0002b0 52 40 67 be da 97 0f 3e af 93 37 3e 67 00 47 bb
       -0.2258313 0.1402277 0.1792743 -0.003036523
0002c0 64 a4 53 3e 5e 9b 62 3d 14 69 36 3b a6 77 5e 3e
       0.20668179 0.05532395 0.0027833628 0.2172533
0002d0 7e e3 44 3d aa 00 8e bd 65 27 31 3e d4 fd 8e bd
       0.048068516 -0.069337204 0.17300184 -0.069820076
0002e0 b4 90 5d 3e a3 1b d9 3b b1 be f4 3d f2 f8 b4 be
       0.21637231 0.006625609 0.11950434 -0.3534618
0002f0 5d 32 a3 be 21 88 37 3e 8a c7 93 3e 62 48 a1 bd
       -0.31874362 0.17923023 0.28863174 -0.07875134
000300 81 f8 82 be 71 dd 82 3d 93 e1 73 3e e2 9f 31 bd
       -0.25580218 0.06389893 0.23816518 -0.043365367
000310 7e 7e cb be 43 7e d0 3d 76 cd ff bd d4 41 90 bd
       -0.39744943 0.101803325 -0.124903604 -0.07043806
000320 65 e0 59 3d 45 6f 82 be a3 9b ab bd b6 25 a7 3e
       0.053192515 -0.25475517 -0.08379295 0.3264596
000330 2d 87 a3 be 43 96 85 3e d8 09 78 be bf 7d 18 be
       -0.31939068 0.26091203 -0.24222505 -0.14891718
000340 5b 9c 98 3e 16 10 c2 3d 4f a6 0c 3e b0 69 2b bd
       0.2980679 0.094757244 0.13735317 -0.04184884
000350 9f b7 af bd 32 db d7 bc 08 a4 a1 3d 01 6f c5 be
       -0.08579945 -0.026349638 0.078926146 -0.38561252
000360 ee 66 d1 3e 0f ba 25 be 41 4f 35 3e 0a d1 8d bd
       0.40898842 -0.16184257 0.17706014 -0.06924637
000370 b1 f9 bb 3d 59 68 09 bc 63 c8 7a 3e f4 02 ad be
       0.09178484 -0.008386695 0.24490504 -0.33791316
000380 50 6c 58 3e 97 2b b9 be b3 05 5d 3e 0e 10 a5 be
       0.21135068 -0.3616607 0.21584205 -0.3223881
000390 bd 1a cc bb a1 6e 3f be bf 45 92 be 7f c6 45 3e
       -0.0062287734 -0.18694545 -0.28568837 0.19314002
0003a0 19 9f 54 3e 73 13 92 3e fe 69 89 3e 8a 76 95 3e
       0.20763816 0.28530464 0.26838678 0.29192
0003b0 f3 65 a3 3e 3d b8 c0 bd 7c b0 a8 bd 9f 1a 92 be
       0.3191372 -0.09410141 -0.08236787 -0.28535935
0003c0 cd d6 11 be 5c 71 4b 3e 29 ed a3 be c9 b6 9d 3e
       -0.14242096 0.19867462 -0.32016876 0.30803517
0003d0 e7 eb f5 bd 22 7e b9 be 28 f2 96 3e 3b 56 85 3e
       -0.120078854 -0.36229044 0.29481626 0.2604235
0003e0 09 6d b8 3e bd 28 39 be e0 a4 20 be 14 44 40 3e
       0.36020687 -0.18081947 -0.15687895 0.1877597
0003f0 58 f3 1d 3d 77 0d a4 be 60 1e de 3d 57 61 05 be
       0.03856215 -0.32041523 0.10845637 -0.13025413

fc1.bias f4 [64]
000000 7b 04 76 3e 48 2d 10 be e2 1c 43 3e 61 0e 09 be
       0.24025147 -0.14079773 0.19053987 -0.13384391
000010 cf 84 5b bd ed f1 12 3e d2 2b 33 3e 5d 5c 97 3e
       -0.053593453 0.143501 0.17497185 0.29562655
000020 aa c4 62 be d5 55 ab 3e 75 27 e5 3e 75 99 37 be
       -0.22145334 0.33463922 0.44756666 -0.17929633
000030 03 9b a6 3e 74 b4 cc 3c 13 d1 67 3d d4 88 78 be
       0.3254014 0.02498839 0.056595873 -0.24270946
000040 68 6b a0 be 91 67 bd bd 31 5d a2 3e 57 e2 ae bd
       -0.31331944 -0.09248269 0.31711724 -0.08539265
000050 ac a9 82 be 63 38 12 bd 5e e7 24 be 1e b1 95 3e
       -0.25520074 -0.035698306 -0.16103885 0.29236692
000060 97 3f 1c 3e 9b c3 71 be 54 b6 84 3e df 61 93 bd
       0.15258633 -0.23609774 0.25920355 -0.07196402
000070 84 88 86 3e df 3e 5d be 3d b1 b6 be 5b 71 a6 be
       0.26276028 -0.21606015 -0.35682097 -0.32508358
000080 5a 39 a9 be 41 ac b0 3d 1a bd 8a be 76 e1 d3 3e
       -0.33051568 0.08626605 -0.27097398 0.4138295
000090 a5 91 a8 3d 8d b2 7d 3e 28 c3 d7 3e 7f f0 8c 3e
       0.082309045 0.24775143 0.4214108 0.27527234
0000a0 8e b9 3a 3d a8 34 24 be a6 1b 42 3c 03 6f 65 be
       0.045587115 -0.16035712 0.011847412 -0.22405629
0000b0 61 27 64 3e d1 6c 74 be 20 5f 30 3e 85 01 63 3c
       0.22280647 -0.23869635 0.17223787 0.013855343
0000c0 9d 97 b3 be b9 89 b9 bc 11 a9 23 3d 68 bc 10 be
       -0.3507661 -0.02264868 0.039956156 -0.14134371
0000d0 63 f6 c8 bc f4 05 a5 3d d9 79 52 3c 52 55 e0 3e
       -0.024531549 0.08057776 0.012846434 0.43815094
0000e0 c8 27 4b be 34 73 3a 3e 71 52 a1 bd 17 03 88 be
       -0.19839394 0.18208009 -0.078770526 -0.26564857
0000f0 65 5d 15 3e fc 65 a8 3e dc 13 8a 3d 80 8a 56 3e
       0.14586408 0.32890308 0.06742069 0.20951271

fc2.weight f4 [64, 64]
000000 8a 59 df 3d c9 5f 39 3d 54 67 9f bc b7 33 7d bd
       0.1090575 0.045257363 -0.01945845 -0.061816897
000010 ac 93 35 3d c4 2a 9e bd 71 4c ca bd 23 7e 09 be
       0.044330284 -0.07723001 -0.09877861 -0.13427024
000020 d1 ad c2 3c 7c 6b 2e 3c cc 2d 06 be 2c 41 bb bd
       0.023764523 0.010645743 -0.13103408 -0.0914329
000030 84 7a 1f bc 67 bd ae bd 7e 7d 75 bc 68 9d f7 3d
       -0.0097338 -0.085322194 -0.014983533 0.1209057
000040 fa eb 05 be 4e 26 49 3c 68 7c ea 3b 9a db 60 3b
       -0.13078299 0.012277199 0.0071559437 0.003431058
000050 4a d6 e1 3d f3 97 3e be 54 b5 7a bd 0b 00 88 bd
       0.110272005 -0.18612652 -0.061208084 -0.06640633
000060 b5 05 5e bd 05 99 49 bd 18 0f c7 3c fb 90 db 3d
       -0.05420466 -0.049218196 0.02429919 0.10721012
000070 c6 45 74 bd cf cf 8d 3d 44 e6 71 3c ca 7e e6 3d
       -0.059636854 0.06924402 0.014764372 0.11254652
000080 fa d1 16 3c 21 34 ac 3d 66 57 c4 bd f0 1c 04 bd
       0.009205336 0.0840838 -0.095869824 -0.03225416
000090 ff 0d fb 3d 5f 24 0d 3d 36 d1 f0 3a eb 29 0e bd
       0.12258529 0.034458514 0.0018372897 -0.034707945
0000a0 1b d7 7e bc 98 76 a8 3d 6f 60 b7 bd 71 8a 9c bd
       -0.015554215 0.08225745 -0.0895394 -0.07643593
0000b0 f6 c4 95 bd 3c 9d 00 be 62 f9 0c bd c5 f9 ef bd
       -0.07312958 -0.1255998 -0.034417517 -0.11717562
0000c0 a9 31 0d be cf 1f 9c bd d5 fe ef bd 80 4b 19 bd
       -0.13788475 -0.076232545 -0.11718527 -0.037425518
0000d0 5d c7 a5 3d 34 7f 9d bd 33 a5 dd 3d da e8 b3 bd
       0.08094666 -0.07690278 0.10822525 -0.08784647
0000e0 95 f0 c2 bd a8 20 82 bd e8 16 80 3d c4 ec 58 3c
       -0.09518544 -0.06353885 0.06254369 0.013240043
0000f0 ba 8a f1 3c 67 92 2a 3b d0 6b 00 3c ef 42 8a 3d
       0.029485095 0.0026027204 0.0078382045 0.06751048
000100 a6 e7 a2 3d 1a df 01 bd 38 50 6c bd de 80 48 3c
       0.0795434 -0.031706907 -0.05769369 0.012237756
000110 13 ac be bc b2 4b 9b bd 96 0c f5 bc 6e d9 e1 bd
       -0.02327541 -0.07582797 -0.029913228 -0.110277995
000120 d8 78 cc 3d 69 0c 9e 3c 19 61 1f bd 9f 50 f3 bd
       0.099839866 0.019293027 -0.03891096 -0.11880612
000130 9e 13 bd bc 99 74 8e 3d 95 4f d2 3d a7 8b d7 3d
       -0.023080643 0.06955833 0.10269085 0.105246834
000140 40 ec ad 3b d2 45 55 bd e6 a1 16 3d 64 e2 aa bc
       0.005307704 -0.05206854 0.036775492 -0.020859905
000150 51 f2 b2 3d e8 2e ec bd fe c5 ad bc fa 56 41 3d
       0.087376244 -0.11532384 -0.021212574 0.047202088
000160 0b 75 8a 3d 1a 93 a7 3c d0 60 a6 3d 8e 71 5c 3d
       0.067606054 0.020455886 0.08123934 0.05381923
000170 39 6e e8 bd ca 8a d3 3c 96 1e 51 3a 86 0d 5c 3d
       -0.11349148 0.025823016 0.0007977275 0.053723834
000180 79 c6 a3 3c 19 90 00 3d bd 99 83 3d 17 d8 56 3d
       0.0199921 0.031387422 0.064258076 0.052452173
000190 fc cd 5d 3c 5c d3 8c bd c6 5b 25 3d 5a e0 db bd
       0.01353788 -0.06876251 0.040370725 -0.10736151
0001a0 b1 9b c9 bd 1d d3 8e 3d 7a 73 d8 3d 4b 6b 73 3d
       -0.09844149 0.069738604 0.105689004 0.059428494
0001b0 e1 35 80 bc a6 8b d0 3d bd 86 a3 3d cc e1 b3 bd
       -0.015650691 0.10182886 0.07984684 -0.08783302
0001c0 c0 b1 f0 bd fb 17 85 3d 90 21 34 3c 32 3b 80 3d
       -0.11752653 0.064987145 0.01099433 0.062612906
0001d0 ef 75 97 bc 29 53 40 3d b1 19 64 3d bf 9e 12 be
       -0.018488852 0.046954308 0.055688564 -0.1431837
0001e0 4d 46 72 bd 75 c5 24 be dc ca b3 bd d8 2d ca bc
       -0.059149075 -0.16090949 -0.08778927 -0.024680063
0001f0 95 57 b4 bc ed 2d ae bd 03 02 da bc 7d 62 13 bd
       -0.022014419 -0.085048534 -0.026612287 -0.035982598
000200 21 db c3 bd f3 b5 06 3d 48 5f ed bc 1d 7d c0 bc
       -0.0956328 0.032888364 -0.028976098 -0.023497159
000210 f7 7b 6d 3d 23 db 09 be 8b 15 37 bd b5 ad 7b bd
       0.05797955 -0.134625 -0.04469828 -0.061444957
000220 2e 16 83 bd ed 34 3f bd da c1 0c be 8d ae e0 bd
       -0.06400715 -0.046681333 -0.13745824 -0.10970793
000230 6c 7f ec bc 53 f7 80 3c 9a 8a 90 3c e2 ea 4a 3d
       -0.028869353 0.015742933 0.017644215 0.049540408
000240 cc df 52 3d 10 80 f3 3d 3b d7 75 3c 08 7e f3 3c
       0.05148296 0.1188966 0.015004928 0.029723182
000250 13 f7 6e 3d 78 16 85 bd 7c 75 d2 bb 00 b7 da bc
       0.058341097 -0.06498426 -0.0064226966 -0.02669859
000260 5b 2c b3 3b 3c a1 2a 3d 83 78 bd 3d 04 95 ab 3d
       0.005467934 0.04165767 0.092515014 0.08378032
000270 25 eb 7b bc 81 36 ef bd 63 36 bc bd 70 ac 91 bd
       -0.015375887 -0.11680318 -0.09190061 -0.07112968
000280 49 60 9a 3d ed 81 49 3d 6f 09 47 bd 8c 3f ce 3d
       0.07537896 0.049196173 -0.04859298 0.10070714
000290 00 c7 5b bd 51 e5 e2 bd 47 8c 10 be 7a 45 8b 3d
       -0.053656578 -0.11078895 -0.14116012 0.06800361
0002a0 91 3e 15 3e ad ea 83 3d 75 ba b4 bd 15 da ef 3c
       0.14574648 0.06441245 -0.08824626 0.029278794
0002b0 5a 6e 82 bd 75 d9 99 bb dd 83 8f 3c d0 c9 ab 3d
       -0.06368704 -0.0046951124 0.017518932 0.08388102
0002c0 a7 27 f4 3d 4a 45 bd bd ed 16 08 3e 74 21 46 bd
       0.119216256 -0.092417315 0.13289995 -0.048371747
0002d0 71 4d f6 3d 0e 79 11 3e c4 7f 27 be 5c 81 1b 3d
       0.120264895 0.14206335 -0.16357332 0.037965164
0002e0 63 13 98 3d 95 c8 ad 3d b5 f3 76 3d 87 77 a1 3d
       0.07425573 0.084855236 0.06029101 0.07884126
0002f0 40 11 ba 3c 15 fb cc 3c e6 cd 94 bd 85 dc f8 3d
       0.022713304 0.025022069 -0.072658345 0.12151436
000300 ca fe a8 3d 71 9f c9 3c 78 99 16 bc 31 bd b2 3d
       0.08251722 0.02461216 -0.009191863 0.08727492
000310 be e6 8c 3d df 38 54 3d 62 67 af bd 2c b4 12 be
       0.06879948 0.05181205 -0.085646406 -0.14326543
000320 06 c3 ed 3d 62 5f c7 bc f6 08 11 be 3f 99 aa bd
       0.116094634 -0.024337474 -0.14163575 -0.083300106
000330 61 b0 ce 3d 44 ec bc 3d 6e 63 e4 bd 95 48 12 3d
       0.10092235 0.092247516 -0.11151777 0.03571375
000340 e4 2d f7 bd 78 4a 3e bb 50 a9 18 bc f1 2f 9d 3d
       -0.120693 -0.0029036086 -0.009317711 0.0767516
000350 ee bb 69 3d 6d 28 a7 3d 37 8c f4 bc c8 07 07 be
       0.05706399 0.081620075 -0.029852016 -0.13186562
000360 3f 17 98 3d 3e 13 11 bd 8a 31 a3 bd e8 b3 a8 3d
       0.07426309 -0.03541874 -0.07968433 0.082374394
000370 22 aa a0 3d da 70 a7 bd 23 dc 9c bc c8 68 a3 bd
       0.0784495 -0.081758216 -0.019147938 -0.0797897
000380 42 28 08 3d d3 e0 16 3d 94 40 6b 3d 51 6a 19 3c
       0.033241518 0.036835503 0.057434633 0.009363727
000390 be 2c 8b 3d f8 52 b1 bd 8d 89 c7 bd ac e4 4d 3c
       0.06795643 -0.08658403 -0.097430326 0.012566727
0003a0 6f de c5 bd 82 ee a1 3d 73 09 03 be a2 19 bb bd
       -0.096615665 0.0790682 -0.12796573 -0.091357484
0003b0 8d 00 00 3d f6 d5 e4 3d 4c 96 e1 bb 36 e8 97 bb
       0.031250525 0.11173622 -0.006884372 -0.004635836
0003c0 00 d1 03 be b3 dd 00 bc f5 ae 54 bd e8 51 90 bd
       -0.12872696 -0.007865357 -0.051924665 -0.070468724
0003d0 7a 4a bd bd 85 98 ce bd 87 bf 80 bd e4 0d dc bd
       -0.09242721 -0.100876845 -0.06286531 -0.10744837
0003e0 2f fe 73 bd 0d 1d fc 3d 8a 78 d4 3c 08 2c 07 bc
       -0.05956858 0.123102285 0.025936384 -0.008250244
0003f0 f9 91 f8 bd b7 75 a7 3d a3 e2 f8 3d 9e cc ad 3d
       -0.12137217 0.08176749 0.121526025 0.08486293

fc2.bias f4 [64]
000000 ec 57 b4 3b e1 61 8d bd 13 aa 8c ba fb 88 e7 3d
       0.005503645 -0.069034345 -0.0010731838 0.11305424
000010 a3 8d 4e bd ab 18 b2 bd e0 53 8e bc 18 40 a9 3c
       -0.050428044 -0.08696111 -0.01737398 0.020660445
000020 ba 8a a6 3d ef bb 8f 3d a5 81 17 bd b8 da eb 3c
       0.08131929 0.07018267 -0.036988873 0.028790817
000030 73 5c 08 3c 35 65 80 bd 56 ab 42 bd 2a 6a 99 3d
       0.008322823 -0.06269304 -0.04752668 0.07490952
000040 89 d8 bc bd 87 9c c5 bd 77 14 f4 3d 70 b1 48 bd
       -0.09220988 -0.09648996 0.11917966 -0.048997343
000050 90 f6 d9 bd a6 ac bb bc 81 2d b8 3d 6f 29 ae 3d
       -0.10642731 -0.022909474 0.08993054 0.085039966
000060 25 aa ac 3d d1 e0 df 3d ad e7 8e bd d2 1c 30 3d
       0.0843089 0.10931552 -0.069777824 0.042996235
000070 53 3d a0 3c 01 80 c6 bc a1 60 be bd 4a e3 ea 3d
       0.019560492 -0.024230959 -0.09295774 0.11469133
000080 82 ee 7f 3d 8b a9 9e bd f8 83 aa 3b a2 4d d9 3c
       0.06248332 -0.077471815 0.00520372 0.026526276
000090 c1 f8 c7 3d 71 20 20 be 32 28 cc 3d 0b 52 91 bd
       0.09764243 -0.15637375 0.09968604 -0.070957266
0000a0 cf 44 8d 3a cf ab ae 3c b6 85 bd bd f0 21 1c 3d
       0.0010777953 0.02132216 -0.09254019 0.038118303
0000b0 ae 06 2a 3c c1 93 a8 3d 6d 2b dd bd 4a 01 70 3d
       0.010377569 0.08231307 -0.107992984 0.05859498
0000c0 33 c2 e1 3d 25 3d 02 3e 0a c0 f7 bd 29 06 8c 3d
       0.11023369 0.12718637 -0.120971754 0.068371125
0000d0 93 ef 71 3d e4 bc c9 3c 27 ac 7a 3d 01 86 0c 3c
       0.059066366 0.024626203 0.061199334 0.008576871
0000e0 b7 77 86 bd c4 4c fd 3d 8e 9a 4d bd 51 78 bc 3d
       -0.065658025 0.123681575 -0.050196223 0.09202636
0000f0 ab fc 31 bd 56 15 80 3d 0c 4f 63 bd 9b a6 ee 3d
       -0.043453854 0.062540695 -0.055495307 0.11652871

fc3.weight f4 [64, 64]
000000 a1 a2 c4 3b c9 dc 3a bd eb 11 cf bc 55 ca f2 bb
       0.006000832 -0.045620713 -0.025277099 -0.0074093738
000010 5f ce 26 3d 04 ca 3d 3d a7 7e 9a bd 29 e6 c2 bd
       0.040724155 0.046335235 -0.07543688 -0.09516556
000020 62 5c f4 bc a4 23 0e 3d 33 ba e3 bd 1b 41 c9 bb
       -0.029829208 0.03470196 -0.11119499 -0.0061417944
000030 b9 70 ee 3d 1e 3f a8 bd 57 0a 13 3d 1f 32 08 3d
       0.11642594 -0.08215164 0.035898533 0.033250924
000040 37 80 9b 3d d4 18 3c bc fe fc 59 3d cb d1 59 bd
       0.075928144 -0.011480529 0.053219788 -0.05317859
000050 10 48 6a bd fb fd b2 bd a9 58 02 bd 7a 6f f3 3d
       -0.05719763 -0.08739849 -0.031822834 0.11886497
000060 8d c1 a6 bd 5f a1 63 bc f1 30 cd 3c cc c3 4f bd
       -0.08142386 -0.013893454 0.025047751 -0.050723836
000070 bd 1a ae bd 4a 0f d6 bd e3 56 ce 3d cf a3 90 3d
       -0.08501194 -0.10452135 0.10075166 0.07062494
000080 57 4d 5d bc ac 0f 99 bc 37 fc e8 3d fc 19 62 3d
       -0.013507209 -0.01868423 0.11376231 0.055200562
000090 04 de d1 bd 5a 87 a4 3d ca bf a0 3d ba ad 03 be
       -0.10247424 0.08033629 0.07849081 -0.1285924
0000a0 90 29 be 3d 69 77 ec 3c 01 91 63 bd 3d cd 5e bd
       0.09285271 0.028865533 -0.05555821 -0.05439495
0000b0 95 e0 b7 3d 1f c6 07 3d 7c 0e 97 3c 76 8d 95 bd
       0.089783825 0.033147927 0.018439524 -0.07302372
0000c0 0d 0c b7 bd b9 b0 65 bd c7 7b 6a 3d 52 3e df 3a
       -0.089378454 -0.05607674 0.05724695 0.0017032123
0000d0 4e db 2d 3e 57 f7 ac 3d 60 44 ea 3d 50 f8 3c 3d
       0.1697819 0.08445614 0.11438823 0.046135247
0000e0 55 06 6d 3d 11 66 3b bd 12 bf bd bd 19 60 28 bb
       0.057867367 -0.045751635 -0.092649594 -0.0025692044
0000f0 07 2f fa bd c7 34 cf bd 12 0c 56 be 13 3e 9c bd
       -0.12216001 -0.10117488 -0.20903042 -0.07629027
000100 97 4d 13 3c 5d af a3 3d 39 4a 84 bd ab 2a 24 bd
       0.008990667 0.07992432 -0.06459469 -0.040079754
000110 cb b0 81 3c 92 17 2e 3c 04 ba 01 be d5 03 e6 bd
       0.015831372 0.010625737 -0.12668616 -0.112312
000120 95 d2 01 3b 8b 61 a9 3d 39 71 fe 3d 3f 21 ad 39
       0.0019809355 0.08270558 0.12423939 0.00033021902
000130 fa d5 84 bd 72 5b a7 3d 1d 61 a4 3d da 87 a8 3d
       -0.06486125 0.08171739 0.080263354 0.08229037
000140 8f 0c 1e 3d e7 d6 e2 3c 5b fd a4 bd b9 74 9c 3d
       0.038586196 0.027690364 -0.08056136 0.076394506
000150 c1 87 9a 3c 03 6f 95 3c 51 7c b0 bd 95 7b a0 bd
       0.01886356 0.018241411 -0.086174615 -0.078360714
000160 63 85 ca bc 00 c2 63 3d 80 81 07 be d1 6c 39 bd
       -0.024721807 0.055604935 -0.13232994 -0.04526979
000170 d6 44 da bd ac 0e 31 3d 62 e0 9e 3c 19 cd 05 bd
       -0.10657661 0.043226883 0.019394103 -0.0326663
000180 d5 8a 06 be 88 43 d5 bc b8 c2 d2 3d 6e c6 b5 bd
       -0.13138898 -0.026033178 0.10291046 -0.08875738
000190 82 34 b6 bc b2 2e b1 3d 56 35 f8 3d f7 8b 03 3e
       -0.022241835 0.086514845 0.12119548 0.12846361
0001a0 07 f7 5c bc 71 53 c8 3b ff d6 34 3d 9b fa d3 bb
       -0.01348663 0.0061134626 0.04415035 -0.0064690835
0001b0 fc db b4 3c 87 9d 30 3d 01 47 09 be 82 d6 e4 bd
       0.022077553 0.04311898 -0.13405992 -0.111737266
0001c0 63 49 01 be 7e 69 9f bd 00 28 ec 3c d5 2a 02 bd
       -0.12625651 -0.07783793 0.028827667 -0.03177913
0001d0 1b 5e 16 3d d2 89 9a 3d 99 32 4b bd d5 d7 ef bd
       0.03671084 0.075458184 -0.0496088 -0.117110886
0001e0 52 35 66 3d 4e d4 64 bd 71 5d 4b bd 39 81 a1 3d
       0.056203194 -0.055866532 -0.04964966 0.078859754
0001f0 3b 7b 2a 3d 5a 4c a3 3d ae 40 2b bc bc 3e 5b 3c
       0.041621428 0.07973547 -0.010452433 0.013381656
000200 15 c6 c0 3d 2f dc 92 bd 13 19 0b 3e f8 24 ee bc
       0.09412781 -0.07170903 0.13583784 -0.029070362
000210 99 87 89 bd 42 01 a5 3d 13 0e 87 3c 81 37 42 bd
       -0.06715316 0.080568805 0.016486203 -0.047416214
000220 55 46 f7 bd bc 92 1c 3e 8d c9 9f bd db dd 6c bd
       -0.12073962 0.1529035 -0.07802115 -0.057828765
000230 eb e1 be 3c ab 08 07 be c7 46 e8 bc 39 08 4f 3c
       0.023301085 -0.131869 -0.028354062 0.012636238
000240 40 bb 13 3d c4 e3 ac bc c4 48 8c 3d c8 cf 31 3d
       0.036067247 -0.0211047 0.068498164 0.043411046
000250 1b fc eb ba d6 d5 c9 bd b7 b8 46 be 3a 0b cb bd
       -0.001800421 -0.09855239 -0.194064 -0.09914251
000260 1a 91 9d bd 39 6d 6a bd 00 fb a8 3d 72 9d a9 bc
       -0.076936916 -0.05723307 0.082509995 -0.020704959
000270 3d b1 bf bd 26 c7 f9 3c 4a 6b 02 be 73 20 06 be
       -0.093599774 0.03049047 -0.1273624 -0.13098316
000280 a7 02 96 3d 6c 0c b3 bc 6f 46 e5 bd f7 23 58 3d
       0.07324725 -0.02185651 -0.11195075 0.052768674
000290 fa b7 a4 bd 04 0e 92 bc 83 a1 dc bd bc 0b 13 bd
       -0.08042903 -0.017828949 -0.107729934 -0.035899863
0002a0 d4 c1 00 be bc 3b 94 bc 97 fe 89 bd ff a8 05 3e
       -0.1257394 -0.01809489 -0.06738012 0.13052748
0002b0 fd 07 d4 3c 1b 80 8c 3c 46 5a b1 bd aa cb 1c 3d
       0.025882715 0.01715093 -0.086597964 0.038280167
0002c0 d0 0e 7d 3d 08 5d 00 be 7c e1 b7 3c fe f4 f5 bd
       0.061781704 -0.12535489 0.022446387 -0.12009619
0002d0 6e 0c 89 bc b5 72 48 bd 52 80 ad 3d fb c7 25 ba
       -0.01672956 -0.04893752 0.08471741 -0.000632405
0002e0 16 f1 b6 3c a1 81 16 bc 1d 5a 82 3d 36 c5 54 bd
       0.022331756 -0.009186179 0.06364844 -0.051945888
0002f0 e3 99 fe 3d d0 c9 cf 3b 18 bd d1 bd 56 c3 b6 3d
       0.12431695 0.0063411966 -0.10241145 0.08923976
000300 28 5f 47 3c 0b 08 b3 bd 2b 27 0e bd 62 66 be bc
       0.012168683 -0.087417684 -0.034705322 -0.02324218
000310 d4 ab 32 bd dd 7e 36 bd 3e c0 b1 bd 21 ad f4 bb
       -0.0436209 -0.04455458 -0.086792454 -0.0074669276
000320 33 7a 43 bc 7c fb 78 bd 19 24 d9 3d 7f 99 a8 3c
       -0.01193099 -0.06078671 0.10602588 0.020581005
000330 c7 68 ff bd 2e d3 0a be 1a 45 44 bc 06 44 ce 3c
       -0.124711566 -0.13557121 -0.011979366 0.02517892
000340 e4 2b 9c 3c 5f b4 ed 3d 70 49 21 3e 05 b8 27 bd
       0.019063897 0.11606669 0.1575067 -0.04094698
000350 37 6b d9 bb 59 0d e7 3d 4d 9a b7 3d 60 69 64 bd
       -0.0066350955 0.11281843 0.089649774 -0.055764556
000360 1c 92 08 3d c8 11 b4 bd 82 60 d6 3d 77 75 97 3d
       0.033342466 -0.08792454 0.10467626 0.073954515
000370 9c f4 3e bd 92 2f 8a bd d8 4b bd 3d 28 ae ca 3c
       -0.046619996 -0.067473546 0.09242982 0.024741247
000380 54 e0 9f 3b 82 13 20 bd e0 9a 81 3b e8 bc bc bd
       0.004879037 -0.039081104 0.00395523 -0.092157185
000390 75 aa e1 3c 3b 35 9b bd 40 8c 31 bd f9 9a 76 bd
       0.0275471 -0.07578512 -0.043346643 -0.060206387
0003a0 07 2e af bd 50 5c de 3d 93 70 78 bd 16 45 47 bb
       -0.08553701 0.10857451 -0.060654234 -0.0030406169
0003b0 1f 0c 16 bd 6f ab 2a bd fa 79 c6 bd 12 21 76 3d
       -0.036632653 -0.041667398 -0.09691234 0.060090132
0003c0 10 4e 95 bd ce f6 1d 3c 68 9c 78 3d f5 52 cf 3d
       -0.0729028 0.009641362 0.060696036 0.10123245
0003d0 e0 33 ca bd da 59 72 bc 2e 24 0b 3c 92 e8 f5 bc
       -0.098731756 -0.01479193 0.008492513 -0.030018125
0003e0 92 3c 48 3d 8a 85 db 3c 9c 25 26 3c a9 ba 96 3d
       0.04888589 0.026797075 0.010140803 0.07359821
0003f0 82 e3 b1 bd 06 99 f2 3d f3 db 05 3e 13 c7 20 bd
       -0.08685972 0.11845593 0.13072185 -0.039252352

fc3.bias f4 [64]
000000 c4 df e3 3d d2 5a 6a 3d d2 fe 34 3d 22 f7 97 3d
       0.11126664 0.05721552 0.044188328 0.07420184
000010 a6 f4 1c 3d 43 aa cd 3b 11 46 d5 3d 00 39 90 3d
       0.038319252 0.0062764003 0.10413755 0.07042122
000020 46 3e 8d 3d ee a1 a0 3c bd bd 99 bc df b4 31 bd
       0.06896643 0.019608464 -0.018767232 -0.043385383
000030 23 33 0f bd 1d 64 b1 bd 25 af a6 bd b6 30 d3 3d
       -0.034960877 -0.08661673 -0.08138875 0.10312025
000040 34 57 9d bd 18 dc 5e bd 27 52 b2 3d 1a 7d a0 bd
       -0.07682648 -0.054409117 0.087070756 -0.07836361
000050 1f 13 9b 3d e1 62 4f 3d c2 fe 78 3d 17 67 bf 3d
       0.075720064 0.050631408 0.06078983 0.09345835
000060 e0 0d eb bc 3e 61 02 be 6b af 60 3c fa 54 ee 3d
       -0.02869314 -0.12732407 0.013713698 0.11637302
000070 14 98 70 3d 4c 03 1e 3c ab 28 07 3e 81 95 d6 3c
       0.058738783 0.009644341 0.13199107 0.026194336
000080 41 ba 00 be df 62 d4 bc 4b 64 c2 bd 4b c1 49 3d
       -0.1257105 -0.025926052 -0.094917856 0.049256604
000090 b0 da 9b 3d 6d 39 71 3c 10 90 1f 3d f8 c3 87 bd
       0.07610071 0.014723164 0.038955748 -0.06629175
0000a0 f0 e4 fa bc d1 27 21 bd a8 ad 7e 3b b1 c4 fd bd
       -0.030626744 -0.039344613 0.0038860831 -0.123910315
0000b0 99 cf 00 3e b3 2c d6 bd 76 ac 07 3d 61 dc 39 3d
       0.12579192 -0.104577444 0.033123456 0.045376185
0000c0 6e 1e 64 bd 6a e1 d8 3d df 2e bd 3d 50 67 c2 bd
       -0.055693083 0.10589869 0.092374556 -0.094923615
0000d0 dc 23 fa bd 73 ae 6d 3d cf 0d 35 3d e8 a2 65 bd
       -0.12213871 0.058027696 0.044202622 -0.056063563
0000e0 1e c1 8a 3c f0 4a b5 bd a4 67 cd bd 83 f2 94 bd
       0.016937789 -0.08852184 -0.100295335 -0.07272818
0000f0 ee c2 bc 3d 81 a1 1b 3e ff be 04 3e d2 af 81 bd
       0.092168674 0.15198328 0.12963484 -0.06332363

fc4.weight f4 [64, 64]
000000 5f d5 12 be 1c 42 cb 3b 25 b8 1b bc 24 bc d8 3b
       -0.14339207 0.006202949 -0.009504353 0.006614225
000010 42 3e e0 bc e8 28 6c 3d 9a 36 6e bd ce 9f 03 3e
       -0.027373437 0.0576562 -0.05815754 0.1285393
000020 ae 8c 9d 3d 03 49 05 bc a2 12 02 bd c5 e0 c2 bc
       0.07692848 -0.008135083 -0.03175605 -0.02378882
000030 41 db 26 bd 2a d0 10 3e ca 39 8f 3d e8 22 cd 3d
       -0.04073644 0.14141908 0.06993444 0.100164235
000040 d2 b4 d6 3c 84 40 9c bd 62 d2 92 3d 6f c4 c4 bb
       0.026209269 -0.07629493 0.071690336 -0.006004862
000050 37 4c ab bd f4 d2 f4 3d d1 9a a9 bd f2 1c 47 bd
       -0.08364146 0.119542986 -0.08281482 -0.04861159
000060 1f fe 28 be 6a 1e e4 bc d5 42 ab bb 28 3c 0b bd
       -0.1650319 -0.027846534 -0.005226473 -0.033992916
000070 54 ad e3 3d e4 06 8b 3b 59 eb c8 bb 3d 9f 6d bd
       0.11117044 0.004242765 -0.0061315713 -0.05801319
000080 b6 1b a5 3d 25 ed 1c bd ac a5 12 b9 81 99 1e 3e
       0.08061926 -0.038312096 -0.00013985363 0.15488245
000090 b6 60 0a 3e 8b 3e 19 be 67 f6 ea bb 2d a3 f6 3c
       0.13513455 -0.14965264 -0.0071704867 0.030107105
0000a0 f0 8f 1c 3d 38 16 99 3d 46 32 f2 3c fc 24 c8 bd
       0.038223207 0.07474941 0.029564988 -0.09772679
0000b0 4c df 94 bd e6 7f 08 be 94 ad 05 bc ea 1c c6 bd
       -0.07269153 -0.1333004 -0.00815906 -0.09673484
0000c0 a5 5b 3b bd e4 f4 7d bd 5b 8b 81 bd 2b 74 00 bd
       -0.045741696 -0.062001124 -0.06325408 -0.031360786
0000d0 1d ec 46 bd 84 31 6d bd e5 ed bd bd a7 48 d7 bd
       -0.04856502 -0.05790855 -0.092738904 -0.10511904
0000e0 04 8c 26 bd d9 e1 ac 3d f5 48 13 3d 04 3e 56 3d
       -0.040660873 0.084415145 0.03595825 0.052305236
0000f0 36 60 d4 bd d0 02 a4 3d 80 e2 e1 3c 8b 1d fd 3c
       -0.10369913 0.08008349 0.027573824 0.030897876
000100 c6 b6 85 bc 99 06 64 bc 65 af 63 bd 0a c3 11 bd
       -0.016322505 -0.013917589 -0.05558719 -0.035586394
000110 b9 be fb 3b 3b 64 80 3d 15 e6 12 3c b0 e8 52 bd
       0.007682648 0.062691174 0.008965989 -0.05149144
000120 44 24 99 3d 80 46 12 3b 7b 3d 2a 3d 54 ac 37 3d
       0.0747762 0.0022319853 0.04156254 0.04484208
000130 15 62 f9 bd 77 55 3c 3c 7e ba bb bd 12 bd 90 bd
       -0.12176911 0.011494986 -0.0916643 -0.07067312
000140 8b f9 67 3d 8f 39 45 3c 33 60 0d bd 2f c2 6d 3d
       0.056634467 0.012037649 -0.03451557 0.058046516
000150 68 3a ad bd f6 49 a7 3d 55 a8 b8 bd 9b 4d ec 3b
       -0.08458406 0.08168404 -0.09016482 0.0072113997
000160 d4 b6 6a 3d 17 ac cd bd fd 0b 5e bd 20 d7 ca 3d
       0.057303265 -0.10042589 -0.05421065 0.09904313
000170 83 1f 07 3d c9 3c 97 bd 97 3a cf bd 92 b9 35 3d
       0.032989036 -0.07384641 -0.10118597 0.044366427
000180 02 4c fc 3b b9 a8 f8 3d f9 ed b5 3d fa 97 e9 bd
       0.0076994905 0.12141556 0.0888328 -0.1140594
000190 8d 92 08 bc b6 30 a4 3d d9 a2 b0 bc ad 9f 52 bd
       -0.008335722 0.080171034 -0.021562027 -0.05142181
0001a0 93 77 17 3d fd d0 d0 3d ba 19 fb 3d 6c 09 f4 bd
       0.03697927 0.10196111 0.12260766 -0.119158596
0001b0 0f c5 00 be c4 bf 94 3c 75 fd 17 3d 06 b6 1b bd
       -0.12575172 0.018157847 0.03710695 -0.038015388
0001c0 c9 09 08 3e 47 11 c2 3d d8 74 c0 3d 4d d2 73 3d
       0.13284983 0.09475952 0.09397286 0.05952673
0001d0 6b 03 59 bc 57 00 a1 b8 17 05 b9 bd 85 57 cd 3d
       -0.013245444 -7.6771415e-05 -0.09034174 0.10026459
0001e0 9d 79 ca 3d 98 a6 e2 bc 00 9c 2e bd 60 4f 1b 3d
       0.09886477 -0.027667329 -0.042629242 0.037917495
0001f0 35 65 b6 3d 1f 00 e6 3b 1f d6 4f 3d 05 b9 be 3c
       0.089060225 0.0070190574 0.05074131 0.023281584
000200 b7 92 66 bd f0 16 57 bd 52 33 73 bd f4 16 0e 3d
       -0.056292262 -0.05251211 -0.059375115 0.03468986
000210 4a 08 7f 3d 75 25 93 3c 37 2a 20 bd 5a ef 13 3e
       0.062263764 0.017962197 -0.03910276 0.14446774
000220 ed a1 68 3d 43 29 14 be 79 cb 15 be ee 5c 5b bd
       0.05679505 -0.14468865 -0.146284 -0.05355542
000230 14 e4 95 3d 82 3e 9f bc b6 ad aa 3c ea 14 73 bd
       0.07318893 -0.019438986 0.020834785 -0.059346117
000240 9a 04 01 3d 1a 92 b8 bc 44 cd 7b bd fb 34 a8 bd
       0.03149853 -0.022530604 -0.061475053 -0.0821323
000250 5e 10 e2 bd 97 b5 df 3d 4a 37 8b 3d ee f0 fc 3c
       -0.11038278 0.109233074 0.06797655 0.030876603
000260 50 4e ba bd 42 7b 74 bc ec 2f e2 3c 69 21 1f 3e
       -0.09096968 -0.014921965 0.027610742 0.15540089
000270 ac a4 ae 3d 5c 5c 74 bd dc 69 73 3d 5e 99 ad 3d
       0.085275024 -0.059658393 0.059427127 0.08476518
000280 30 40 73 bc 17 f0 e9 bd 04 ab 08 3e 23 57 9e 3d
       -0.014846846 -0.11422747 0.13346487 0.07731464
000290 76 fe 02 3e 13 fb 8e 3c eb 1c c6 3d d4 78 91 3c
       0.12792382 0.017453706 0.096734844 0.01775781
0002a0 9c 0f fa 3c 57 63 1b bd 31 37 c6 3d ed 07 36 3d
       0.030525021 -0.037936535 0.09678496 0.044441152
0002b0 9f 95 d6 3c ce ee 0a bd ee ae e5 bc 99 63 a4 bd
       0.026194392 -0.03391915 -0.028037515 -0.08026809
0002c0 89 44 db 3b d6 1e 7c 3d 16 0a 1a be a0 84 c4 bd
       0.0066915196 0.061552845 -0.1504291 -0.09595609
0002d0 a6 fd 27 be 1e 3e cc bd 86 e3 0f 3c f7 f2 ac bd
       -0.16405353 -0.099727854 0.008782273 -0.08444779
0002e0 72 43 af bd 10 ed b2 3d e0 91 d6 bc 94 7a c3 3d
       -0.08557786 0.08736622 -0.026192605 0.09544864
0002f0 9b 25 e9 3b c7 1a df bc 11 fe ea 3a 80 fe c3 bd
       0.0071150786 -0.027234448 0.0017928501 -0.095700264
000300 81 d6 21 3d df 61 62 bd 83 e6 ec 3d 78 fc d1 bb
       0.039511207 -0.05526912 0.11567404 -0.0064082704
000310 62 e6 46 bd c0 84 25 be b5 e2 e7 3d f9 96 be bd
       -0.048559554 -0.16163921 0.11322538 -0.093061395
000320 88 ee d9 3d 45 72 c5 bc 04 e4 a9 bd 61 aa a0 3d
       0.10641199 -0.02410234 -0.08295444 0.07844997
000330 ec 82 0f be a8 f2 fd bd 47 45 41 bd db 71 e2 3d
       -0.14014786 -0.12399799 -0.04718521 0.110568725
000340 aa a5 d3 bd 42 ba 84 3d 05 51 3d 3d 07 7a 03 3d
       -0.10334332 0.06480838 0.046219844 0.032098796
000350 e0 03 fc bc c1 81 e0 bd 8f ce f7 3d e8 6e 77 3d
       -0.030763566 -0.109622486 0.12099945 0.060408503
000360 38 2e 98 3c 58 1d ad bd 62 69 89 3d 9d 0e a0 3d
       0.018576726 -0.084528625 0.06709553 0.07815287
000370 40 c3 ef bd 01 e5 e9 bd 5b 9a 69 3c 38 65 e4 3b
       -0.11707163 -0.11420632 0.014257993 0.006970074
000380 7f 8e c1 3d f0 6e c8 3b db 22 bf 3b 15 78 37 3b
       0.09451007 0.0061167404 0.0058330125 0.0027995158
000390 0b 59 e8 bd 67 08 11 3d 0c 2c 8a bd 9d 97 44 bd
       -0.113451086 0.035408404 -0.067466825 -0.047996152
0003a0 03 15 9c 3d e7 36 90 bd 82 4a db bd c7 ea ac 3c
       0.07621195 -0.07041722 -0.107075706 0.021108044
0003b0 17 b9 81 3d 77 b7 43 bb d2 f6 38 bd d1 43 8c bd
       0.06334131 -0.0029863992 -0.04515726 -0.068488725
0003c0 c4 46 f4 bd 38 94 56 3d ea c8 0b 3e 3f 5c 04 be
       -0.1192756 0.052387446 0.13650861 -0.12925814
0003d0 1c 7b 0a 3e 73 e1 17 bc 4b 28 96 3d be ee 92 bd
       0.13523525 -0.00927006 0.07331904 -0.07174443
0003e0 2f 5c b6 3c 3e b7 4c 3d 51 ab ce bd 56 0f df 3c
       0.022260753 0.04997944 -0.1009127 0.027228992
0003f0 d4 ec 84 3d 66 42 d3 3b b0 cf 35 bc 7d 17 94 ba
       0.06490484 0.0064471243 -0.01109688 -0.0011298504

fc4.bias f4 [64]
000000 3d 43 c0 3c 3f a6 0b 3e 56 b5 a1 bc 2d 9e 35 bd
       0.023469562 0.13637637 -0.019739788 -0.0443403
000010 2d a2 5b bd 36 b1 ea bc 92 01 2b 3d 1a bd ee 3d
       -0.05362146 -0.028648954 0.041749544 0.11657162
000020 9e 42 95 bd ea 1a b5 bd a3 0c eb bc 97 ad 90 3d
       -0.07288097 -0.08843024 -0.02869255 0.0706436
000030 2d 50 dd 3d 4a f6 a3 3c 95 2e 02 3e 42 24 25 3d
       0.10806308 0.0200149 0.12713082 0.04031778
000040 7d 3d 0e 3e b9 7c 79 bd 8f 1f 1a 3e 32 1a a2 3d
       0.13890643 -0.06090996 0.15051101 0.079151526
000050 3c 87 c3 3d eb a3 b6 bc 31 9f 96 3d 04 4d 92 3d
       0.09547278 -0.022294959 0.07354582 0.07143596
000060 c3 c6 99 bd a9 b4 8b 3d 72 6f c2 3d 3f d2 02 3c
       -0.07508614 0.068215676 0.09493913 0.007984697
000070 6a 83 57 3c ff c3 a5 bd d0 b3 91 3d 98 b6 a4 bb
       0.01315389 -0.08094024 0.07114375 -0.0050266497
000080 75 80 0e 3e 8c be ec bd c1 7c 4a bd 2d 84 f8 3d
       0.1391619 -0.115597814 -0.04943538 0.121345855
000090 c6 cd 93 3c 6b 20 14 bd 80 bf cf bd b2 f4 80 3d
       0.018042456 -0.03616373 -0.101439476 0.06296672
0000a0 b9 bd ae bd 8d 66 34 bd b8 45 05 be fc 8c 07 bd
       -0.085322805 -0.044043113 -0.13014877 -0.033093438
0000b0 05 92 51 bd 1d b3 8c 3d ec d0 f4 3d bd 7c 0d be
       -0.051164646 0.06870101 0.11953911 -0.13817115
0000c0 6d 1d bb bc 19 ef 00 3d df 1f ec bc c2 d0 60 bd
       -0.02284118 0.03147802 -0.028823791 -0.054886587
0000d0 20 ed 92 bc 4a fa d5 bc f0 c6 aa bd b5 a7 50 bd
       -0.017935336 -0.026120324 -0.083387256 -0.050941188
0000e0 90 6b a5 bd 82 11 81 3c 19 a5 8f bc eb 99 98 3d
       -0.080771565 0.015755419 -0.01753478 0.074512325
0000f0 d0 7f 95 bd 9f ef f5 bd 2d 80 bb 3d d6 cc 87 3d
       -0.07299769 -0.12008595 0.09155307 0.06630866

fc5.weight f4 [3, 64]
000000 a5 18 83 bd d3 da 00 3e 08 5d df bc 75 80 3c 3d
       -0.06401185 0.12583475 -0.02726604 0.046020944
000010 14 c3 c3 bd 5c 9c 29 3d 3c 19 21 be ad e2 02 3e
       -0.095586926 0.04140888 -0.15732282 0.12781782
000020 1f 8f 04 be e3 6d ab 3d 0c 6f 3c bd e5 c9 ca 3d
       -0.12945221 0.083705686 -0.04600434 0.099017896
000030 47 d8 7b 3d b6 8b ed bb 12 03 b7 3d f8 9e 3b 3d
       0.061485555 -0.007249321 0.089361325 0.0458059
000040 66 ee c8 3d 69 d7 1b be b2 7a 0d 3e 90 64 65 3d
       0.09811096 -0.15218891 0.13816336 0.056004107
000050 9b e3 21 3d b8 5d e1 3d 57 18 58 bd 08 b9 f3 3d
       0.039523702 0.110042036 -0.052757587 0.11900526
000060 ad d7 81 bc 04 85 2c 3b 25 1b b2 bc 80 2f 16 bd
       -0.015849913 0.00263244 -0.02174146 -0.036666393
000070 06 21 c0 3d c2 91 0e bd 0d 94 8b bd 2b 23 cc bd
       0.09381299 -0.034806974 -0.06815348 -0.09967645
000080 31 aa 04 3c 49 32 23 3c 4f 3e 1f bc 91 b6 d8 3d
       0.008097217 0.009960719 -0.009719445 0.10581697
000090 24 e6 4f bd e1 38 08 be 85 89 8d bd 5c 43 7b bc
       -0.05075659 -0.13302948 -0.069109954 -0.015335884
0000a0 07 0c f0 bd 55 0b 10 bd 57 04 ae 3c df e9 bf 3b
       -0.11721044 -0.035167057 0.021242304 0.005856737
0000b0 21 5b 31 3d a2 d0 a8 bd 51 87 c3 bc f1 41 ae bc
       0.043299798 -0.082429186 -0.023868235 -0.021271678
0000c0 e4 3e 7e 3d 56 02 58 3d 03 c7 a6 3b fc 36 a5 3d
       0.062071696 0.052736603 0.005089642 0.08067128
0000d0 da 15 eb bb 9c 0a 5b bc 11 68 bc bd 01 27 04 be
       -0.007174236 -0.013369229 -0.091995366 -0.12905504
0000e0 e0 4b 9b bb 7e d4 10 3b 9f 1f bc 3c 13 6a 89 bd
       -0.0047392696 0.0022099311 0.022964297 -0.06709685
0000f0 28 30 50 bc dc c8 ed bd 25 92 97 3d 69 9a cd 3d
       -0.012706794 -0.116105765 0.07400922 0.10039217
000100 42 d7 2b bd b8 b4 5f bd b8 23 9e bd 7b a4 99 bb
       -0.041953333 -0.054615706 -0.077216566 -0.004688797
000110 1c 15 c9 3d f1 02 62 bd c2 74 36 bd 82 f3 e3 3d
       0.098184794 -0.055178586 -0.044544943 0.1113043
000120 1e 17 d9 bc bc 9a ba 3d 9f 8f 83 bd c8 f3 5e 3d
       -0.026500281 0.091115445 -0.06423878 0.054431707
000130 b0 af da 3d 4f 5b 01 3e 94 04 e2 bd 6e 53 c8 bd
       0.10678041 0.12632488 -0.110360295 -0.09781538
000140 3e af 93 bd b4 a2 cf 3d 64 71 1b bd cd 53 2f bd
       -0.07211159 0.10138455 -0.037949935 -0.042804528
000150 8d 5d bd 3b fb 6c 96 3d 70 c4 c6 3d 69 6c 9f 3d
       0.0057789744 0.07345005 0.09705436 0.077843495
000160 fc 98 bd 3d 49 64 2e 3d 30 2b a0 bd f2 74 81 3d
       0.09257695 0.042576108 -0.07820737 0.06321134
000170 59 49 02 3d 70 0f ca 3d 9f 93 29 bd 6f 43 e4 3d
       0.03180823 0.09866226 -0.041400548 0.111456744
000180 3b ae a9 bc 3a 77 2a bc f3 02 db 3d 7c 3c 7e bd
       -0.020712962 -0.010404402 0.10693922 -0.0620694
000190 93 db e9 3d f1 d9 c0 bd 81 3a d8 3c d0 17 81 bd
       0.114188336 -0.09416569 0.026395084 -0.0630337
0001a0 e2 7f c2 3d 01 bf ef 3d 94 f4 ee bb 8f 7b 89 bd
       0.09497048 0.11706353 -0.0072923396 -0.0671302
0001b0 6b 23 70 bd 04 0d b3 3d 73 f6 86 3b f2 bc 74 3d
       -0.058627527 0.08742717 0.0041187345 0.059750505
0001c0 ac c8 9e 3d d3 67 82 3c 77 4a 92 bb 15 00 d1 3c
       0.07753119 0.015918648 -0.0044644433 0.025512734
0001d0 79 97 ee 3c 80 c0 22 bd e5 44 85 bd 6e 57 a3 3c
       0.029124962 -0.039734364 -0.06507281 0.01993915
0001e0 ee 5e 65 bc 29 97 12 3e 76 e7 cf 3d 41 67 9c 3d
       -0.013999684 0.14315476 0.101515695 0.076368816
0001f0 37 ff be 3d b8 76 8e bd 20 b4 a2 3d dd 70 42 bd
       0.09326022 -0.069562376 0.07944512 -0.047470916
000200 23 4a b0 bd d3 ce 9f bd ae be b1 bc a5 44 ab 3d
       -0.086078905 -0.078031205 -0.021697368 0.08362702
000210 d4 6e 08 3d c8 0f c7 3d 58 f2 10 3d db ad 38 3d
       0.03330882 0.09719807 0.035387367 0.045087676
000220 12 bb 0c bc 23 31 d1 bc b0 64 35 3d 85 98 2d 3c
       -0.008589523 -0.025536126 0.044285476 0.0105954455
000230 b6 2a 5e bd ba b9 8a bc 18 75 8e 3d c0 c4 16 be
       -0.05423995 -0.016934264 0.069559276 -0.14723492
000240 4b cc 54 bc 7a 80 01 bd b1 17 46 bd df 08 24 bd
       -0.01298816 -0.031616665 -0.048362438 -0.040047523
000250 72 bb ea bc b8 5e cc 3a 3a bb f2 3b b2 b2 b3 bd
       -0.028653834 0.0015592193 0.007407573 -0.08774318
000260 05 14 a9 bb 02 02 95 3d b1 8a 4c 3d 27 ca c7 3c
       -0.005159857 0.072757736 0.049936954 0.024388386
000270 d9 37 b6 bd 5c df 18 3d b4 66 b6 3d 50 cc b2 3c
       -0.08897371 0.037322387 0.08906308 0.02182594
000280 dd 34 85 3d 64 6f b2 3d c8 7c 2f bd f1 70 9a 3d
       0.065042235 0.08712652 -0.04284361 0.07541073
000290 1a 20 ff 3c 07 d3 97 bd 63 92 d1 bd 4a 79 c3 bd
       0.031143237 -0.07413297 -0.10232999 -0.095446184
0002a0 87 14 62 3d d0 6c ee bc a0 fd 76 bd 80 b6 82 bd
       0.055195358 -0.02910462 -0.06030047 -0.06382465
0002b0 63 59 90 3d 2b a6 ae 3c e6 5e fa 3d 35 b7 ac bc
       0.07048299 0.02131947 0.12225132 -0.021083454
0002c0 97 db 4b 3d e4 94 f6 3d 2c 05 04 bb 19 ac de 3d
       0.049769964 0.120401174 -0.0020144684 0.10872669
0002d0 71 cf 35 3c 99 52 63 bd 21 cc 14 3d 89 d1 ad 3c
       0.011096821 -0.055498693 0.036327485 0.021218078
0002e0 7d ba 46 3d 23 d5 3c bc ef 82 a4 3d 22 34 01 3d
       0.048517693 -0.011525425 0.08032786 0.03154386
0002f0 28 cf 18 bd 61 e5 7f bd ce 47 78 bd a1 af 08 3d
       -0.037306935 -0.062474612 -0.060615353 0.033370618

fc5.bias f4 [3]
000000 6f dc 28 3c b3 a1 cf bd 20 9e 61 3d
       0.010306462 -0.101382636 0.05508244

actor_tracing.fc1.weight f4 [32, 3]
000000 68 a3 dc 3e 77 35 d0 be 84 e7 01 bf bb 8a 90 be
       0.4309342 -0.4066579 -0.5074389 -0.28230843
000010 36 24 86 bd bc 61 9f be dd b9 a9 3e 54 e5 f4 3e
       -0.065498754 -0.31129253 0.33149615 0.47831213
000020 0a bd c8 bc b8 ee c7 be 64 09 e0 3c 49 5b 8f be
       -0.024504203 -0.39049315 0.027348228 -0.27999333
000030 cf 30 b5 3e 59 ea d8 3e d1 2b ff bd c2 94 82 bd
       0.353888 0.42366293 -0.12459529 -0.063760296
000040 a0 be e4 3e 12 ba 62 bd 96 db d6 be bd ee 81 3e
       0.44676685 -0.05535323 -0.41964406 0.25377455
000050 6f 38 29 be 72 e5 c5 be 5f 79 26 bf 52 4e 51 3e
       -0.16525434 -0.38651615 -0.6502895 0.20440033
000060 3a c3 2b 3e ab 09 7a be 87 b1 9b 3c 18 b4 f1 be
       0.16773692 -0.2441775 0.01900555 -0.47207713
000070 19 68 e1 be 9b 0f d6 be 6a a4 0e bf eb 50 cf 3e
       -0.44024733 -0.4180878 -0.55719626 0.40491423
000080 ef 2e 09 be 68 d5 b4 3d 28 77 ba 3e ab 15 02 3b
       -0.1339681 0.088297665 0.36419034 0.001984934
000090 3a ba 14 3d 80 70 ba 3e b7 cb 00 be 76 b1 ab be
       0.036310412 0.36413956 -0.12577711 -0.3353383
0000a0 1f 31 c2 bd 8a a5 bc 3e 01 62 97 be ce d5 96 3c
       -0.09482025 0.36845046 -0.2956696 0.018412497
0000b0 71 cf ee be 67 bc d2 3e d6 d7 94 be 78 02 e3 bd
       -0.4664264 0.41159365 -0.2907092 -0.11084455
0000c0 4f 6a b0 3e a6 97 da bd f1 d6 a1 3e e2 48 ee 3c
       0.34456107 -0.10673456 0.316093 0.029087488
0000d0 d9 c9 5a 3e 8e 59 2e 3e 4e dd c7 3e 56 ee e5 be
       0.21366061 0.1702635 0.3903603 -0.44908398
0000e0 bb a6 c2 bc 0d 79 14 3f b8 15 0f bf 40 3a f1 3e
       -0.023761144 0.5799721 -0.55892515 0.47114754
0000f0 44 e9 96 be 59 30 31 bd dc 13 93 be 59 09 af be
       -0.29474843 -0.043259 -0.2872609 -0.3418682
000100 aa b2 40 be 01 af 18 3d a0 fb 6e 3e 6d a8 e1 be
       -0.18818155 0.03727627 0.23338175 -0.4407381
000110 79 2a a8 3e 86 64 66 be 1e 8b 14 bf f8 a3 93 bd
       0.32844904 -0.22499284 -0.58024776 -0.07209009
000120 70 93 86 be 0b fa 04 bf 09 96 95 3e 42 48 d1 3d
       -0.2628436 -0.51944035 0.2921603 0.1021886
000130 2f 64 26 bf e1 ad 02 be 9a d4 02 3e 06 03 7e bd
       -0.6499662 -0.12761642 0.12776414 -0.062014602
000140 fa 70 eb 3e 14 12 d2 3e 90 70 27 3e e7 de d9 be
       0.45984632 0.41029418 0.16351533 -0.42552873
000150 66 df 04 bf 86 3f 6e 3e 50 63 d5 3c 48 e1 a7 be
       -0.5190338 0.2326642 0.026048332 -0.32789063
000160 94 21 84 be 4b 85 c6 bd 7b 8b c2 be 74 36 21 bf
       -0.25806868 -0.09693392 -0.3799704 -0.62973714
000170 6b 89 d2 be d9 b9 9c 3e bb 21 e8 3e 83 e2 e4 3d
       -0.41120467 0.3061054 0.45338234 0.11176016

actor_tracing.fc1.bias f4 [32]
000000 fe a5 8f be b2 49 ba 3d 7a 5b 7e 3e 4b 97 81 be
       -0.2805633 0.090960875 0.24839583 -0.2531074
000010 16 9f 0a 3f 01 72 8f 3d 80 29 bb be 8d e4 10 bf
       0.54148996 0.070041664 -0.365551 -0.5659874
000020 00 d0 ad 3e 1f 77 aa 3e 38 16 c1 be f3 ba d8 3e
       0.33947754 0.33294007 -0.37712264 0.4233013
000030 69 ac 08 3e 09 a2 95 3d fc 94 c5 bd 34 b0 93 be
       0.1334702 0.073062964 -0.09647557 -0.2884537
000040 c0 8c a4 3e 0a b9 a2 bc 96 62 02 3e 4f dd 13 bf
       0.32138634 -0.019863624 0.1273292 -0.57759565
000050 a1 2a eb 3e 1c 76 e4 3e 7f f3 0a bf 4a d0 f7 bc
       0.4593096 0.4462136 -0.54277796 -0.030250687
000060 63 9b b7 3e a7 57 9d be 6a 7c 8b 3e ef 0d 2e bd
       0.35860738 -0.30730936 0.27243358 -0.042493757
000070 cf 53 dd 3e d6 42 80 3d 24 02 49 be 21 fb a8 bd
       0.43228003 0.06262748 -0.19629723 -0.08251024
