self_avoidance_gym/pth/actor_tracing.pth (torch, 185252 bytes, 77 tensors)

fc1.weight f4 [64, 6]
0	0x3e9db0fc	0.3079909
1	0x3c44ecc0	0.012019336
2	0x3e6e8630	0.23293376
3	0x3e667fb8	0.22509658
4	0x3e7bff40	0.24609089
5	0x3e190178	0.14941967
6	0xbea23eea	-0.31688625
7	0x3e478f68	0.19488299
8	0xbead6ef0	-0.338737
9	0x3cc394b0	0.02387461
10	0x3db29eac	0.087216705
11	0xbe3929b6	-0.18082318
12	0xbcc3c6f0	-0.023898572
13	0x3e3e8ab8	0.18607605
14	0xbc5c1a60	-0.013434023
15	0xbe547f5e	-0.20751712
16	0x3cabd730	0.020976633
17	0xbcbdda90	-0.023175508
18	0x3d0d2018	0.034454435
19	0xbc6a5cc0	-0.01430434
20	0xbec761d2	-0.38941818
21	0x3e9c2ada	0.30501443
22	0x3e51d984	0.20493132
23	0xbe73f00c	-0.2382204
24	0x3c3d8d40	0.011569321
25	0x3e6e1644	0.23250681
26	0xbe4749df	-0.19461773
27	0x3d93d8e8	0.07219106
28	0x3eb8ebd0	0.3611741
29	0xbe13626a	-0.1439301
30	0xbe218c30	-0.15776134
31	0x3ebc1084	0.3673135
32	0xbe9569b2	-0.29182202
33	0xbeb02db4	-0.3440987
34	0x3e882f08	0.26598382
35	0x3d32ed10	0.04368311
36	0xbe287842	-0.16452125
37	0xbd939838	-0.07206768
38	0x3ec85220	0.39125156
39	0xbd29c948	-0.041451722
40	0x3b5ab680	0.0033372939
41	0xbdc7f13c	-0.09762809
42	0xbeb3e565	-0.35135952
43	0xbe7e9f3c	-0.2486543
44	0xbe4307ac	-0.19045895
45	0xbe13dc88	-0.14439595
46	0xba9e1f00	-0.0012063682
47	0x3e344a1c	0.17606395
48	0xbdc0f738	-0.09422153
49	0x3d514318	0.051089376
50	0x3b3acf00	0.002850473
51	0xbdb024a8	-0.086007416
52	0xbe9f4f2c	-0.3111509
53	0xbba8bf40	-0.005149752
54	0xbea3e1f5	-0.3200833
55	0xbeba9d7e	-0.36448282
56	0x3ea4f608	0.32218957
57	0x3ec27934	0.37983096
58	0xbc9e82c0	-0.019349456
59	0xbe0de432	-0.13856581
60	0xbde272e0	-0.11057067
61	0xbe1c2fa2	-0.15252545
62	0xbe02f638	-0.12789237
63	0x3e19f6a0	0.15035486
64	0x3db6f1c8	0.08932835
65	0xbebf518e	-0.3736691
66	0xbe41a208	-0.18909466
67	0xbe2e0ec6	-0.16997823
68	0xbdd89c44	-0.1057668
69	0xbe036cb6	-0.12834439
70	0xbead90ab	-0.33899435
71	0x3e3d5d9c	0.1849274
72	0xbdb29570	-0.08719909
73	0x3e3fdb10	0.1873591
74	0x3d6dbce8	0.058041483
75	0x3db1b724	0.086775094
76	0x3e32e81c	0.17471355
77	0x3eb0bba8	0.3451817
78	0x3bee3a80	0.0072701573
79	0xbe9edfd2	-0.31030136
80	0xbebd5b7b	-0.36983857
81	0x3ec47c18	0.38375926
82	0xbe39c4ab	-0.18141429
83	0xbe2c1341	-0.1680422
84	0xbcff4fa0	-0.031165898
85	0xbec2b0f8	-0.3802564
86	0x3e7f7ef0	0.24950767
87	0xbed0bb1c	-0.40767753
88	0xbeccee1d	-0.40025416
89	0xbd88f6d0	-0.06687701
90	0xbde8dee4	-0.11370638
91	0x3e01dad4	0.12681133
92	0x3e20bbbc	0.15696615
93	0xbe693efc	-0.22777933
94	0xbe607f90	-0.21923661
95	0xbebe7174	-0.37195933
96	0x3c404da0	0.011737257
97	0x3eab8506	0.33499926
98	0xbde6d600	-0.11271286
99	0x3e270b1c	0.16312832
100	0xbea5d114	-0.32386076
101	0xbe4eca35	-0.20194323
102	0xbe71b97d	-0.23605914
103	0xbe45efc8	-0.1932975
104	0xbec770bd	-0.389532
105	0xbe885117	-0.26624367
106	0xbe8e0f74	-0.27746165
107	0xbe6cc2a3	-0.23121123
108	0xbd54f4f8	-0.051991433
109	0xbbab3600	-0.005224943
110	0x3e86f6f8	0.26360297
111	0x3e606dc0	0.21916866
112	0x3e407270	0.18793654
113	0xbe885f58	-0.26635242
114	0x3e962fa0	0.2933321
115	0x3dd793b0	0.10526216
116	0x3e0af218	0.13568914
117	0xbec2b29d	-0.38026896
118	0xbe97c94f	-0.29645774
119	0xbe7e3177	-0.24823557
120	0x3eae6ad4	0.34065878
121	0x3e91e1c6	0.28492564
122	0x3e6699a0	0.22519541
123	0x3c511740	0.012761891
124	0x3d950eec	0.07278237
125	0xbcd04ec0	-0.025428176
126	0xbe1a2e02	-0.15056613
127	0xbe25d310	-0.16193795
128	0x3bafc300	0.005363822
129	0x3df0ef70	0.11764419
130	0x3deed418	0.116615474
131	0x3dac9e20	0.084285975
132	0x3ca85e90	0.020552903
133	0x3eba1546	0.36344355
134	0x3eb41028	0.35168576
135	0xbe7a4026	-0.24438533
136	0x3eb6f906	0.35736865
137	0x3e97df84	0.29662716
138	0x3deaf7c8	0.11473042
139	0xbe95fb4d	-0.2929329
140	0x39ac1c00	0.00032827258
141	0xbe789da1	-0.2427888
142	0xbe8383c8	-0.2568648
143	0x3e9684c6	0.29398173
144	0xbeb04617	-0.34428474
145	0xbe8cc3a5	-0.27493015
146	0x3e386304	0.18006521
147	0xbe08e0ae	-0.13366958
148	0x3ebf861c	0.37407005
149	0x3cf2ea80	0.029652834
150	0xbdf50c94	-0.1196529
151	0x3d9e36d4	0.077253014
152	0xbdb86038	-0.09002727
153	0x3ea340d0	0.31885386
154	0xbca79240	-0.02045548
155	0xbeb34393	-0.35012493
156	0x3d9dffd0	0.07714808
157	0x3bc9c200	0.00615716
158	0xbe869a78	-0.26289725
159	0x3dae9840	0.08525133
160	0xbe82dcce	-0.25559086
161	0x3e0b3da0	0.13597727
162	0xbea88e7a	-0.329212
163	0x3e1619ac	0.1465823
164	0x3ecd4850	0.40094233
165	0xbd15f550	-0.0366109
166	0xbdc98e4c	-0.09841594
167	0x3d04fde0	0.032468677
168	0x3d859d78	0.065241754
169	0x3db29cdc	0.08721325
170	0xbc287940	-0.0102828145
171	0xbeb832ba	-0.359762
172	0xbe883dce	-0.26609653
173	0xbe77468c	-0.24148005
174	0xbe24e471	-0.16102768
175	0x3d19ee60	0.037580848
176	0xbc4dd5e0	-0.012563199
177	0xbd3cfa88	-0.046137363
178	0x3ec50998	0.38483882
179	0x3eadb864	0.3392974
180	0xbe461e35	-0.1934746
181	0x3dd7b498	0.105324924
182	0x3de06aa0	0.10957837
183	0x3e5f11b4	0.21784097
184	0xbe4e6988	-0.20157444
185	0x3e21d100	0.15802383
186	0x3e389608	0.18025982
187	0xbd900030	-0.07031286
188	0xbe8222f6	-0.25417298
189	0xbe2b02ea	-0.1670033
190	0x3eaf4228	0.3423016
191	0xbbc64d40	-0.0060516894
192	0xbdd194a8	-0.10233432
193	0x3e9ef43e	0.31045717
194	0x3d924fe4	0.07144144
195	0xbeadaf22	-0.33922678
196	0xbeae02ad	-0.33986416
197	0x3d860f78	0.06545919
198	0x3ea11b80	0.31466293
199	0x3e2fb9b0	0.17160678
200	0xbe66a662	-0.22524408
201	0x3de0e018	0.109802425
202	0xbd3b4bd8	-0.045726627
203	0x3e6491e4	0.22321278
204	0x3ddf2578	0.108958185
205	0x3d89b924	0.06724766
206	0x3eba5fd6	0.36401242
207	0xbe15a920	-0.14615297
208	0xbe1d433a	-0.15357676
209	0x3dda98c0	0.10673666
210	0x3e2dec58	0.16984689
211	0xbd86f840	-0.06590319
212	0xbda8bf18	-0.08239573
213	0xbe69a155	-0.2281545
214	0xbe078662	-0.13234857
215	0xbe9b184a	-0.3029197
216	0x3e8c4f8a	0.27404433
217	0xbd9667e8	-0.07344037
218	0x3ecea110	0.40357256
219	0xbe8d052b	-0.27543005
220	0x3e8fb576	0.2806813
221	0x3e8efaf4	0.27925837
222	0x3e40333c	0.18769544
223	0x3e99ace4	0.30014718
224	0x3d2b63f8	0.041843385
225	0xbec20f3c	-0.37902248
226	0x3e7a9998	0.24472654
227	0xbeae441e	-0.34036344
228	0xbea1f088	-0.31628823
229	0x3ea3c244	0.3198415
230	0x3e557270	0.20844436
231	0x3ec6c046	0.38818568
232	0x3da5b8e4	0.08091906
233	0xbe9f7d19	-0.3115013
234	0xbe95ce2a	-0.29258853
235	0xbe9498a6	-0.29022712
236	0x3e322c38	0.1739968
237	0x3e4360d4	0.19079906
238	0x3e96ba36	0.29438943
239	0xbeaaf322	-0.3338862
240	0x3e811ba8	0.25216413
241	0x3e9918ba	0.29901677
242	0xbe9499f6	-0.29023713
243	0x3ecc8554	0.3994547
244	0xbd7e3250	-0.0620597
245	0x3e1da458	0.15394723
246	0x3d2f2768	0.04276219
247	0xbe49f602	-0.19722751
248	0x3d807ff4	0.06274405
249	0xbe971624	-0.2950908
250	0x3e9d162a	0.30680972
251	0xbea49a50	-0.3214898
252	0x3e518408	0.20460522
253	0xbe8550aa	-0.26038104
254	0xbea4ca89	-0.32185772
255	0xbc4a3820	-0.012342483

fc1.bias f4 [64]
0	0x3dd77510	0.10520375
1	0x3e134870	0.14383101
2	0x3eabb65e	0.33537573
3	0x3e9ed3d4	0.31020987
4	0xbe22fdcc	-0.15917128
5	0xbe76d03f	-0.24102877
6	0xbec8b055	-0.3919703
7	0xbeaaa0b6	-0.33325738
8	0x3ea3d092	0.31995064
9	0xbddf7d24	-0.109125406
10	0xbdc4c1f0	-0.09607303
11	0x3db4be60	0.08825374
12	0xbe559dcb	-0.20860974
13	0x3e8b39b6	0.27192467
14	0xbe67ff40	-0.22655964
15	0xbdadeaa4	-0.0849202
16	0x3d2a6dc0	0.041608572
17	0xbe23f34b	-0.16010778
18	0xbdf96304	-0.12177089
19	0x3e6a279c	0.22866672
20	0xbebea1be	-0.37232774
21	0x3e5df478	0.21675289
22	0xbe82b496	-0.255284
23	0xbe27d3df	-0.16389416
24	0xbe6f5e9b	-0.23375933
25	0xbd05c368	-0.032657057
26	0x3dc448e0	0.09584212
27	0x3e3313f0	0.17488074
28	0xbeccd102	-0.4000321
29	0x3bc6c200	0.006065607
30	0x3eb50b4e	0.35360187
31	0xbc91ad80	-0.017782927
32	0xbeb46127	-0.3523037
33	0xbc062360	-0.008187145
34	0x3b762700	0.0037559867
35	0xbdf2cdec	-0.11855683
36	0x3d828720	0.06373429
37	0x3e24491c	0.16043514
38	0xbdb670d4	-0.08908239
39	0xbe935846	-0.28778285
40	0xbec157d2	-0.37762314
41	0x3e810d7c	0.252056
42	0x3eaffec0	0.34374046
43	0x3e64a91c	0.22330135
44	0xbd561cd8	-0.0522736
45	0xbcb77e10	-0.022398978
46	0x3ec780d4	0.38965476
47	0x3d16a450	0.036777794
48	0xbcd1b150	-0.025597245
49	0x3e6b9f64	0.23010021
50	0xbe5f6b21	-0.2181821
51	0x3e042bd0	0.12907338
52	0x3dafe490	0.08588517
53	0xbeaa075a	-0.33208734
54	0x3e17f1c8	0.14838326
55	0xbd9b5a34	-0.07585564
56	0xbdb15cd0	-0.08660281
57	0x3ea37712	0.3192678
58	0xbc319920	-0.0108397305
59	0x3ec8b6a4	0.39201844
60	0x3ec57c12	0.3857122
61	0x3ec79882	0.38983542
62	0xbd0322a8	-0.032015473
63	0xbe4bbb44	-0.19895655

fc2.weight f4 [64, 64]
0	0x3d889e10	0.06670773
1	0x3dfbf99a	0.12303467
2	0x3d944e90	0.07241547
3	0xbd83446e	-0.06409536
4	0x3da02b12	0.07820715
5	0x3d1f95d8	0.03896126
6	0x3c7c6d10	0.015406862
7	0xbda30b3e	-0.07961129
8	0xbd6126f8	-0.054968804
9	0x3ddd7812	0.10813917
10	0xbce5e4f8	-0.028063282
11	0xbd6e6224	-0.058199063
12	0xbdc6c428	-0.097053826
13	0x3d7a87e0	0.061164737
14	0xbdbc81e8	-0.09204465
15	0x3dd5aeb8	0.104337156
16	0xbcc24e28	-0.023718908
17	0x3db817b8	0.08988899
18	0x3da52a7c	0.08064744
19	0xbd2103ec	-0.03931038
20	0xbde047d2	-0.10951199
21	0xbcef6150	-0.029221207
22	0xbc8d82d8	-0.017274305
23	0x3cb2b320	0.02181393
24	0x3d86e388	0.06586367
25	0xbd8a5dac	-0.06756148
26	0xbd701b50	-0.058619797
27	0x3d5a8bd0	0.05335599
28	0xbd7a9f40	-0.06118703
29	0x3dfcabfa	0.123374894
30	0x3dbf9c92	0.09356035
31	0xbcfaf6b0	-0.030635208
32	0x3dbdcc58	0.09267491
33	0x3dec29ca	0.11531408
34	0x3dc38658	0.095471084
35	0xbb7b8800	-0.0038380623
36	0x3caa8740	0.020816445
37	0xbda3e7ba	-0.08003183
38	0x3b557e00	0.0032576323
39	0xbd2aa390	-0.04165989
40	0x3d59c05c	0.053161964
41	0x3daf9e9e	0.08575176
42	0x3dfbe6dc	0.12299892
43	0x3d386908	0.04502204
44	0x3da37b8e	0.079825506
45	0xbdec1490	-0.115273595
46	0xbcdbfe40	-0.026854634
47	0xbd75f184	-0.06004478
48	0xbd89d4ee	-0.06730066
49	0x3daf2260	0.085514784
50	0x3d258a54	0.040415123
51	0x3dcd29b4	0.1001772
52	0xbda1c970	-0.07899749
53	0x3cb199b8	0.021679744
54	0xbdc22c16	-0.09481065
55	0x3ddf3b22	0.108999506
56	0x3ca23f10	0.019805461
57	0xbce30e78	-0.02771686
58	0x3dc440c2	0.09582664
59	0xbdb2e450	-0.087349534
60	0x3db4d886	0.08830361
61	0xbde7a484	-0.11310676
62	0xbcb38310	-0.021913081
63	0xbde3e26a	-0.111271694
64	0x3d342a0c	0.04398541
65	0x3a009a00	0.000490576
66	0xbd8fd740	-0.070234776
67	0xbda21cd4	-0.07915655
68	0xbdd21634	-0.10258141
69	0xbdcf2942	-0.10115291
70	0xbdc7fa98	-0.09764594
71	0xbdeb9106	-0.115022704
72	0x3dc3f992	0.09569086
73	0xbdc1d54a	-0.0946451
74	0xbd9fe9fa	-0.07808299
75	0x3d3fc0a4	0.046814576
76	0x3c6d5140	0.014484704
77	0xbb84d3a0	-0.004053548
78	0xbd82748a	-0.06369884
79	0x3d7a9bac	0.061183617
80	0xbd69e208	-0.057100326
81	0x3da0ad4a	0.07845552
82	0x3c244c90	0.01002802
83	0x3d72f5c8	0.059316427
84	0xbd13d228	-0.036089092
85	0x3c4f2b30	0.012644574
86	0x3d2547a8	0.04035154
87	0x3d6d9884	0.05800678
88	0xbde7bc84	-0.113152534
89	0x3dac7716	0.08421151
90	0x3ce063e0	0.027391374
91	0x3d1e4214	0.038637236
92	0xbd1c4a34	-0.038156703
93	0x3d2d38ac	0.042290375
94	0x3dfe05ec	0.12403473
95	0xbd7ce16c	-0.061738417
96	0xbdc2d290	-0.09512818
97	0xbccd6480	-0.025072336
98	0x3ca6b468	0.020349696
99	0x3cdb5ea0	0.02677852
100	0x3dde140e	0.10843669
101	0x3dea7fb2	0.11450137
102	0x3d727cf4	0.059201196
103	0xbd846b20	-0.06465745
104	0xbc8a9160	-0.016915023
105	0xbc7cb0b0	-0.015422985
106	0xbdcffea2	-0.10155989
107	0x3ddbdf4a	0.107359484
108	0xbda19a72	-0.07890786
109	0x3c8564a8	0.016283348
110	0xbd217da4	-0.03942646
111	0x3c10d120	0.008838922
112	0x3df3da00	0.119068146
113	0xbdf31c08	-0.11870581
114	0xbd64f984	-0.05590202
115	0x39c14c00	0.00036868453
116	0x3db63748	0.08897263
117	0x3d8de202	0.06927873
118	0xbd1e7570	-0.038686216
119	0xbd130550	-0.03589374
120	0x3d001324	0.031268254
121	0x3dedc552	0.116099015
122	0x3c0e3c10	0.008681312
123	0xbd214f04	-0.039381996
124	0x3dd79bde	0.10527776
125	0x3de3c6f4	0.11121932
126	0x3d716ba0	0.05894053
127	0xbb211400	-0.0024578571
128	0x3dc36a40	0.0954175
129	0x3d95a742	0.073072925
130	0xbdf0cbb2	-0.11757602
131	0xbcbfb910	-0.023403674
132	0x3d5a4774	0.0532908
133	0x3b906500	0.0044065714
134	0x3da92fca	0.08261068
135	0x3dc8960a	0.09794243
136	0xbcc6d4b8	-0.024271354
137	0x3b990820	0.004670158
138	0x3d280f5c	0.041030273
139	0x3d929710	0.07157719
140	0xbcbaef30	-0.022819132
141	0x3c1f3bf0	0.00971888
142	0xbdf1c94c	-0.118059725
143	0xbc71c080	-0.014755368
144	0xbd2b9c28	-0.04189697
145	0xbd2e8fa4	-0.042617455
146	0x3dabab68	0.083823025
147	0xbdaaab04	-0.083334
148	0xbdc4930a	-0.09598358
149	0x3deefd76	0.116694376
150	0xbd355a2c	-0.044275448
151	0xbc111490	-0.008855
152	0xbb2c0680	-0.0026248991
153	0xbdeb823c	-0.114994496
154	0x3cc24470	0.023714274
155	0xbb85b6a0	-0.0040806085
156	0x3d918a00	0.071063995
157	0xbde7a664	-0.11311033
158	0x3d94b15c	0.07260391
159	0xbd92091c	-0.07130644
160	0xbdde33a6	-0.10849695
161	0x3de5bc08	0.11217505
162	0x3d650fe4	0.055923358
163	0xbdd193d2	-0.102332726
164	0xbd8f2dfe	-0.06991194
165	0x3bc9dfe0	0.006160721
166	0xbbe91660	-0.007113263
167	0x3d1ca994	0.03824766
168	0x3da335e6	0.07969265
169	0xbc915fb0	-0.017745823
170	0x3df1692c	0.11787638
171	0xbdd9e18c	-0.10638723
172	0x3dfeac32	0.124351874
173	0x3d8e4048	0.069458544
174	0x3d7b060c	0.061285064
175	0xbda65e7c	-0.0812349
176	0xbc57fdc0	-0.013183057
177	0x3de91f50	0.113829255
178	0xbc1c44b0	-0.009537861
179	0xbdd5870e	-0.1042615
180	0x3b8214a0	0.003969744
181	0x3de2544c	0.110512346
182	0xbdeb4666	-0.11488037
183	0xbdbd9340	-0.09256601
184	0x3d8b7d30	0.06810987
185	0x3c5176a0	0.01278463
186	0x3dedcd42	0.116114154
187	0xbcad55e8	-0.021159127
188	0xbdfde2b6	-0.12396757
189	0x3dc51d5c	0.096247405
190	0xbd8ec98e	-0.06972037
191	0x3d8bb500	0.068216324
192	0xbd8dcb4c	-0.069235414
193	0xbdbbe00e	-0.091735944
194	0xbde4a118	-0.11163539
195	0xbc7f0f80	-0.01556766
196	0xbd938fb6	-0.07205145
197	0x3c842f48	0.016135827
198	0x3d8b7f0e	0.06811343
199	0x3dfe690a	0.12422378
200	0x3da4edbc	0.08053157
201	0xbccae958	-0.02476947
202	0xbd5e49bc	-0.054269537
203	0xbd294ed0	-0.041334927
204	0x3dbac45a	0.09119482
205	0xbc65f7f0	-0.014036164
206	0x3dbbeeaa	0.09176381
207	0xbd199f2c	-0.037505314
208	0x3b5b9a00	0.003350854
209	0x3cf4e500	0.029894352
210	0xbd89fe14	-0.06737915
211	0xbdf8850e	-0.12134753
212	0x3da486d4	0.08033529
213	0xbb652f80	-0.003497094
214	0xbd52fc7c	-0.05151032
215	0x3d638b38	0.05555269
216	0x3d7fbb40	0.062434435
217	0x3d31998c	0.043359324
218	0x3d7fe428	0.062473446
219	0x3c784af0	0.015154585
220	0x3daacea4	0.08340195
221	0x3d0bbfd0	0.034118474
222	0xbd9b2dd8	-0.075771034
223	0x3d266bd4	0.040630177
224	0x3db47daa	0.08813031
225	0x3df0a92e	0.117510185
226	0x3de5b5fc	0.112163514
227	0x3dd0c9c2	0.10194732
228	0xbd84e734	-0.06489411
229	0xbd299b54	-0.041407898
230	0xbd088618	-0.033331007
231	0xbdd21e78	-0.10259718
232	0xbde7aeee	-0.11312662
233	0x3cb06768	0.021533683
234	0xbd8da3ac	-0.069159836
235	0xbd4a20d0	-0.0493477
236	0xbd1eef44	-0.0388024
237	0x3d9e8a6e	0.07741247
238	0xbd9d75a6	-0.07688455
239	0xbd0b453c	-0.034001574
240	0x3c109020	0.008823425
241	0xbb23bbc0	-0.0024983734
242	0xbdc0f618	-0.09421939
243	0x3c30fb00	0.010802031
244	0x3de0a95c	0.10969803
245	0xbc6ba200	-0.0143818855
246	0xbd1354e4	-0.03596963
247	0x3d8bf9e8	0.06834775
248	0xbdef5854	-0.11686769
249	0xbd9fcd50	-0.07802832
250	0xbd77f0b0	-0.06053227
251	0x3b7d9940	0.003869608
252	0x3d1ad230	0.037798107
253	0x3dd155a6	0.10221414
254	0xbdd65374	-0.10465136
255	0x3c5d3310	0.013500944

fc2.bias f4 [64]
0	0x3d57f8b4	0.052727416
1	0x3c99ded8	0.018783018
2	0x3da4bf6c	0.08044323
3	0xbdcab776	-0.09898274
4	0x3c8c9078	0.017158732
5	0xbca98800	-0.020694733
6	0x3dd829c2	0.1055484
7	0x3cec10a8	0.028816536
8	0x3d3f9adc	0.046778545
9	0xbd5371ec	-0.051622316
10	0x3ddbe7c0	0.10737562
11	0x3dfbed0e	0.12301074
12	0x3dde1d7c	0.108454674
13	0xbd9664ba	-0.07343431
14	0xbcaa8320	-0.020814478
15	0xbdbefb3a	-0.093252614
16	0xbde9348e	-0.11386977
17	0x3db95798	0.0904991
18	0x3d68e7bc	0.056861624
19	0xbd8706b4	-0.065930754
20	0xbd5409cc	-0.051767156
21	0x3d212b78	0.039348096
22	0xbd85a81c	-0.06526205
23	0xbdfd67f2	-0.123733416
24	0x3d776f4c	0.060408875
25	0x3db6682e	0.089065894
26	0x3dce639e	0.10077594
27	0x3d890aa2	0.06691481
28	0x3ddba058	0.107239425
29	0x3cfc1b00	0.030774593
30	0xbdd0cf2a	-0.101957634
31	0x3d014cc8	0.031567365
32	0x3cb37868	0.021908
33	0x3dc081ea	0.09399779
34	0xbc63e200	-0.013908863
35	0xbdf3b492	-0.118996754
36	0x3da06354	0.07831445
37	0x3c37e340	0.011223614
38	0xbd8d1ae0	-0.068898916
39	0x3cf94878	0.030430064
40	0xbdfd3940	-0.12364435
41	0xbdcd811c	-0.10034391
42	0x3d51c72c	0.051215336
43	0xbdfd78c4	-0.1237655
44	0x3dbe5966	0.09294395
45	0xbdc2bfcc	-0.095092386
46	0xbd96a182	-0.07355024
47	0x3d49bf90	0.049254954
48	0xbca1bda8	-0.019743755
49	0x3d698dcc	0.057019994
50	0x3d48f33c	0.04906009
51	0xbd79fba0	-0.061030984
52	0x3ca49e50	0.02009502
53	0xbdc036b4	-0.09385434
54	0x3d63caa4	0.055613175
55	0x3c0fd2f0	0.008778319
56	0xbde15500	-0.110025406
57	0x3dea5354	0.11441675
58	0x3d8e0382	0.06934263
59	0x3d8356ac	0.06413016
60	0x3d877f38	0.06616062
61	0x3ca424b8	0.02003704
62	0x3dbe2cfa	0.09285922
63	0x3dd43de4	0.10363367

fc3.weight f4 [64, 64]
0	0x3da7f602	0.08201219
1	0xbde5ff44	-0.11230329
2	0x3d2e80e8	0.042603403
3	0xbde773c2	-0.11301376
4	0xbd33ea5c	-0.043924674
5	0xbdb7d936	-0.089769766
6	0xbd887120	-0.06662202
7	0x3bf041e0	0.0073320717
8	0x3dfe70fe	0.12423895
9	0x3df691a0	0.120394945
10	0xbdc309cc	-0.09523353
11	0xbc91eef8	-0.017814144
12	0x3d6d725c	0.05797039
13	0x3db86ba8	0.09004909
14	0xbd4cd50c	-0.050007865
15	0xbd2afbc0	-0.041743994
16	0x3dca6840	0.09883165
17	0x3ddeafd2	0.10873379
18	0xbd758068	-0.05993691
19	0x3dbd0796	0.092299625
20	0x3c10f450	0.008847311
21	0xbd9dd3fc	-0.077064484
22	0x3da83c4c	0.08214626
23	0xbda3f8fc	-0.080064744
24	0x3b7f7b40	0.0038983375
25	0x3da0a960	0.07844806
26	0x3d159de4	0.03652753
27	0xbda34f1c	-0.07974073
28	0xbd607e58	-0.05480799
29	0xbd192a7c	-0.037394032
30	0xbd8a09b2	-0.067401305
31	0x3dc8a03c	0.09796187
32	0xbc52eed0	-0.01287432
33	0xbd3d9338	-0.046282977
34	0x3dca3f70	0.09875381
35	0xbd80e46a	-0.062935665
36	0xbccdcad0	-0.025121123
37	0x3d98a3d8	0.07453126
38	0x3da84eea	0.08218177
39	0x3d5b16ac	0.05348842
40	0xbd74f6ec	-0.059805796
41	0x3dcf15ac	0.101115555
42	0x3dd97106	0.10617261
43	0xbdddcda4	-0.108302385
44	0x3de55ed0	0.11199725
45	0x3dec1aa4	0.11528519
46	0xbdad235e	-0.084540114
47	0xbda35f58	-0.0797717
48	0x3d9f98a8	0.07792789
49	0x3da18b68	0.07887918
50	0x3db6333e	0.088964924
51	0xbd0b0fc0	-0.033950567
52	0xbd3d22d4	-0.046175793
53	0xbddf98b6	-0.10917799
54	0x3daa7892	0.08323778
55	0x3ceb5e80	0.028731585
56	0x3a817080	0.0009875447
57	0xbd9bc01a	-0.07605
58	0xbdcb169c	-0.09916422
59	0xbce8f7b8	-0.028438434
60	0x3cc8d768	0.024516776
61	0x3ca68770	0.020328254
62	0x3dbe1a18	0.09282321
63	0x3d1c6c18	0.038189024
64	0x3ce31278	0.027718768
65	0x3dfc8f1e	0.12331985
66	0xbd8e63ea	-0.06952651
67	0xbde3b43c	-0.11118361
68	0x3ba6e9a0	0.0050937682
69	0xbdd8d9dc	-0.105884284
70	0x3c9f7da0	0.019469082
71	0x3b624180	0.0034523904
72	0xbc974da0	-0.018469632
73	0x3cce1c10	0.025159866
74	0x3d39ce98	0.04536304
75	0xbde69002	-0.11257936
76	0xbd8ac7fa	-0.06776424
77	0x3d346930	0.044045627
78	0xbd0cc350	-0.034365952
79	0xbdfbf938	-0.12303394
80	0x3d413b18	0.047175497
81	0xbc8a6d78	-0.016897902
82	0xbdf76866	-0.12080459
83	0x3d1f8760	0.038947463
84	0xbdf11d22	-0.11773135
85	0xbc4bc8e0	-0.012438029
86	0x3d966d40	0.073450565
87	0xbc298b10	-0.0103480965
88	0x3c955750	0.01823011
89	0x3dc70972	0.097185984
90	0xbca7f7e8	-0.020503953
91	0x3c3090f0	0.010776743
92	0xbd78f080	-0.060776234
93	0x3d469864	0.048485175
94	0xbde94eb4	-0.113919646
95	0xbc5416f0	-0.012944922
96	0x3c9292c0	0.017892241
97	0x3c422740	0.011850178
98	0x3ca33eb8	0.019927368
99	0xbd9bd24a	-0.07608469
100	0xbd76f200	-0.060289383
101	0x3bf3b6a0	0.007437542
102	0x3cbc46f0	0.022983044
103	0xbdc5df04	-0.096616775
104	0x3dfc48ce	0.12318574
105	0xbdb8ed86	-0.09029679
106	0xbc7919d0	-0.015203908
107	0xbd8e5aba	-0.069508985
108	0xbdffac06	-0.12483983
109	0xbdc51284	-0.09622672
110	0x3d415dd4	0.047208622
111	0xbdab851e	-0.083749995
112	0x3cc78740	0.024356484
113	0xbcba9360	-0.022775352
114	0x3d096068	0.033539206
115	0xbcba30e8	-0.022728398
116	0x3de0e49e	0.10981105
117	0xbddca3f2	-0.107734576
118	0x3d4153b0	0.04719895
119	0xbba14340	-0.004921347
120	0xbdbd2efc	-0.09237477
121	0xbb923900	-0.0044623613
122	0x3d9ca76a	0.07649119
123	0xbb9cbaa0	-0.0047829896
124	0x3d23614c	0.03988771
125	0x3cb6e4b8	0.022325858
126	0xbd4fe4c8	-0.050755292
127	0x3cd4bf70	0.02597019
128	0x3d506bac	0.050883934
129	0xbdb52468	-0.088448346
130	0x3d5acc54	0.05341752
131	0x3da76ab0	0.08174646
132	0xbddf4d46	-0.109034106
133	0xbda0a30e	-0.078436
134	0x3dc0cafc	0.09413716
135	0x3d72de44	0.059294
136	0x3dc2db5c	0.09514496
137	0xbdaf4b1e	-0.08559249
138	0xbda06152	-0.078310624
139	0xbde81586	-0.1133223
140	0xbcc56e50	-0.024100453
141	0xbdea44bc	-0.11438891
142	0xbd826c84	-0.06368354
143	0xbcfae288	-0.030625597
144	0x3d8e5820	0.06950402
145	0xbd9f7188	-0.07785326
146	0xbd28f8e8	-0.041253
147	0x3c2514c0	0.010075748
148	0xbd860f86	-0.065459296
149	0x3d19c0bc	0.03753732
150	0x3d1895a0	0.03725207
151	0xbd638778	-0.055549115
152	0xbd4c7ebc	-0.04992555
153	0x3d867596	0.065653965
154	0xbda3370e	-0.07969485
155	0x3dd6c112	0.10486044
156	0xbc3a72f0	-0.011379942
157	0xbc8ce310	-0.017198116
158	0x3df938d8	0.12169045
159	0xbd9f4506	-0.07776837
160	0xbd8a6f92	-0.067595616
161	0xbdeb7b2a	-0.11498101
162	0x3dabf93c	0.08397147
163	0x3c9085b8	0.017641887
164	0xbd99a0f4	-0.075014025
165	0xbde306a0	-0.11085248
166	0xbd9eb874	-0.077500254
167	0x3d711500	0.058857918
168	0x3dfd8494	0.12378803
169	0xbded49b0	-0.115863204
170	0xbdc30370	-0.0952214
171	0x3db3b24c	0.08774242
172	0xbd5b340c	-0.053516433
173	0x3d6ebab0	0.058283508
174	0x3dd8bee8	0.105832875
175	0xbd03c9d8	-0.032174915
176	0xbd6b0b0c	-0.057383582
177	0x3c1a1320	0.009403974
178	0x3d9ea7ae	0.07746826
179	0x3da3f15e	0.080050215
180	0xbdc53fa8	-0.09631282
181	0x3df25682	0.11832906
182	0xbd28527c	-0.04109429
183	0xbcd360c8	-0.025802985
184	0x3dbcb142	0.09213497
185	0x3dcf923c	0.10135314
186	0xbd85830e	-0.06519137
187	0x3d17d4b0	0.03706807
188	0x3c908b38	0.01764451
189	0xbdaa96c0	-0.083295345
190	0xbc01d2b0	-0.007923767
191	0xbdc390f0	-0.09549129
192	0xbdb74950	-0.0894953
193	0x3dca5216	0.09878938
194	0xbd1b05b4	-0.037847236
195	0xbdef5950	-0.11686957
196	0xbdaf2318	-0.085516155
197	0x3d93bd64	0.07213858
198	0x3d05a254	0.03262551
199	0xbd57c5f8	-0.052679032
200	0x3d3d84f8	0.046269387
201	0xbdbe1d5c	-0.092829436
202	0x3bf67100	0.007520795
203	0xbd3ff558	-0.046864837
204	0x3d5fce30	0.054639995
205	0x3d94b438	0.072609365
206	0xbd1c1010	-0.038101256
207	0xbdc5b766	-0.09654121
208	0xbde195a6	-0.11014871
209	0xbd884882	-0.06654455
210	0xbd2db5c0	-0.04240966
211	0xbdf19aca	-0.11797102
212	0x3c17c390	0.009262934
213	0xbbc66a60	-0.0060551614
214	0x3d78ecfc	0.06077288
215	0x3df3198e	0.118701085
216	0xbd75c7b8	-0.06000492
217	0x3db7ba14	0.089710385
218	0x3de32eb0	0.11092889
219	0xbcdd6dd8	-0.027029917
220	0x3df03f08	0.11730772
221	0xbc974b28	-0.018468454
222	0xbdfddba0	-0.12395406
223	0x3def22f0	0.11676586
224	0x3dc7a58c	0.097483724
225	0xbca1aa28	-0.019734457
226	0xbd612fb0	-0.05497712
227	0x3dde0eea	0.108426884
228	0xbc1b7e80	-0.009490609
229	0x3b5ee300	0.0034009814
230	0xbda81d1e	-0.08208679
231	0xbda3617c	-0.07977578
232	0x3dce2d2e	0.10067211
233	0x3caf4640	0.021395802
234	0xbdd0ca94	-0.10194889
235	0x3d464958	0.04840979
236	0xbd853e6c	-0.06506047
237	0xbbb2c240	-0.0054552853
238	0xbc9f9618	-0.01948075
239	0xbd10dfa0	-0.035369515
240	0xbdc9e2d4	-0.09857717
241	0x3d852358	0.06500882
242	0x3d2f2430	0.04275912
243	0x3d0bde70	0.03414768
244	0x3db78ba2	0.0896218
245	0x3d82bb34	0.063833624
246	0xbbc12800	-0.005894661
247	0xbc745030	-0.014911696
248	0x3d3a77cc	0.045524403
249	0x3ddbad82	0.10726453
250	0xbdd773ce	-0.10520135
251	0x3dab9c5c	0.083794326
252	0x3dba8b44	0.09108594
253	0x3d9d9d30	0.07695997
254	0x3d074c70	0.03303188
255	0xbd3d9f34	-0.046294406

fc3.bias f4 [64]
0	0x3d83125a	0.06399985
1	0xbda06c6e	-0.07833181
2	0xbd8c4c54	-0.06850496
3	0x3db40a2c	0.08791003
4	0x3cffc7f0	0.031223267
5	0x3c52b640	0.012860835
6	0x3d89cb00	0.06728172
7	0x3d517dec	0.05114548
8	0xbda12cf0	-0.07869899
9	0xbc7ebb60	-0.015547603
10	0x3d42d9c4	0.04757096
11	0x3dac6130	0.084169745
12	0x3dbf905c	0.09353706
13	0x3d56bbb8	0.052425116
14	0xbdb47ad2	-0.088124886
15	0x3d96f8f0	0.073717
16	0xbdaf6d64	-0.085657865
17	0xbdb9bd5a	-0.09069319
18	0x3cb7ab90	0.022420675
19	0xba19dd00	-0.00058694184
20	0xbd73c1fc	-0.05951117
21	0xbd5825b4	-0.05277033
22	0xbd989094	-0.07449451
23	0xbda7a2f8	-0.08185381
24	0x3dc5bdfa	0.09655376
25	0xbd1d634c	-0.038424775
26	0xbda5e14c	-0.080996126
27	0x3dfe9a32	0.12431754
28	0xbc8f8348	-0.017518654
29	0xbdd6c620	-0.10487008
30	0x3d39d5cc	0.04536991
31	0xbc5cadd0	-0.0134691745
32	0xbcfef528	-0.031122759
33	0x3b27f040	0.0025625378
34	0x3cf82180	0.030289412
35	0x3dc9e586	0.09858231
36	0x3da7d70e	0.08195315
37	0xbd681b08	-0.056666404
38	0xbdfa75be	-0.12229489
39	0x3dc00d90	0.09377587
40	0xbd8cb0ec	-0.06869683
41	0x3dfe5f32	0.12420501
42	0x3cb2ebd8	0.021840975
43	0xbd1f7640	-0.03893113
44	0x3d87d95e	0.066332564
45	0xbd989c28	-0.074516594
46	0xbdceb0de	-0.100923285
47	0x3d4dc1a8	0.050233513
48	0x3d781ce4	0.060574427
49	0xbc94c620	-0.01816088
50	0xbd168410	-0.03674704
51	0x3da56a86	0.08076958
52	0x3d005870	0.03133434
53	0x3c6fc4d0	0.014634326
54	0x3d76741c	0.060169324
55	0xbd2cc998	-0.042184442
56	0xbc7e6650	-0.015527323
57	0x3dcf0e66	0.10110168
58	0xbd5e1108	-0.05421546
59	0x3d07db54	0.033168152
60	0xbdfbc640	-0.122936726
61	0x3cc4e070	0.024032801
62	0xbda883a6	-0.08228235
63	0x3db0e4c4	0.086373836

fc4.weight f4 [64, 64]
0	0x3cdc8e98	0.026923463
1	0xbd853fe4	-0.06506327
2	0x3b565180	0.0032702386
3	0x3d7dc7f0	0.061958253
4	0x3ccacc00	0.024755478
5	0x3d7ded18	0.06199369
6	0xbd97697e	-0.07393168
7	0x3d0dea0c	0.034647033
8	0x3d9ac2c8	0.07556683
9	0xbd68d7a4	-0.056846276
10	0x3dc01c9c	0.09380457
11	0xbdbaf3d8	-0.09128541
12	0xbd72085c	-0.059090003
13	0x3d3ff520	0.04686463
14	0xbd68a7d4	-0.05680068
15	0x3d4ddf48	0.050261766
16	0x3db845ec	0.089977115
17	0xbb9741a0	-0.0046159774
18	0xbde61af0	-0.11235607
19	0x3d53d750	0.05171901
20	0xbdff1f66	-0.12457161
21	0xbbbd8f60	-0.005784914
22	0x3c590b80	0.013247371
23	0xbcfd08e8	-0.030888036
24	0x3decf95a	0.115709975
25	0xbd1291d0	-0.03578359
26	0x3cb1e3f0	0.021715134
27	0xbdc6a676	-0.09699719
28	0x3c148d00	0.00906682
29	0x3d904668	0.07044679
30	0x3dc90e8c	0.09817228
31	0xbda59ec0	-0.0808692
32	0x3d574b9c	0.05256234
33	0xbcf433f0	-0.029809922
34	0xbd84342a	-0.06455262
35	0x3daafb18	0.083486736
36	0x3b9cb420	0.0047822148
37	0xbdc7d28c	-0.097569555
38	0xbda5fdde	-0.08105062
39	0xbd6f273c	-0.058387026
40	0x3dfaebe6	0.12252025
41	0xbdcbe8be	-0.099565014
42	0xbbaa5960	-0.0051986426
43	0x3dc1ca3a	0.094624
44	0xbdd48548	-0.10376984
45	0xbdf276de	-0.11839078
46	0xbd400908	-0.046883613
47	0xbd479a1c	-0.048730955
48	0xbd9cacdc	-0.07650158
49	0xbd69db54	-0.057093933
50	0x3cb79ef0	0.022414654
51	0xbda7e422	-0.0819781
52	0x3dee47a6	0.116347596
53	0x3d20d094	0.039261416
54	0xbdbe8ad8	-0.09303826
55	0xbd7a0ed4	-0.061049297
56	0xbd1fe7dc	-0.039039478
57	0xbdba3f72	-0.090941325
58	0x3dc90c7e	0.09816836
59	0xbccfc868	-0.025364116
60	0x3cfa8f80	0.030586004
61	0xbca0e438	-0.019640073
62	0xbc3db260	-0.011578172
63	0xbde8b8ac	-0.11363348
64	0xbdb23542	-0.08701564
65	0x3d097f50	0.03356868
66	0x3cb95d18	0.022627398
67	0xbd8bcbea	-0.06826003
68	0xbd77aa58	-0.060465187
69	0xbd82f5a6	-0.0639451
70	0xbcb082d0	-0.021546751
71	0xbd31c7d4	-0.04340346
72	0x3dfb0b06	0.12257962
73	0x3dbae5a6	0.09125833
74	0xbd60ac8c	-0.054852054
75	0xbcc290e0	-0.023750722
76	0x3df1d00a	0.118072584
77	0x3d36afe4	0.044601336
78	0xbdfc5b7a	-0.12322135
79	0xbc983a28	-0.018582419
80	0x3dadc590	0.08484948
81	0x3ac85200	0.0015283227
82	0xbc782f70	-0.015148029
83	0x3d769950	0.060204804
84	0xbd4f6980	-0.050637722
85	0xbda6f79a	-0.08152695
86	0xbbd854a0	-0.006601885
87	0x3d1894bc	0.03725122
88	0x3da20f3c	0.07913062
89	0xbd2e1988	-0.042504817
90	0x3c1bf160	0.0095179975
91	0x3dc5f630	0.09666097
92	0x3d575650	0.05257255
93	0xbd76426c	-0.06012194
94	0xbd235f2c	-0.039885685
95	0xbbb57180	-0.005537212
96	0x3be1dde0	0.0068929046
97	0x3da172b0	0.07883203
98	0xbdaebb4a	-0.08531816
99	0x3d496c78	0.04917571
100	0x3dd57532	0.10422744
101	0xbd022dac	-0.031781837
102	0x3da8cf76	0.08242695
103	0x3df184da	0.117929175
104	0x3bca93a0	0.006182149
105	0xbda8f870	-0.08250511
106	0x3dfb77ee	0.12278734
107	0xbcfc0720	-0.030765116
108	0xbddef2d8	-0.108861625
109	0xbcce3de0	-0.025175989
110	0x3d03bee4	0.03216447
111	0xbdd97d7e	-0.10619639
112	0xbd780b94	-0.060557917
113	0x3cd0e030	0.025497526
114	0x3cb977a8	0.022640064
115	0xbdd646d8	-0.10462731
116	0x3d6d0c30	0.05787295
117	0xbdaac052	-0.083374634
118	0xbd93dec8	-0.072202265
119	0xbcd9de38	-0.02659522
120	0xbdc2a940	-0.09504938
121	0x3beb6940	0.0071841776
122	0xbd312118	-0.04324445
123	0x3dd813b6	0.105506346
124	0xbdeb2386	-0.11481385
125	0x3d92aeb0	0.07162225
126	0x3cf776e8	0.030208066
127	0x3db4a272	0.088200465
128	0x3d4ae7a4	0.049537316
129	0x3dac2104	0.08404735
130	0xbd20a284	-0.039217487
131	0xbdeac1c2	-0.114627376
132	0x3b827460	0.003981158
133	0xbd0e9804	-0.034812942
134	0xbd81cca0	-0.06337857
135	0xbde8e0de	-0.11371015
136	0x3d84bbf2	0.0648116
137	0xbd9135b8	-0.07090324
138	0xbdc500a8	-0.09619266
139	0x3debbcc8	0.115106165
140	0xbde87644	-0.113506824
141	0x3d0de88c	0.034645602
142	0x3ce801b8	0.028321132
143	0x3d2d8d18	0.042370886
144	0x3d33b410	0.043872893
145	0x3d233574	0.0398459
146	0x3d07cc80	0.03315401
147	0x3dc0c3be	0.09412335
148	0xbd9c6cfe	-0.07637976
149	0x3ddc3564	0.10752371
150	0xbd2ae354	-0.041720703
151	0x3de2d28c	0.11075315
152	0x3c7e1d90	0.015509978
153	0xbb38b0c0	-0.0028181523
154	0x3dbcef46	0.09225325
155	0xbdd219d0	-0.102588296
156	0x3d91f468	0.07126695
157	0x3c977c28	0.01849182
158	0x3c524900	0.012834787
159	0xbd1881e0	-0.037233233
160	0x3d29e554	0.04147847
161	0xbd551f7c	-0.05203198
162	0xbc892a68	-0.016743854
163	0xbc26d490	-0.010182515
164	0xbd050354	-0.032473877
165	0xbdc96ff4	-0.098358065
166	0xbd09859c	-0.033574685
167	0x3ce03458	0.02736871
168	0xbc1b8a00	-0.009493351
169	0xbc63a470	-0.013894185
170	0xbdf6b522	-0.12046267
171	0xbdf05076	-0.11734097
172	0x3d52a674	0.051428273
173	0x3cda7358	0.026666328
174	0xbd9e50fe	-0.07730292
175	0x3de3658a	0.111033514
176	0xbd8bb430	-0.068214774
177	0x3a2da200	0.0006623566
178	0x3d768cec	0.060192987
179	0x3dab3e18	0.08361453
180	0xbdbd1bee	-0.09233843
181	0x3d98921a	0.07449742
182	0xbdc5f0a4	-0.09665039
183	0x3c129860	0.008947462
184	0x3d939e60	0.07207942
185	0xbd973072	-0.07382287
186	0xbdd4292a	-0.10359414
187	0x3d9e625a	0.07733603
188	0xbdd44732	-0.10365142
189	0x3dc2ca14	0.095111996
190	0xbca6f240	-0.020379186
191	0x3ddab132	0.106783286
192	0x3cbbff68	0.022948936
193	0xbd6fede4	-0.05857648
194	0xbd88e8e4	-0.06685045
195	0x3d73c3f4	0.059513047
196	0x3da52974	0.08064547
197	0xbdba688a	-0.091019705
198	0x3da135ee	0.078716144
199	0x3d82aca8	0.06380588
200	0xbd73c3b0	-0.059512794
201	0xbba95340	-0.005167395
202	0xbdd8b45a	-0.10581274
203	0xbd7a49ac	-0.061105415
204	0xbdfee2ce	-0.12445603
205	0xbdb8dc7e	-0.090264305
206	0x3dec4c06	0.11537938
207	0xbd93f948	-0.07225281
208	0xbda9f70e	-0.08299075
209	0x3c4bb980	0.012434363
210	0x3db324ae	0.087472305
211	0x3de68460	0.11255717
212	0x3df22f34	0.118254095
213	0xbdeafc60	-0.11473918
214	0x3c955e00	0.0182333
215	0xbdb8987a	-0.090134576
216	0x3dfd3916	0.12364404
217	0xbda6177e	-0.081099495
218	0x3d58d0d8	0.052933544
219	0xbd75335c	-0.059863433
220	0x3dd7e8ca	0.10542448
221	0xbc041e60	-0.008063883
222	0xbc5abe20	-0.013350993
223	0xbdea9c10	-0.11455548
224	0xbaaed680	-0.0013339072
225	0xbdc293e0	-0.09500861
226	0xbdc7b166	-0.09750633
227	0xbd5b703c	-0.053573832
228	0x3d6480bc	0.055786833
229	0xbdd86a0e	-0.10567103
230	0xbd06d4d4	-0.032917812
231	0x3d2b54f4	0.041829064
232	0xbdbc0ec2	-0.09182502
233	0xba279d00	-0.0006393939
234	0x3c13b270	0.009014711
235	0x3dec466a	0.11536868
236	0xbd953296	-0.07285039
237	0xbdc546ba	-0.09632631
238	0xbd63bf74	-0.055602506
239	0xbdcfbcb6	-0.10143416
240	0xbcd65b68	-0.026166633
241	0x3db8b1ae	0.09018265
242	0xbd2c8bc0	-0.042125463
243	0x3c8e0350	0.017335564
244	0xbdda6a3a	-0.10664792
245	0xbd6db58c	-0.058034465
246	0x3cb327c8	0.021869555
247	0x3d9ebd90	0.07751
248	0x3cf661d0	0.030075938
249	0x3dc9a798	0.09846419
250	0xbce00cd8	-0.027349874
251	0x3dbdc524	0.09266117
252	0xbddf1ce4	-0.10894182
253	0xbcc75478	-0.02433227
254	0xbdffffe2	-0.12499978
255	0xbdddc918	-0.10829371

fc4.bias f4 [64]
0	0x3de9a166	0.114077374
1	0x3dc7ba70	0.09752357
2	0xbc8bd4f0	-0.01706931
3	0x3d214460	0.039371848
4	0x3d224cac	0.0396239
5	0x3c9654d8	0.018351004
6	0x3bed0e20	0.00723435
7	0xbdbe5d82	-0.09295179
8	0xbde503d0	-0.11182368
9	0x3dcd3c92	0.100213185
10	0xbd82632a	-0.0636657
11	0xbdb60eb0	-0.0888952
12	0x3db8c3a8	0.090216935
13	0xbc9daac8	-0.019246474
14	0xbd785510	-0.060627997
15	0x3ddef76e	0.10887037
16	0x3d92c8a2	0.07167174
17	0xbb45cd00	-0.0030182004
18	0xbdf65dba	-0.12029596
19	0x3dabae68	0.08382875
20	0xbbdce800	-0.0067415237
21	0x3dd193f8	0.10233301
22	0x3d81ab10	0.06331456
23	0x3c9d15f0	0.0191755
24	0x3d2486bc	0.040167555
25	0x3dd2f4ac	0.10300574
26	0xbd8fa14c	-0.07013187
27	0x3d821a90	0.06352723
28	0x3d36c7b4	0.044624045
29	0x3d8dc3c0	0.06922102
30	0x3d97092a	0.07374795
31	0xbdc31410	-0.09525311
32	0xbd8d0c80	-0.0688715
33	0x3de53982	0.11192609
34	0x3dd4b674	0.10386363
35	0xb9b49200	-0.00034441054
36	0x3deea368	0.11652261
37	0x3d13a438	0.036045283
38	0xbc888ea0	-0.016669571
39	0xbd89ee18	-0.06734866
40	0x3dffa10c	0.12481889
41	0x3d8c53be	0.0685191
42	0xbdade750	-0.08491385
43	0xbdaac61e	-0.08338569
44	0xbd954df2	-0.072902575
45	0xbd708ef0	-0.058730066
46	0xbd845a36	-0.06462519
47	0xbdfc3a74	-0.123158365
48	0xbd5e461c	-0.05426608
49	0xbdf24cfe	-0.11831091
50	0xbd9daaca	-0.07698591
51	0xbcd6b1b0	-0.026207775
52	0x3d83c182	0.06433393
53	0x3dd24a5a	0.10268088
54	0xbdf4fb30	-0.11961973
55	0x3d43c564	0.04779567
56	0x3ce93d38	0.028471574
57	0x3cc0bba0	0.023526967
58	0x3dc9bb2e	0.09850155
59	0xbd12cbac	-0.035838768
60	0x3daadf3e	0.08343361
61	0x3ce323b0	0.027726978
62	0xbd363d3c	-0.04449199
63	0xbddfc398	-0.109259784

fc5.weight f4 [3, 64]
0	0xbd11ace0	-0.035565257
1	0xbdf4acc4	-0.11947015
2	0x3d2c8498	0.04211864
3	0xb9366c00	-0.00017397106
4	0xb9dfc400	-0.00042679906
5	0x3dec84ba	0.11548753
6	0x3c412860	0.011789411
7	0x3d529528	0.051411778
8	0x3dcc90f6	0.099885866
9	0x3db78590	0.08961022
10	0x3da73b70	0.08165634
11	0xbc167110	-0.00918223
12	0xbd6e26f4	-0.058142617
13	0xbdaf0994	-0.08546749
14	0x3d0ffb1c	0.035151586
15	0xbd11aa1c	-0.03556262
16	0xbd33dc0c	-0.043911025
17	0x3b21b280	0.0024673045
18	0xbdb0404a	-0.08606012
19	0x3df05fe8	0.11737043
20	0x3d8fc42a	0.07019837
21	0x3d994f52	0.07485832
22	0xbd5a0f48	-0.05323723
23	0x3da34892	0.07972826
24	0xbdc69e82	-0.09698202
25	0x3d227dac	0.03967063
26	0xbd7ff320	-0.06248772
27	0x3df437b4	0.11924687
28	0xbda1773c	-0.0788407
29	0xbd0a1d58	-0.03371939
30	0xbdd91b10	-0.10600865
31	0x3d094ad8	0.033518642
32	0xbd293b18	-0.04131612
33	0xbce51c60	-0.027967632
34	0xbdcff9b2	-0.101550475
35	0xbc6bcb00	-0.014391661
36	0xbd3617d0	-0.044456303
37	0xbd24dc7c	-0.040249333
38	0xbd7f7e28	-0.06237617
39	0xbd84b966	-0.064806744
40	0xbcd4d088	-0.025978342
41	0xbcf0c6a0	-0.029391587
42	0xbd464968	-0.04840985
43	0xbdb37068	-0.08761674
44	0x3dacdc4c	0.08440456
45	0xbd35e86c	-0.044411108
46	0x3db1039a	0.08643265
47	0x3d65ab64	0.056071654
48	0xbb8c8580	-0.0042883754
49	0x3d9a78be	0.07542561
50	0xbdb24ed8	-0.087064445
51	0xbd62607c	-0.055267796
52	0xbc206990	-0.009790793
53	0xbdd7b4a0	-0.10532498
54	0x3def8636	0.116955206
55	0x3c97dc50	0.01853767
56	0xbcc1d060	-0.023658931
57	0x3dd642ac	0.104619354
58	0xba3d2800	-0.00072157383
59	0xbde8611e	-0.11346649
60	0xbdea9c84	-0.11455634
61	0x3d43fb80	0.04784727
62	0xbdbb8e52	-0.09158005
63	0xbdca582e	-0.098801
64	0xbce27678	-0.02764438
65	0xbdf5734e	-0.11984883
66	0x3d8ad976	0.06779759
67	0xbd310c84	-0.043224826
68	0x3de8b1b0	0.11362016
69	0x3de8ccee	0.11367212
70	0xbdf6bdb4	-0.12047902
71	0xbdef10da	-0.11673136
72	0x3d4fb510	0.050709784
73	0xbca83588	-0.020533338
74	0xbac52b00	-0.0015042722
75	0xbda8571a	-0.08219738
76	0x3d7ddfb4	0.061980918
77	0x3d39700c	0.04527287
78	0x3df0d07a	0.11758514
79	0x3d8c01de	0.06836294
80	0x3db57e62	0.08861996
81	0xbc99b7d0	-0.018764406
82	0xbbbd3520	-0.0057741553
83	0xbdcd2c5e	-0.10018228
84	0xbc599b30	-0.0132816285
85	0xbd446c14	-0.047954634
86	0x3d993d32	0.07482375
87	0x3ded1e64	0.11578062
88	0x3ddfcc52	0.10927643
89	0x3df3e8d4	0.11909643
90	0x3dd75af0	0.10515392
91	0x3cbcb040	0.023033261
92	0xbc376b20	-0.011194974
93	0x3d8d897a	0.06910987
94	0x3dabce0a	0.08388908
95	0x3cce6be0	0.025197923
96	0x3db4020a	0.087894514
97	0xbda8a3c6	-0.08234362
98	0x3a9d4400	0.0011998415
99	0xbdea670c	-0.11445436
100	0xbddad7d6	-0.10685699
101	0xbbd049e0	-0.006356463
102	0x3dcc6dea	0.09981902
103	0xbcaa2df8	-0.020773873
104	0x3d9c9bb0	0.076468825
105	0x3d513f44	0.051085725
106	0x3ccf5660	0.025309741
107	0x3d9c5556	0.07633464
108	0xbbf5d1c0	-0.007501811
109	0x3db0e3dc	0.08637211
110	0xbdf9e106	-0.12201123
111	0x3cb8bcc0	0.02255094
112	0xbd17ea1c	-0.0370885
113	0x3cfb1518	0.030649707
114	0x3df468fa	0.11934085
115	0xbd9d70a4	-0.076875
116	0xbdea657a	-0.11445136
117	0xbce8c1f0	-0.02841279
118	0xbdc5331c	-0.09628889
119	0xbdd8a80c	-0.105789274
120	0x3dbb0a5a	0.09132834
121	0xbdaee1fa	-0.08539195
122	0xbde43378	-0.111426294
123	0xbce1cb38	-0.027562723
124	0xbddee32e	-0.10883175
125	0xbc53d4b0	-0.012929127
126	0x3d8e3438	0.06943554
127	0xbdefaef4	-0.117032915
128	0xbc1bfce0	-0.009520739
129	0x3d738200	0.05945015
130	0x3d3d6544	0.046239153
131	0xbdc15a66	-0.0944107
132	0xbdba573c	-0.0909867
133	0x3d42e570	0.04758209
134	0xbb34cf40	-0.002758935
135	0x3d4aa834	0.049476817
136	0x3cfbcd50	0.030737549
137	0x3ca68398	0.02032642
138	0xbd0ae77c	-0.033912167
139	0x3de34198	0.110964954
140	0x3db74c5a	0.0895011
141	0x3de1a11e	0.11017059
142	0x3d824fc0	0.06362867
143	0x3d3afb08	0.04564956
144	0x3ce36dc0	0.027762294
145	0x3db07dc0	0.08617735
146	0x3d00f8b0	0.031487167
147	0xbd55ab40	-0.05216527
148	0x3d61f0dc	0.055161342
149	0x3cea3e50	0.028594166
150	0x3d387ac0	0.04503894
151	0xbd8ec502	-0.0697117
152	0xbdbeb85a	-0.09312506
153	0xbd749768	-0.059714705
154	0x3d92627c	0.07147691
155	0x3dccf286	0.10007195
156	0xbd1e5874	-0.038658574
157	0x3d374f90	0.04475361
158	0xbd1a6048	-0.037689477
159	0x3d0b30f8	0.033982247
160	0xb887d000	-6.476045e-05
161	0xbdd15040	-0.102203846
162	0x3cb23ca0	0.021757424
163	0xbd8c4838	-0.06849712
164	0x3df540c4	0.11975244
165	0xbd8654f4	-0.06559172
166	0xbd3e5a88	-0.046473056
167	0x3bbc4de0	0.005746588
168	0xbd4fa40c	-0.050693557
169	0xbdaec326	-0.08533315
170	0xbdfbe492	-0.12299456
171	0x3c4ab9c0	0.012373388
172	0x3dd8c4a4	0.10584381
173	0xbda4d9e0	-0.08049369
174	0x3c7cf640	0.01543957
175	0x3d80feca	0.06298597
176	0xbc3925b0	-0.011300489
177	0x3dbf5c0a	0.09343727
178	0xbb97c860	-0.004632041
179	0xbd9a961a	-0.07548161
180	0xbd915b0c	-0.07097444
181	0xbd6a0844	-0.05713679
182	0x3dc7d06c	0.0975655
183	0x3dfca928	0.123369515
184	0xbcd9bf30	-0.026580423
185	0xbd727088	-0.05918935
186	0x3dbfdd98	0.093684375
187	0x3d665c28	0.05624023
188	0x3d04d0a8	0.032425553
189	0x3dc767b8	0.0973658
190	0x3de45c6c	0.111504406
191	0x3dcecdda	0.10097857

fc5.bias f4 [3]
0	0xbc9f94e8	-0.019480184
1	0xbc8780e0	-0.016540945
2	0xbdc35912	-0.09538473

actor_tracing.fc1.weight f4 [32, 3]
0	0xbe30dd9d	-0.17272039
1	0xbe4f8955	-0.20267232
2	0xbe1fc04f	-0.15600704
3	0xbee9b838	-0.4564836
4	0x3f0d7393	0.5525448
5	0xbf1c7938	-0.61122465
6	0x3df92a74	0.121663004
7	0x3dc2f102	0.09518625
8	0xbe84859c	-0.25883186
9	0x3ecbfe4b	0.39842448
10	0x3e2764ae	0.16347
11	0x3ea19b53	0.31563815
12	0x3ef73f27	0.4829037
13	0xbe4a5c67	-0.19761811
14	0x3edc9768	0.43084264
15	0x3d1b735c	0.037951812
16	0xbf04c394	-0.5186093
17	0x3d7573ac	0.059924766
18	0xbdcc9d58	-0.099909484
19	0xbf016a18	-0.5055251
20	0x3daa21a2	0.08307196
21	0x3e1f4974	0.15555364
22	0xbe8dd784	-0.27703488
23	0xbe4d2fbb	-0.20037739
24	0xbe4674f2	-0.19380549
25	0xbf0c42ec	-0.54789615
26	0x3f06512a	0.52467597
27	0xbe94da7a	-0.29072934
28	0x3de4f8d0	0.1118027
29	0x3eea2395	0.45730272
30	0xbee8cd59	-0.45469168
31	0xbdde387c	-0.10850617
32	0x3ed977fe	0.4247436
33	0x3dc1369a	0.094342425
34	0xbeb91720	-0.36150455
35	0xbe3a523d	-0.18195434
36	0xbe58330a	-0.2111322
37	0x3f0b4e51	0.54416376
38	0xbe1ec120	-0.15503359
39	0xbdc1f07a	-0.094696954
40	0x3de50465	0.11182479
41	0xbe7d4c77	-0.247362
42	0x3e5734e7	0.21016274
43	0xbe804daa	-0.25059253
44	0xbecd43b0	-0.40090704
45	0x3ea38791	0.31939366
46	0xbef34b8a	-0.4751857
47	0x3eb0f77a	0.3456381
48	0xbf02b4cf	-0.5105714
49	0xbeea0a35	-0.45710912
50	0x3f0e36bc	0.5555227
51	0xbeccc579	-0.3999441
52	0x3ea5f38b	0.3241237
53	0xbe3e5589	-0.18587317
54	0x3e351dc6	0.17687139
55	0x3e3dc988	0.1853391
56	0x3ee338fc	0.44379413
57	0xbdebdaf4	-0.11516371
58	0x3ee36a6c	0.4441713
59	0x3e92d136	0.2867524
60	0x3eb098ae	0.34491485
61	0x3eb7e67b	0.3591803
62	0x3e9fc400	0.31204224
63	0x3ec75414	0.38931334
64	0xbeae8f17	-0.34093544
65	0x3ea432cf	0.32070014
66	0x3e99f31c	0.3006829
67	0xbefa7e8f	-0.48924682
68	0x3e1d760a	0.1537706
69	0x3d90a3c4	0.07062486
70	0xbec902f7	-0.39260074
71	0xbe7afa92	-0.24509647
72	0x3e596116	0.21228442
73	0xbd7e3194	-0.062059
74	0x3d6f708b	0.05845694
75	0xbdb04a20	-0.08607888
76	0xbe6beb21	-0.23038913
77	0xbe9754c3	-0.29556856
78	0x3cdd4483	0.027010208
79	0x3e6fbecf	0.23412631
80	0x3e1f1bb4	0.15537912
81	0xbd194c4b	-0.037426274
82	0x3e1badc1	0.15203
83	0x3ed995c4	0.42497075
84	0x3e0fcf14	0.14043838
85	0x3e3671a9	0.17816795
86	0x3dbf8264	0.09351042
87	0xbeeff510	-0.46866655
88	0x3e8cedf3	0.2752529
89	0x3e9d6c8a	0.3074687
90	0x3e77fbe0	0.24217176
91	0x3ebde38a	0.3708766
92	0x3de8bd91	0.11364282
93	0xbed4f328	-0.41591763
94	0x3b15ba86	0.0022846772
95	0x3edfaaa5	0.4368488

actor_tracing.fc1.bias f4 [32]
0	0xbef00d2a	-0.46885043
1	0xbe9b55bb	-0.30338845
2	0x3eae9acc	0.34102476
3	0x3d669737	0.056296553
4	0x3edb8b33	0.42879638
5	0xbefe9089	-0.49719647
6	0x3eb1d225	0.3473064
7	0x3ee89ed7	0.45433685
8	0x3f0a18d4	0.53944135
9	0xbee71e3f	-0.45140263
10	0x3eea6981	0.45783618
11	0xbe804f64	-0.2506057
12	0x3ed5c62c	0.41752756
13	0x3eb4b249	0.3529227
14	0xbeaee767	-0.3416092
15	0xbe87521c	-0.26429832
16	0xbec64baf	-0.38729617
17	0xbd816843	-0.063187145
18	0xbf074cf2	-0.52851784
19	0x3f2468d3	0.6422245
20	0xbd01f6b9	-0.031729434
21	0xbcdee838	-0.02721034
22	0x3ed77121	0.42078498
23	0xbe9973f1	-0.2997127
24	0x3d43d02d	0.047805954
25	0x3ed433e0	0.41445827
26	0x3e304a2c	0.17215794
27	0x3d183a80	0.037165165
28	0xbebafa81	-0.36519244
29	0x3f2b2868	0.6685853
30	0x3f1074b9	0.56428105
31	0x3cfb9a74	0.030713297

actor_tracing.fc2.weight f4 [32, 32]
0	0xbd324784	-0.043525234
1	0x3d4c846c	0.049930975
2	0x3d4d8f1b	0.050185304
3	0x3de58536	0.112070486
4	0x3d98eb12	0.07466711
5	0x3df1f152	0.11813606
6	0x3bb65558	0.005564373
7	0x3d98bbf3	0.074577235
8	0xbd82e78d	-0.06391821
9	0xbde89984	-0.11357406
10	0x3c7bcf50	0.015369251
11	0x3da07695	0.07835118
12	0x3dad89c1	0.0847354
13	0x3deec54b	0.116587244
14	0x3d3512a8	0.044207245
15	0xbe09c78e	-0.1345503
16	0xbce0d8fa	-0.027447212
17	0x3d0f3c7e	0.0349698
18	0xbe151e4f	-0.14562343
19	0xbc9d7ab0	-0.019223541
20	0x3cc9790b	0.02459385
21	0x3ca33084	0.019920595
22	0xbe1fe1cd	-0.1561348
23	0x3ddde039	0.10833783
24	0x3de41a8e	0.111378774
25	0x3d9b586a	0.07585223
26	0xbd7eaac3	-0.06217457
27	0x3e184e70	0.14873672
28	0x3dc4ac47	0.09603172
29	0x3e5a02a4	0.2129007
30	0x3cedcb5f	0.029027639
31	0x3e2e82a1	0.17042018
32	0xbe45984a	-0.19296375
33	0x3df84305	0.12122158
34	0x3e37519f	0.1790223
35	0x3d028494	0.031864718
36	0xbbfcecba	-0.0077186497
37	0xbe19b742	-0.15011314
38	0xbe3c5a81	-0.183939
39	0x3e0ce9a2	0.13760999
40	0xbdfbbd4c	-0.12291965
41	0x3e038000	0.12841797
42	0xbe3c5764	-0.18392712
43	0x3e255ced	0.1614873
44	0x3dcf2b6c	0.10115704
45	0xbc9d6a97	-0.019215865
46	0x3b7eb954	0.0038867788
47	0x3d83fd16	0.06444757
48	0xbcd4d8bf	-0.025982259
49	0x3e37bfd5	0.17944272
50	0xbe36dae7	-0.17856942
51	0x3dfb6f22	0.12277056
52	0xbe23b036	-0.15985188
53	0xbd2e227e	-0.042513363
54	0x3d6dd340	0.05806279
55	0x3dab64a4	0.08368805
56	0xbe262052	-0.16223267
57	0x3d97673c	0.07392737
58	0x3bf53394	0.007482955
59	0x3b3ce4ec	0.0028822972
60	0x3dc307d6	0.09522979
61	0xbded5198	-0.115878284
62	0x3e12208f	0.14270233
63	0x3c102fad	0.008800429
64	0xbd202a14	-0.03910263
65	0xbdbb0b8b	-0.09133061
66	0x3c4b6279	0.012413614
67	0x3b74475f	0.0037273986
68	0x3ddf2f89	0.108977385
69	0xbd020aaf	-0.03174847
70	0xbd06591c	-0.032799825
71	0xbda03cb8	-0.07824081
72	0x3e22e528	0.15907729
73	0xbd4d441b	-0.05011378
74	0x3db537d2	0.088485375
75	0x3d2fbc13	0.04290397
76	0xbdcdf237	-0.100559644
77	0x3d6b7aea	0.057490267
78	0xbd85c51d	-0.06531737
79	0xbd231817	-0.039817896
80	0xbc5f18c7	-0.013616747
81	0x3d818fe4	0.06326273
82	0x3d9fb0ab	0.077973686
83	0xbca40701	-0.020022871
84	0xbe0985bf	-0.13429926
85	0xbd8dd9b9	-0.06926293
86	0x3d4749f6	0.04865452
87	0x3e08d1ca	0.13361278
88	0x3e2480de	0.16064784
89	0xbe19becb	-0.15014188
90	0xbd0442bd	-0.03229021
91	0xbd7c5a5f	-0.061609622
92	0x3d983a9c	0.07433054
93	0xbd24b6fe	-0.040213577
94	0xbda9f53b	-0.08298727
95	0x3c2e1935	0.010626127
96	0xbd2a1584	-0.041524425
97	0xbe20145b	-0.15632765
98	0x3d65a248	0.056062967
99	0x3e27ec99	0.16398849
100	0xbe0c667b	-0.13710968
101	0x3e0a287d	0.13492008
102	0xbc531e5d	-0.012885657
103	0x3d51d07f	0.051224228
104	0xbdb445dc	-0.08802387
105	0x3e1e24c7	0.15443717
106	0xbe2f02da	-0.17090932
107	0x3e07b4d1	0.1325257
108	0x3d53811c	0.0516368
109	0x3e2e4ace	0.17020723
110	0x3dc8d49f	0.09806179
111	0xbb202fa3	-0.0024442456
112	0xbe1eaa79	-0.15494718
113	0x3c01224e	0.007881714
114	0x3d91dbc7	0.07121997
115	0x3c382c8e	0.011241091
116	0x3dfe0ec8	0.12405163
117	0x3d0c9d10	0.034329474
118	0xbd03057d	-0.031987656
119	0x3e56baf4	0.20969754
120	0x3e1cfda5	0.15331133
121	0xbe0a4bb0	-0.13505435
122	0xbd05168e	-0.032492213
123	0xbd63ad84	-0.0555854
124	0x3dbca4f3	0.09211149
125	0x3e1162cb	0.14197843
126	0x3d8de431	0.0692829
127	0x3dec09f8	0.11525339
128	0x3dc7ae9e	0.097501025
129	0xbc1e4693	-0.009660381
130	0x3e55046c	0.20802468
131	0xbd77b3e4	-0.06047429
132	0xbe214b03	-0.15751271
133	0x3cd87bde	0.026426252
134	0x3d83baf8	0.06432146
135	0x3c0aeb03	0.008478883
136	0xbd57a4fb	-0.052647572
137	0x3d246429	0.040134583
138	0x3d819e64	0.06329039
139	0x3dfd09c4	0.12355378
140	0x3db31901	0.087450035
141	0x3e46e6ac	0.19423932
142	0xbe02659e	-0.12734076
143	0x3dc111ec	0.094272465
144	0xbe2b44b6	-0.1672543
145	0x3e150467	0.1455246
146	0xbddee91a	-0.10884304
147	0x3e0de788	0.13857853
148	0xbd73ce00	-0.05952263
149	0x3dbb2787	0.091383986
150	0x3de1c5e5	0.110240735
151	0x3ce21778	0.027599081
152	0x3d9a22f4	0.07526198
153	0xbe242415	-0.16029389
154	0xbe0c8be9	-0.13725246
155	0xbc93eb2e	-0.018056478
156	0x3dc27dad	0.09496627
157	0xbe57a1fd	-0.21057887
158	0x3e111fc6	0.14172277
159	0xbcf76880	-0.030201197
160	0x3de2d4f1	0.110757716
161	0x3e722bcf	0.23649524
162	0x3e1a6f98	0.15081632
163	0xbd908e37	-0.07058375
164	0xbdf332b7	-0.118749075
165	0x3b58f26c	0.003310348
166	0xbe0ad9fe	-0.1355972
167	0xbdec00bb	-0.11523577
168	0xbdb66b48	-0.08907181
169	0xbe471e3c	-0.19445127
170	0x3e0bf3ad	0.13667174
171	0x3db88c31	0.090111144
172	0xbdb42361	-0.087958105
173	0x3e166043	0.14685158
174	0x3db5e5a3	0.0888169
175	0x3e21e4d2	0.15809944
176	0x3d9941dc	0.07483265
177	0xbc873aa8	-0.016507462
178	0x3ca48024	0.020080633
179	0xbd70d4fc	-0.058796868
180	0xbe126da2	-0.14299634
181	0xbda853ae	-0.08219086
182	0xbd44e402	-0.048069008
183	0xbcaea594	-0.021319188
184	0xbd736fba	-0.059432723
185	0x3c25e8ee	0.010126336
186	0xbdb473c8	-0.08811146
187	0x3dc34fed	0.09536729
188	0xbe022c62	-0.12712243
189	0xbc9a002f	-0.018798916
190	0xbcb5a4db	-0.022173336
191	0xbd460971	-0.048348848
192	0x3dc3e661	0.09565426
193	0x3dcdbc79	0.10045714
194	0xbe1417be	-0.14462182
195	0x3cad7d23	0.021177834
196	0x3d30f18f	0.04319912
197	0xbc05c60d	-0.008164895
198	0x3e19a459	0.150041
199	0x3e105f05	0.14098747
200	0xbe22a6ff	-0.15884016
201	0xbe058e3e	-0.13042542
202	0x3bd14f20	0.0063876063
203	0x3ddf7049	0.109100886
204	0xbd6db2b0	-0.058031738
205	0x3e08145f	0.13289021
206	0xbd212ed4	-0.0393513
207	0xbdab0d4d	-0.08352146
208	0xbdd7cd95	-0.105372585
209	0xbd1037a5	-0.035209317
210	0x3d7e5968	0.062096983
211	0x3e094e1f	0.13408707
212	0xbbe9c8bc	-0.007134525
213	0xbdc8a3c4	-0.09796861
214	0x3d36f097	0.044663038
215	0xbd1dd40d	-0.038532306
216	0xbc8d2f15	-0.017234365
217	0x3d8c1fd4	0.06842008
218	0xbe1749b8	-0.14774215
219	0xbdb27cf5	-0.0871524
220	0xbd8f8ddd	-0.0700948
221	0xbdbf727f	-0.0934801
222	0x3da525cd	0.080638506
223	0x3dffc67d	0.124890305
224	0x3db9ecae	0.09078346
225	0xbe0f48a8	-0.1399256
226	0x3dc972a3	0.09836318
227	0x3daf75c9	0.085673876
228	0x3d5ad3f6	0.053424798
229	0xbdb57f2c	-0.08862147
230	0xbe2b7818	-0.16745031
231	0x3d52adee	0.051435404
232	0x3a9ad95b	0.0011814045
233	0xbe3098ab	-0.17245738
234	0x3d807d5e	0.06273912
235	0xbe04c94f	-0.12967418
236	0x3d85fb6a	0.06542094
237	0xbde9797f	-0.11400127
238	0xbd8938c2	-0.06700279
239	0xbe25feef	-0.1621053
240	0x3c3ea7c7	0.011636681
241	0xbe042e01	-0.12908174
242	0x3deb063a	0.11475797
243	0x3db107b2	0.08644046
244	0xbe272970	-0.16324401
245	0x3e094de1	0.13408615
246	0x3e08ec8b	0.13371484
247	0xbdd34c82	-0.10317327
248	0x3d1c5a75	0.038172204
249	0xbdd4ae8d	-0.103848554
250	0x3dd6a7e8	0.10481244
251	0xbde1e6a0	-0.11030316
252	0xbe3285ac	-0.17433804
253	0xbe16cb8c	-0.14726084
254	0xbe2ac999	-0.16678466
255	0x3c81402b	0.015777668

actor_tracing.fc2.bias f4 [32]
0	0xbc306dce	-0.010768367
1	0x3daff2c7	0.08591228
2	0xbe15d7a0	-0.14633036
3	0xbe81ff11	-0.25389913
4	0x3c13ab80	0.009013057
5	0x3dcd22e4	0.100164205
6	0xbe0af9f8	-0.13571918
7	0x3d3d207e	0.046173565
8	0xbdc8aac0	-0.09798193
9	0x3ccdab43	0.025106078
10	0xbde7060f	-0.112804525
11	0x3e6ce190	0.2313292
12	0x3c9314d2	0.017954264
13	0x3e4e7aee	0.20164081
14	0xbe61e4c8	-0.2205993
15	0xbd2510d7	-0.040299263
16	0x3de33a83	0.110951446
17	0xbd9e125f	-0.07718348
18	0xbdb07a2a	-0.08617051
19	0x3e176d1c	0.14787716
20	0xbd664073	-0.056213807
21	0xbcbc65fe	-0.022997852
22	0x3c8c6bf0	0.017141312
23	0x3e068aaa	0.13138834
24	0x3e16ae32	0.14714888
25	0xbd3966c5	-0.045264024
26	0x3dbfbf85	0.09362701
27	0xbd97acd5	-0.07406012
28	0x3dbf2ec5	0.093350925
29	0xbadca9a9	-0.0016835231
30	0x3e04e00b	0.1297609
31	0xbdc4c810	-0.096084714
