self_avoidance_gym/pth/critic_1.pth (torch, 49940 bytes, 45 tensors)

value_mean f4 [66]
00000000: 0000 0000 0000 0000 0000 0000 0000 0000
00000010: 0000 0000 0000 0000 0000 0000 0000 0000
00000020: 0000 0000 0000 0000 0000 0000 0000 0000
00000030: 0000 0000 0000 0000 0000 0000 0000 0000
00000040: 0000 0000 0000 0000 0000 0000 0000 0000
00000050: 0000 0000 0000 0000 0000 0000 0000 0000
00000060: 0000 0000 0000 0000 0000 0000 0000 0000
00000070: 0000 0000 0000 0000 0000 0000 0000 0000
00000080: 0000 0000 0000 0000 0000 0000 0000 0000
00000090: 0000 0000 0000 0000 0000 0000 0000 0000
000000a0: 0000 0000 0000 0000 0000 0000 0000 0000
000000b0: 0000 0000 0000 0000 0000 0000 0000 0000
000000c0: 0000 0000 0000 0000 0000 0000 0000 0000
000000d0: 0000 0000 0000 0000 0000 0000 0000 0000
000000e0: 0000 0000 0000 0000 0000 0000 0000 0000
000000f0: 0000 0000 0000 0000 0000 0000 0000 0000
00000100: 0000 0000 0000 0000
0.0 0.0 0.0 0.0 0.0 0.0 0.0 0.0
0.0 0.0 0.0 0.0 0.0 0.0 0.0 0.0
0.0 0.0 0.0 0.0 0.0 0.0 0.0 0.0
0.0 0.0 0.0 0.0 0.0 0.0 0.0 0.0
0.0 0.0 0.0 0.0 0.0 0.0 0.0 0.0
0.0 0.0 0.0 0.0 0.0 0.0 0.0 0.0
0.0 0.0 0.0 0.0 0.0 0.0 0.0 0.0
0.0 0.0 0.0 0.0 0.0 0.0 0.0 0.0
0.0 0.0

value_std f4 [66]
00000000: 0000 803f 0000 803f 0000 803f 0000 803f
00000010: 0000 803f 0000 803f 0000 803f 0000 803f
00000020: 0000 803f 0000 803f 0000 803f 0000 803f
00000030: 0000 803f 0000 803f 0000 803f 0000 803f
00000040: 0000 803f 0000 803f 0000 803f 0000 803f
00000050: 0000 803f 0000 803f 0000 803f 0000 803f
00000060: 0000 803f 0000 803f 0000 803f 0000 803f
00000070: 0000 803f 0000 803f 0000 803f 0000 803f
00000080: 0000 803f 0000 803f 0000 803f 0000 803f
00000090: 0000 803f 0000 803f 0000 803f 0000 803f
000000a0: 0000 803f 0000 803f 0000 803f 0000 803f
000000b0: 0000 803f 0000 803f 0000 803f 0000 803f
000000c0: 0000 803f 0000 803f 0000 803f 0000 803f
000000d0: 0000 803f 0000 803f 0000 803f 0000 803f
000000e0: 0000 803f 0000 803f 0000 803f 0000 803f
000000f0: 0000 803f 0000 803f 0000 803f 0000 803f
00000100: 0000 803f 0000 803f
1.0 1.0 1.0 1.0 1.0 1.0 1.0 1.0
1.0 1.0 1.0 1.0 1.0 1.0 1.0 1.0
1.0 1.0 1.0 1.0 1.0 1.0 1.0 1.0
1.0 1.0 1.0 1.0 1.0 1.0 1.0 1.0
1.0 1.0 1.0 1.0 1.0 1.0 1.0 1.0
1.0 1.0 1.0 1.0 1.0 1.0 1.0 1.0
1.0 1.0 1.0 1.0 1.0 1.0 1.0 1.0
1.0 1.0 1.0 1.0 1.0 1.0 1.0 1.0
1.0 1.0

fc1.weight f4 [16, 66]
00000000: 989a 833c ddfb 8ebd ae22 423d e20b 813d
00000010: d8c4 f13c d7b3 9ebd 762d d7bc 426b 1abc
00000020: dc52 573c 7e79 88bd d4a9 2cbd c38c 643d
00000030: 23c7 2c3d 3cb9 84bd 015b a3bd 9b60 913d
00000040: 8c49 bdbd cabd f43c 3905 9dbd ab66 de3d
00000050: 7533 01bc 757f 503c e297 bdbd 1628 e83d
00000060: 886a 853d 0a1d 833d 56d3 c5bd 17e5 d9bb
00000070: c770 eabd 41ef 703d f8c7 dcbd 411f bebd
00000080: 50fe ef3c 5ad1 8c3c ab91 42bd c48a 853c
00000090: 2a3c 803c 9579 c93c 9dd5 a93d bc61 8dbc
000000a0: b396 ba3d 0f4d dc3d 69fc 683b 5619 713c
000000b0: baa2 e6bd 9b21 08bb eace a73d 7393 84bd
000000c0: e950 ccbd 38cb c4bd c5d9 983d 8c65 4cbd
000000d0: d311 e4bd 52e3 e2bb d0f6 a43b a838 babc
000000e0: 062b 36bc 4677 6b3d dc07 603d fdc6 c43b
000000f0: 344e 4ebd d366 3dbc 6d2a 0b3d a1da 89bd
00000100: 320f c43d 4a7d e4bd 3fb0 bf3c d816 0a3d
00000110: 2014 efbd 9edf 99bd 92c2 03bc 4dd2 24bd
00000120: 0b1c 38bc c7a6 ca3b 5a12 debd 0ffd 93bd
00000130: 2917 bf3c 7e1b 313d 1839 003e 35ea b83d
00000140: 5cb3 d1bd 8033 52bd 09b3 5e3b daf7 b3bd
00000150: 0377 923d bd76 9abd e834 ca3d 8512 dbbd
00000160: 1f69 c93d 6114 8f3d 10e4 fa3d 9a1c c03d
00000170: dfb9 8abd 3d67 cb3d 2b0b 84bd b747 6c3d
00000180: b7e7 f13b 31c1 403d c765 17bd 7797 933d
00000190: 6992 ae3d 1801 32bd aab2 df3d b4e0 843d
000001a0: 890a c33d 6e30 e43d 6417 963d 03f5 283d
000001b0: d75e 6bbc 9ad3 eabc 30ae ff3d c6a3 aebd
000001c0: bb11 3abd 49a3 8d3d 7398 103d 7c6f ff3d
000001d0: 8b4b 543c f261 f03d e33d efbd 64f4 d93d
000001e0: 5520 a2bd 034e dbbd e319 d03c 331e 97bd
000001f0: 4b83 af3c 7606 9dbd a5f6 d43d 8748 a63d
00000200: cc8b ad3d f415 82bd adf4 99bd 9007 9ebd
00000210: 0e34 ab3d 8a55 853d 0a12 97bd b041 e63c
00000220: ee96 2abd e5b8 a33d b71c cb3d 0716 663d
00000230: 82ee 4e3d c703 293d 7c3d af3d 0315 b5bc
00000240: 70de ff3c b5de 493c 1209 70bd 49a2 24bd
00000250: a77f 91bd 0341 cf3d 88b4 a13c 3dfa 9fbd
00000260: 0617 963d 0165 6d3d 56ac 6a3b 9b73 e2bd
00000270: f64b aabd 2ef6 9d3d baaf d53d 2c60 b23c
00000280: f00c ccbd 716c 4ebd 793a b73c ead1 3f3d
00000290: 7275 583d 2612 68bd 8b51 8b3c ac99 e8bd
000002a0: 04bd ba3d da0d f83d 7bf0 6ebc dd2f d53d
000002b0: 1482 85bd 3d3e 69bd a3df 9dbd 5bc2 e33a
000002c0: 5048 2b3d 07b0 8b3d c210 0d3d fd6e 163d
000002d0: 14b7 50bc 6e7c ce3c 6071 053d aba3 873d
000002e0: 5059 ad3d 18ee 443d 6c3e 19bc 6f7f f23d
000002f0: edde 033e f47f 51bd 5953 37bd 5eb9 ff3d
00000300: 1bb6 51bd d53c e3bc ab69 9a3d 3a38 b83d
00000310: 30a6 e73d 61a5 17bc 84c4 403d 7271 9a3c
00000320: ffec 503d b904 b73d e3e0 983d ad1f cdbd
00000330: 5b03 84bd f1e4 c23d c9d7 32bd 7435 5ebd
00000340: ec79 9f3d 15d1 513d ad23 aabd f2d9 a43d
00000350: 2d39 49bc 4ff0 16bd a520 98bd 2823 333d
00000360: 570c f6bd f150 1c3d e918 953d 1884 af3d
00000370: 30f8 8abd f26e 95bd b626 823d 3f3b 78bd
00000380: d256 e43d 19a1 ca3d 6f92 933d add4 7fbd
00000390: 76e6 43bd e8e2 43bd a5bc 643c f5fd c9bd
000003a0: 3fd9 883d 3af5 d7bc 7c66 f7bd 9fdb 71bc
000003b0: 4c34 20bd d698 803d 7974 d2bd 5054 b63d
000003c0: 0af6 f23d c2e6 8a3c 2517 073c 4b02 d63d
000003d0: 277f 8fbd 273c e1bd 7d75 3abd bbc9 803d
000003e0: fcd3 b43c d237 d5bb b99b c6bc a1cd 7d3d
000003f0: 5615 05bd 80bf 7fbd 8355 97bb 9d5e cdbd
0.016064927 -0.06981633 0.047396354 0.063010946 0.029512808 -0.077491455 -0.026266795 -0.009424986
0.013142314 -0.06663798 -0.04215415 0.055798303 0.0421821 -0.06480643 -0.07976342 0.07098504
-0.092425436 0.029875655 -0.07667012 0.10859426 -0.0078858035 0.012725701 -0.09257485 0.11335771
0.0651446 0.06402023 -0.0965945 -0.006649624 -0.11447292 0.05882192 -0.107803285 -0.09283305
0.02929607 0.01718967 -0.0475022 0.01630152 0.015653688 0.024594108 0.082926966 -0.017258517
0.09110775 0.10756885 0.0035550839 0.014715513 -0.112615064 -0.0020771984 0.081937626 -0.06473436
-0.0997637 -0.096090734 0.07463411 -0.04990153 -0.11136212 -0.0069240713 0.005034305 -0.022732094
-0.011118656 0.057486795 0.054694995 0.0060051666 -0.05036755 -0.01156016 0.033976007 -0.06731153
0.09573211 -0.111567095 0.02339947 0.03371319 -0.116737604 -0.07513355 -0.008041995 -0.04023962
-0.011237155 0.006184432 -0.10843344 -0.072260015 0.023326473 0.04323911 0.1252178 0.090290464
-0.10239288 -0.051318645 0.0033981225 -0.08787508 0.07151606 -0.07542179 0.09873372 -0.10696892
0.098345034 0.06986309 0.12250531 0.09380455 -0.06773733 0.099318005 -0.064474426 0.05768558
0.007382359 0.04705924 -0.036962297 0.07206624 0.08524019 -0.043458074 0.10922749 0.06488171
0.09523494 0.1114205 0.0732868 0.041249286 -0.014365873 -0.028665353 0.124843955 -0.08527331
-0.045427065 0.0691591 0.035301637 0.12472436 0.012957464 0.117374316 -0.11681726 0.10642317
-0.07916323 -0.10708239 0.025402969 -0.07378807 0.02142491 -0.07667248 0.10398606 0.08119302
0.0847393 -0.063518435 -0.07517371 -0.07716286 0.08359538 0.06510456 -0.073764876 0.028107494
-0.041647844 0.0799425 0.09917586 0.05617335 0.050520428 0.041263368 0.08556649 -0.022104746
0.031233996 0.012321164 -0.0586024 -0.04019383 -0.07104426 0.10119822 0.019739404 -0.07811401
0.0732861 0.057957653 0.0035808287 -0.11057206 -0.0831527 0.07712971 0.10433908 0.021774374
-0.09963405 -0.050396387 0.02236675 0.04683105 0.05284638 -0.056657933 0.017006656 -0.113574356
0.09118083 0.12112017 -0.014583702 0.1040952 -0.06518951 -0.05694412 -0.07708671 0.0017376648
0.04181701 0.06820684 0.03443981 0.03672694 -0.012738962 0.025205817 0.032578826 0.06623014
0.08464301 0.048078626 -0.009353261 0.11840712 0.12878008 -0.051147416 -0.04475722 0.12486528
-0.05119906 -0.027738968 0.07539686 0.08995099 0.113109946 -0.009255738 0.047062412 0.018852923
0.051007267 0.08936448 0.07464769 -0.10015807 -0.064459525 0.09516323 -0.04366282 -0.054250196
0.077869266 0.051224787 -0.08307586 0.08049382 -0.012281698 -0.03685027 -0.074281015 0.0437347
-0.120140724 0.03816313 0.07280142 0.08570117 -0.06785619 -0.07296552 0.0635504 -0.060603376
0.11149372 0.09894008 0.07205664 -0.062458683 -0.047827207 -0.047823817 0.013960992 -0.098628916
0.066820614 -0.02636205 -0.12080094 -0.014761834 -0.039112374 0.06279151 -0.10276122 0.089028
0.118633345 0.016955737 0.008245264 0.10449656 -0.07006674 -0.10997801 -0.0455222 0.06288477
0.022073738 -0.0065068984 -0.024244176 0.06196368 -0.03249105 -0.062438488 -0.004618348 -0.10027812

fc1.bias f4 [16]
00000000: c5ec 15bd 7686 b8bd f0a2 843d 1960 17bd
00000010: 40aa c3bd b5db f53d 5547 6d3d b511 c6bd
00000020: 3b4c ef3d 8d5e 953d 3d47 2d3d ba47 9bbd
00000030: da64 34bc 995b 723d f771 c2bd d39c 4f3d
-0.036602754 -0.090100214 0.0647639 -0.03695688 -0.09553957 0.120047964 0.057929356 -0.09671346
0.11684462 0.07293425 0.042304266 -0.0758204 -0.011010373 0.059169386 -0.09494393 0.05068667

fc2.weight f4 [16, 16]
00000000: 7cf1 6d3e 8664 0abe c406 413e 9e7c 193e
00000010: 7f08 0dbe 4dc2 06be 91d7 653a 1675 27be
00000020: 5a15 2ebe 6534 253e 643d 0abe 179e 60be
00000030: d93a 5d3e bd16 38be 491e 54be c0e4 be3d
00000040: 6e59 e03c 7f72 31bd e743 d3bd cce3 a83c
00000050: daff 42be 5668 f7bd 6f0a 663c 457c 41be
00000060: 4e84 d7bd a157 aebd 62c5 e83d d114 41be
00000070: 4a94 03be 4ff5 bbbc db65 533e 5677 b6bd
00000080: 92fd 80bc 9849 dbbc b0c1 173e 1d8b 383e
00000090: 3a06 2f3e 273b 163d f7f0 3b3e 12b9 71be
000000a0: 27d4 5fbe 3b04 fbbd 3721 603d 7469 4fbe
000000b0: 494f 88bb febd 673d f309 4b3e 41df 563e
000000c0: 1ba0 dbbd 1ddb 223e 7441 713d 18a5 78be
000000d0: 1e5c e63b 73e0 6a3e 7bf2 1abd b8dc f63d
000000e0: 34e0 65be 6417 b1bd 940f 1ebe 80eb 34be
000000f0: 1802 e8bd 8b08 47be 98cb 5abe df61 813d
00000100: a35a eabc f4bb caba 7c51 6cbe 4c10 a73c
00000110: fcec 4abe 0ef0 10be 5336 26be b966 c33d
00000120: 7c0a ffbd b850 53bd 773d 4fbe 6d3f 223e
00000130: 5b4b 2cbe 3e42 e93c 91d7 e5bd 3432 573e
00000140: d8d3 3fbe 0830 bfbd bd98 3fbd 8cfe d53d
00000150: 1357 47bd 5199 8dbd d65d d43c 18b9 673e
00000160: da9e 953c a85a 923c 7347 983c b270 623e
00000170: af3e 6a3e b28a 553e a40f f8bb 056c a9bc
00000180: 71d0 553c b432 ed3b 7b43 523e 4f93 43be
00000190: 64e6 34bc 329d dabd d8c8 0a3e a6fa a3bd
000001a0: c98c 183e 8821 d2bd 2052 d4bd 8e58 0abd
000001b0: a571 32be b30a be3c f66c 3f3e fca6 0dbe
000001c0: 2af1 133e c9e7 28bd 8312 66be 0dc7 693a
000001d0: 5c10 0f3e 3ec2 67bd 71df 543e 7363 423e
000001e0: 9d75 2f3e da08 04be cd3b 81bc 141c 20be
000001f0: a39d e6bd 38ca bcbc 7547 f4bd 1200 33be
00000200: e8e2 403e 2958 193d 209e 43be 0098 dc3d
00000210: 3435 1b3e a331 a83d b033 21be 00f5 20be
00000220: 9f5e 363d b4ff 7f3e 3693 b23d da4c 6e3d
00000230: 45f3 6fbe 9831 5cbc 9d4d 6fbe 28c8 30be
00000240: e4fd 56be 13d8 62be f1ed 01be 3f3f 64be
00000250: 24ca cebd fa35 f7b9 0aae 81bd 9f99 c23c
00000260: a053 7d3e 4441 8a3d 6433 833d 24a2 44be
00000270: af70 473d 9294 b93d d26a 71be a232 10be
00000280: d8d3 80be 5105 7a3d 614d 1b3e 69ba 743e
00000290: 4797 b83d df88 393e 678b e83d 1377 453e
000002a0: 2b3f 2fbe 0f2a 46be e4fd 703d 74f0 2ebe
000002b0: bbe0 afbd 19a8 3abe 5076 d0bc 17c3 28bd
000002c0: 1932 193e 9280 673d 8e4e c1bc 5c9e f13b
000002d0: 82a2 413e c08a 4bbe 6f59 4fbe 1fce c1bd
000002e0: 7bf9 6ebe 6d9b 613c b03c dfbd f400 77be
000002f0: cc0e 32bc bfe0 ba3d e4e7 9b3d a5ff 28bd
00000300: e02e 03be 14e6 773e 2510 4b3e 5d42 54be
00000310: 0f5a 66be 4fc8 723e a019 023e d0fc f6bd
00000320: bc26 32be 09ec debd f98b 6f3e e57e ec3d
00000330: 0140 a6bd f060 92bd 2844 883d cd99 35bc
00000340: aca7 ff3c c0f2 bebd af3f f0bc afb8 22be
00000350: c4ff b33d f2a8 723e 562d 263e 691e 0c3e
00000360: 2154 2ebd 861c c6bc 4e9a 653d c2e9 55be
00000370: 9dbc 4dbe 5409 eebc b216 8ebd 8b9e d1bb
00000380: 8fca 1ebe 19f0 cebd 0e0d 413e cdb1 523e
00000390: 813b 763e 2f40 033e 86fd c13c f431 0c3e
000003a0: 158c 94bd 8170 473e 40ce 383e ef4d ee3c
000003b0: c0a2 2cbe fb5d 143e d5b8 30be 3b85 5bbe
000003c0: d97a 13be 6883 a03d 0bdc 64be 2384 37be
000003d0: 8261 dfbd d43c 82be 21cd 443e 7688 963c
000003e0: 8edf 17be 6655 3b3e 96cc cc3d aa16 24bd
000003f0: d030 62be 392b f6bd bc91 2c3e 00a1 d5bd
0.2323665 -0.13514909 0.18850237 0.14988944 -0.13772772 -0.13160057 0.00087677786 -0.16353258
-0.17000332 0.16133268 -0.13499981 -0.21935306 0.2160448 -0.17977424 -0.20714678 0.09320974
0.027386393 -0.043322083 -0.10315686 0.020616435 -0.19042912 -0.120804474 0.0140405735 -0.18895061
-0.10523282 -0.08512808 0.11365773 -0.18855597 -0.12849537 -0.02294412 0.20644324 -0.0890948
-0.015745912 -0.02676849 0.1481998 0.18021818 0.17092219 0.036677506 0.1835364 -0.23605755
-0.21858273 -0.12256666 0.054719176 -0.20255071 -0.004159842 0.056577675 0.19828014 0.20983602
-0.10723897 0.15903898 0.05890031 -0.24281728 0.007030024 0.22937183 -0.037828904 0.120538175
-0.22448808 -0.086470395 -0.1543563 -0.17667961 -0.11328524 -0.19436853 -0.21366727 0.063174956
-0.028607672 -0.0015467391 -0.23077959 0.020393513 -0.19816965 -0.14154074 -0.1623166 0.09541077
-0.124531716 -0.05159065 -0.2023829 0.15844508 -0.16825621 0.02847397 -0.11222757 0.21015245
-0.18733156 -0.09335333 -0.046776522 0.104489416 -0.048667025 -0.069140084 0.02592365 0.22629201
0.018264223 0.017865494 0.018588757 0.22113302 0.22875474 0.2085369 -0.007570224 -0.02068139
0.013050185 0.0072387103 0.20533554 -0.19099163 -0.0110412575 -0.10674514 0.13553178 -0.08006792
0.14897455 -0.10260302 -0.103672266 -0.03377586 -0.17426164 0.023198461 0.18693909 -0.1383323
0.14447466 -0.041236673 -0.22467999 0.00089179055 0.13971084 -0.05658173 0.20788361 0.1898325
0.1713471 -0.12894002 -0.015775586 -0.15635711 -0.112605356 -0.023045644 -0.11927692 -0.17480496
0.18836558 0.03743759 -0.19103289 0.10771179 0.15157014 0.082125925 -0.15742373 -0.1571846
0.04452383 0.24999887 0.087194845 0.05817876 -0.23432644 -0.013439558 -0.23369451 -0.17263854
-0.20995289 -0.22152738 -0.12688424 -0.22289751 -0.10097149 -0.00047151727 -0.063320234 0.023754893
0.24738932 0.0675073 0.06406286 -0.19202477 0.048691448 0.09061541 -0.23575905 -0.14081815
-0.25161624 0.061040226 0.15166236 0.23899235 0.09013229 0.18118618 0.11354714 0.19283704
-0.1711394 -0.19351982 0.05883588 -0.17083913 -0.08587786 -0.18228187 -0.02544704 -0.041201677
0.14960517 0.0565191 -0.023597028 0.0073736142 0.18909648 -0.19877148 -0.2024896 -0.094631426
-0.23337357 0.013769967 -0.10900247 -0.24121457 -0.010867786 0.09124898 0.07612589 -0.041259427
-0.1281085 0.24208862 0.19830377 -0.2072844 -0.22495292 0.23709224 0.12705088 -0.12059939
-0.17397588 -0.10884864 0.23393239 0.11547641 -0.081176765 -0.071473956 0.06653625 -0.011084032
0.031207882 -0.09323645 -0.029327242 -0.15890764 0.08789018 0.2369726 0.16228232 0.13683476
-0.0425607 -0.024183523 0.05605536 -0.20889953 -0.20091482 -0.029057182 -0.069379225 -0.0063970736
-0.15506957 -0.10104389 0.18852636 0.20575638 0.24046136 0.12817453 0.02368046 0.1369093
-0.07253281 0.1947651 0.18047428 0.029089896 -0.16858959 0.14488976 -0.17258008 -0.21437542
-0.14402331 0.07837564 -0.22349565 -0.179215 -0.1090727 -0.25437033 0.19218875 0.018375617
-0.14831373 0.18294296 0.09999959 -0.040060677 -0.22088933 -0.12019963 0.16852468 -0.10431099

fc2.bias f4 [16]
00000000: d039 303d 2a62 cf3d d550 3a3e 07ed 5d3e
00000010: 3e2d 5a3d 868f 6b3e bf3f 2cbe 5ef1 a73c
00000020: a874 d23d 0842 01be 9835 0f3e 9d1b 2abe
00000030: 0a5b edbd e4c4 15be 6203 8a3d a505 e2bd
0.043023884 0.10126145 0.18194897 0.2167245 0.053265803 0.23003969 -0.16821192 0.020500835
0.10276157 -0.12622845 0.13985288 -0.16612096 -0.1158963 -0.14625889 0.067389265 -0.11036233

fc3.weight f4 [16, 16]
00000000: fac4 613e 2397 613e c5a8 403d 26e1 373e
00000010: fe81 c0bd 8ec8 033e cade e0bc c92a 74bc
00000020: 3693 81bd 089a 39bc 0c28 92bd 11d6 93bc
00000030: 900c 163d 06a1 7bbe b3b4 05be acf5 093e
00000040: 0255 083e b9bb 28be 60d5 fcbd 6931 36be
00000050: 0b04 28be 8c9e 2ebe 8310 aebd ab16 063b
00000060: fcbf 0cbe fa5f 013d 4dff 7f3e f111 44be
00000070: e866 213e e641 5e3e 802c 5abe 2e92 6b3e
00000080: 372a 713e a281 a43b ebef c7bd 012b 583e
00000090: 372c 96ba 7d98 f93d e465 2abe 3caf a7bd
000000a0: 111e 36bc 2539 24be 5769 66bd ff9a 3a3e
000000b0: 32a4 873d 8c6d 8b3d 2677 eabd 54a8 cebd
000000c0: 4f95 9cbb 084f 3b3e a3d5 bc3d d0dd c1bd
000000d0: 4446 353d 08e7 40ba c951 dcbc 97a8 803d
000000e0: cf13 4d3e 026d 15be 002a 293e ebd7 39be
000000f0: b2d9 cdbc 15e6 cb3d 5c6e 7dbe b3b2 4bbe
00000100: d930 903d 681c 32be 3c84 623e 9406 8bbd
00000110: a3cd 583d 7a0b b2bd 172d 393e 82ab 353e
00000120: ba1f 35be c40b 3c3e b17d 6dbe 36fd 723d
00000130: 6994 803d 5354 f03d 8b6b b73c 13e2 433d
00000140: cc61 403e dbf4 fcbd eec6 21be 2659 723e
00000150: 80c6 673e 1bea 703e 1b30 eb3d c70b 0ebd
00000160: c176 063e b2fa 563d 1438 15be 79f0 24be
00000170: b8a3 113d 6dd0 c3bd 854b 12bd 1e98 7dbe
00000180: 2743 a13d 9501 ec3d f6af 6ebe e4e3 f2bd
00000190: ca23 6fbe c2b3 6f3d b91d eabc 3d22 f6bd
000001a0: 0fd1 433e a207 d83d 1608 743d bc78 52be
000001b0: b321 a5bd ad40 83bd 0026 ae3c 68b5 503e
000001c0: 6bbd 1fbe efb0 3bbd 59b1 8dbb 5c0b d0bd
000001d0: 6dda 80be a586 6a3e 611a 763e b29b 5ebe
000001e0: db21 0a3e 469d 12be 0291 d33d fb06 763c
000001f0: 51b5 133e 0949 233d 4e3a ec3c 6804 d6bd
00000200: d647 1bbd e513 023d 4b0b 6dbe b791 6f3c
00000210: 8fa5 15be af90 6ebe 6f60 ab3d 0ac0 52be
00000220: ea77 243e 3173 383e bc6d 9ebd a9a4 7d3d
00000230: 7bc9 19be 730b fb3d 087b 4f3e b8c1 673e
00000240: e6c9 543e 5106 3b3c befa 72be 67dd f43d
00000250: 3430 dc3b 569a c13d 88eb 573e 5f4a a9bd
00000260: 054a cc3d f8e1 8a3d 6682 72bd a24a cd3c
00000270: 47f7 00bd e7db 303e 4a2c c3bc d57b b4bc
00000280: 1919 4f3e ac98 38bd 21f1 8a3c 845c 5a3e
00000290: 74b8 09be 05c5 1c3e 3b1b 4ebe c655 3f3e
000002a0: f643 2aba 4159 82bd 112a 5fbe 8f85 47be
000002b0: 3603 89bd c4a1 173d 9a19 483e 8b12 a43d
000002c0: ffe0 6bbe c54e 08bd 9114 123e 40c0 4ebe
000002d0: 81de 66be 4f58 3b3e 37f7 1d3e 3bc2 4fbe
000002e0: 8bb7 c2bd 767a 5e3e 50ea 873d d00b c03d
000002f0: 45f1 273e 5c3a 00bd a22e 72be 77a1 68bb
00000300: 1c97 07be b964 63be befc 78be 644c 86bc
00000310: c7dc 28be 76c6 82bd fd91 203c ac69 69be
00000320: 25d4 d5bd fc5a 903d a672 703e 368f 4e3e
00000330: ea8b 473e a35c e33d dbdb 41be 9f09 a9bd
00000340: f7ea ab3d 42b6 12be 2ed1 733e 1694 34be
00000350: f711 073d 669f 453b e4f2 8f3d 2fdd ba3d
00000360: bee9 9a3d 0707 0cbe 8ff9 21be ae00 8bbc
00000370: b430 423e cb74 bc3d eba9 9abd c909 4a3e
00000380: dcc5 db3c a3fc 3e3e 7e10 abbd c558 76bd
00000390: a796 0a3d 8982 5bbe c086 00be a3dd 573e
000003a0: 16c9 893d 7aec 533e 81a8 f4bc 3d4c 4fbe
000003b0: b97c 533e a3ac 073e c611 70be ce81 02be
000003c0: 8809 41be cce4 683e af89 6fbe 0e31 3dbd
000003d0: 90a2 90bd 12b3 ea3d be2e 383e 984d 973d
000003e0: 2a0f 11be e1f1 11be 0a83 57be b4d2 c23c
000003f0: 248a 85bc 5e17 19be a82c 0d3e 36fb 03be
0.22047797 0.2203031 0.04703595 0.17956981 -0.09399794 0.12869474 -0.027449984 -0.014902779
-0.063269064 -0.011328228 -0.071365446 -0.01804641 0.036633074 -0.24573144 -0.13057213 0.13472623
0.13313678 -0.1647786 -0.123453856 -0.17792286 -0.16407792 -0.17052668 -0.08499243 0.0020460289
-0.13745111 0.03158567 0.24999733 -0.19147469 0.15761912 0.21704826 -0.21306038 0.23004982
0.2355126 0.0050203362 -0.097625576 0.21110155 -0.0011457269 0.12187288 -0.1664043 -0.0818772
-0.011115567 -0.16037424 -0.056252804 0.18223189 0.06623115 0.06808004 -0.11448507 -0.100907
-0.004778541 0.18291867 0.092204355 -0.094661355 0.044256464 -0.0007358645 -0.026894467 0.06282156
0.20027088 -0.14592364 0.16519928 -0.18148772 -0.02512822 0.09955994 -0.2474913 -0.19892387
0.07040567 -0.17393649 0.22120756 -0.06788364 0.052930485 -0.08693595 0.18083607 0.17741206
-0.17687884 0.18363863 -0.23192479 0.059323512 0.06278307 0.117348336 0.022390148 0.047823023
0.18787307 -0.1235139 -0.15798542 0.2366682 0.22634315 0.23526804 0.11483785 -0.0346792
0.13131239 0.052485175 -0.14572173 -0.16107358 0.035556525 -0.095612384 -0.035716552 -0.2476506
0.078741364 0.11523739 -0.23309311 -0.11859873 -0.23353496 0.05852104 -0.028578626 -0.12018249
0.19122718 0.10548331 0.059578024 -0.20553869 -0.08063068 -0.0640882 0.021258354 0.20381701
-0.15599601 -0.045823034 -0.00432412 -0.10158417 -0.25166646 0.22902925 0.240335 -0.2173908
0.13489477 -0.14317808 0.103303924 0.015016313 0.14424635 0.039864574 0.028836396 -0.10450059
-0.037910305 0.031757254 -0.23148839 0.0146221435 -0.14613937 -0.2329738 0.083680026 -0.2058107
0.16061369 0.18012692 -0.07735774 0.06192461 -0.15018265 0.12258043 0.20261776 0.22632492
0.20780143 0.01141508 -0.23728463 0.11956292 0.0067196134 0.09453265 0.21085942 -0.08266138
0.099750556 0.06781381 -0.05920639 0.025060002 -0.031485822 0.17271386 -0.02382483 -0.022031704
0.20224418 -0.045067474 0.016960682 0.21324354 -0.1344927 0.15309532 -0.20127575 0.18685064
-0.00064951123 -0.0636468 -0.21793391 -0.19484542 -0.066900656 0.037019506 0.19541016 0.08011349
-0.23035048 -0.033278245 0.14265658 -0.20190525 -0.22545816 0.18295406 0.15426336 -0.20288937
-0.09507664 0.21726403 0.066364884 0.09377253 0.16400631 -0.031305656 -0.23650602 -0.0035496631
-0.13241237 -0.22206391 -0.24315163 -0.016393848 -0.1649047 -0.0638551 0.009800431 -0.22794217
-0.10440854 0.07048604 0.23481235 0.20171818 0.19486967 0.111016534 -0.18931524 -0.08253788
0.08394425 -0.14327338 0.23810264 -0.17634615 0.032976117 0.0030154823 0.070287496 0.09124219
0.07564114 -0.13674556 -0.15817855 -0.016968098 0.18963891 0.09201964 -0.075519405 0.19730295
0.026827745 0.18651061 -0.08352755 -0.06014325 0.03383508 -0.21436514 -0.12551403 0.21080641
0.06727807 0.20695677 -0.029865505 -0.20243926 0.20653047 0.1324945 -0.2344428 -0.12744829
-0.18851292 0.22743529 -0.23392366 -0.04618936 -0.07062256 0.11459936 0.1798658 0.07387847
-0.14165941 -0.14252426 -0.21046081 0.023782112 -0.016301222 -0.1495032 0.13786566 -0.12888798

fc3.bias f4 [16]
00000000: 2a93 06be df2a 68be 89b2 233c ec29 ce3c
00000010: 7b4c 153e 6726 643d 0461 13bd a57f acbd
00000020: ab80 0c3c fc8b 1cbe 5bc5 2b3b 3ada 913d
00000030: 0b57 d9bd c06a a43d 3f1a f33c 10c8 e0bc
-0.13142076 -0.22672604 0.009991297 0.025166474 0.14579956 0.055700686 -0.035981193 -0.08422784
0.008575599 -0.15287775 0.0026210162 0.071217015 -0.10612305 0.080281734 0.029675601 -0.027439147

fc4.weight f4 [16, 16]
00000000: 5e74 4bbe d7d5 cd3d b388 653e d310 2b3d
00000010: 80fd abbc dc2d 24be 2ccb 6dbc 2f91 5d3e
00000020: 6090 4dbe 19ab 3abe 4ad4 503e 83cd acbd
00000030: f88d 493e b780 0dbe ee65 b13d 6b38 81be
00000040: 83a7 12be 9293 9ebd f1ee f83d 2e30 253d
00000050: eb90 703e c74f 253e 4242 563e d283 36be
00000060: ddf9 5c3e 8e54 1d3d 013a 0fbe 5d12 12be
00000070: 4b1b 0d3e a8f4 2abe c2d3 ae3d 95ba 743e
00000080: 81af 8bbd 194c 133e 9e15 3ebe 86a6 1dbe
00000090: 9b55 ec3d 74ac 17bd 268e bbbd 5fb7 363d
000000a0: 3c5c 0ebe 3db3 3cbe 4110 823c f21d 88bd
000000b0: 5fd2 323e 657e 793d 621f ddbd 61f4 21bd
000000c0: b8cb 95bd 855a 7f3e 64e2 043e ac9e 8ebd
000000d0: 83c5 3dbe c816 65be 0883 4ebe ac68 303d
000000e0: 59d7 f0bd df4e 3f3e 078c f2bd 2340 de3d
000000f0: 9bfb c93d 9716 683e a251 7b3e b11d 73be
00000100: 2700 3cbe fb69 233e 386f 1d3e cc9b ccbc
00000110: dd09 2c3c ed3a 2ebe 710b 08bd 7c0c 3dbd
00000120: 9adc 07be 72df 51be 000a 153d 0dda 473d
00000130: 2356 64be 8eb7 a13d 45c5 653e c736 b4bd
00000140: b731 193e cf62 463e a1aa 54be 0457 b3bd
00000150: 5ddd a03d fcda 39bd 413d 243e ec02 6e3e
00000160: ef7b 313e 9746 cfbd c478 573e ef86 10bd
00000170: 79bf 23be b5c5 a43d c9f5 0b3c 8330 f63c
00000180: 3121 223e a159 27bd a16e e03c 4fef 56be
00000190: 954e 4d3e 5576 253e b195 2cbd 865f 68be
000001a0: 7b1e 82be 0dd0 a6bc f878 5abe 18bb 2b3e
000001b0: 1f9c 4dbe 993b 24be f02b d2bd 6c47 73be
000001c0: d844 7bbd def1 2abc 85c8 293d 8b84 bc3d
000001d0: 9776 5a3c d37b de3d 8d2f 0a3e 1f80 1bbe
000001e0: 53d7 813d 4b0c 263e b7c1 723c 7e8d 82bd
000001f0: df6f 063e 568b d4bd afdb 7a3e 038c 6ebe
00000200: 7b9d 7dbe e377 c7bd 4fb7 523e 374d 7abe
00000210: 1a01 393d 7a90 e5bd f73a 4a3e d73e ad3d
00000220: 7d4d 523e a691 87bd a898 883d ae2d 21bd
00000230: afec 4f3e 676a 27be 8d0a 40bd 8f71 e8bc
00000240: 77c0 5c3e 3610 21bd bbad 01be db1c c83b
00000250: 5f82 c0bd c3db eebd d0da f9bc 2a2e f5bc
00000260: bb2e f93d b372 63be 6c3b 6fbe 41a0 00be
00000270: 0667 6abe b268 723e ff0b 02be f177 1fbd
00000280: 8458 cf3c 183d 4fbd 2159 d1bc d707 9cbd
00000290: 1bb1 ce3d 58e3 12bd 87c8 023e e7ce 78bd
000002a0: 87d0 edbd 1067 2bba c9d3 6cbe 65ba 4fbe
000002b0: 4d46 2f3e d77d 48bb 72e0 333e 17ea 683e
000002c0: 8bc7 5a3e dc75 b73c 7d6e 80bd c6e4 463d
000002d0: 1822 37be a10f 31be 673c 183d 1e1c 5a3d
000002e0: 9276 11bd 4998 c9bd d0d6 433d a286 ce3d
000002f0: 3e79 193e 3010 023e 1beb 6fbe 21b0 50be
00000300: 8684 f73d f87c 953b 4a25 c9bd cd5f 803e
00000310: 8bc1 8e3d e046 b33c 1b33 1dbe 43b8 583e
00000320: 504f 303e bbfe cdbc e40b 243c 5a18 5bbe
00000330: 0df4 533e fafd abbd be24 5ebd a50c 243d
00000340: fbd5 2f3e ebae c13d 2637 583e 0073 433e
00000350: 6e5e 523e f9e9 163e 1119 4bbe 06f3 47be
00000360: 6adb 1bbe 7590 073e 7a41 803d 4323 3ebe
00000370: 6fb1 cebd be3b aebd 4df0 f6bd 231b 513e
00000380: f5fa 7b3e ddbf f9bd 9dc7 4e3e 8745 733e
00000390: 2946 533e 105f fd3c 88ec cbbd b435 22be
000003a0: 5846 35bd 9878 86bd 6226 163e 9fdb e2bd
000003b0: ae9a b7bd 0fbb 76be 8727 a63d f9bb 313e
000003c0: 9ce2 4a3e 74aa a33d 29dc 6abe 3df0 fe3d
000003d0: 9700 39be 466c ce3d f7bd 623d ebbb 48be
000003e0: 403e ed3d b879 6f3d 20b4 e2bd 3925 e33d
000003f0: 0a56 6cbe 2bb6 acbc 844d 373e 5089 f23c
-0.1986861 0.10050552 0.22415428 0.04176409 -0.020994902 -0.16033119 -0.014513772 0.21637414
-0.20074606 -0.18229331 0.20393482 -0.08437636 0.19683063 -0.13818632 0.0866202 -0.25238356
-0.14321713 -0.077429906 0.121549495 0.04032915 0.23492782 0.16143714 0.20923713 -0.17823723
0.2157969 0.038410716 -0.1398697 -0.14264818 0.13779943 -0.16694891 0.08536483 0.238993
-0.06820584 0.14384498 -0.18562934 -0.15395555 0.115397654 -0.0370297 -0.09157972 0.04460847
-0.13902372 -0.18427749 0.015876891 -0.066463366 0.17463063 0.060911555 -0.107970014 -0.0395397
-0.07314247 0.24936874 0.12976986 -0.06963858 -0.18532376 -0.22371972 -0.20167172 0.043068573
-0.11759824 0.1868243 -0.11843114 0.10852077 0.09862443 0.22664867 0.24542859 -0.23741795
-0.18359433 0.15958397 0.15374458 -0.024976633 0.010500398 -0.17014666 -0.033214036 -0.046154484
-0.13267747 -0.20495394 0.03638649 0.048791934 -0.22298484 0.078963384 0.22438534 -0.087995104
0.14960371 0.1937363 -0.20768215 -0.08756831 0.07854722 -0.045374855 0.16038992 0.23243302
0.17332433 -0.10120886 0.21042162 -0.035284933 -0.1599101 0.08045522 0.0085424865 0.030052429
0.15832974 -0.04085696 0.027396502 -0.20989726 0.20049508 0.16158421 -0.042134944 -0.2269269
-0.2541388 -0.020362878 -0.21335208 0.1677059 -0.20079087 -0.1603836 -0.10262287 -0.23757714
-0.06134495 -0.010433642 0.041450996 0.09204968 0.013333938 0.10863461 0.13494702 -0.15185593
0.06339898 0.16215627 0.014816693 -0.06374644 0.13128613 -0.10378139 0.24497865 -0.23295598
-0.24767105 -0.097396635 0.20577739 -0.24443518 0.045167066 -0.11209197 0.19749056 0.084592514
0.20537372 -0.06619577 0.06669742 -0.039350204 0.20305131 -0.16349183 -0.046885062 -0.028374461
0.21557795 -0.0393221 -0.12663929 0.0061069555 -0.09399866 -0.1166301 -0.030499846 -0.02992924
0.12167116 -0.22211723 -0.23362511 -0.12561132 -0.22890863 0.2367275 -0.12699889 -0.038932744
0.025310762 -0.050595373 -0.025555195 -0.07618683 0.10092374 -0.035861343 0.12771808 -0.060744192
-0.11612039 -0.000653849 -0.23127665 -0.20285948 0.17116661 -0.0030592585 0.17566088 0.22745548
0.21365182 0.022395067 -0.06271074 0.04855802 -0.178841 -0.17291118 0.03716698 0.05324947
-0.035513468 -0.09843499 0.047812283 0.10084273 0.14987656 0.12701488 -0.2342953 -0.20379688
0.12085824 0.0045620166 -0.098215654 0.2507309 0.06970509 0.021884382 -0.15351526 0.2116404
0.17217755 -0.025145879 0.010012601 -0.21396008 0.20698567 -0.083980516 -0.05423426 0.04005112
0.17171471 0.09457191 0.21114787 0.19086838 0.20543835 0.14737691 -0.19833781 -0.195263
-0.15220419 0.132387 0.06262489 -0.18568139 -0.100924365 -0.08507489 -0.120575525 0.20420508
0.24607451 -0.12194798 0.20193334 0.23756991 0.20632233 0.030929118 -0.09957224 -0.15840799
-0.04425654 -0.0656597 0.1466308 -0.11077046 -0.0896505 -0.24094795 0.08113008 0.17356862
0.19813007 0.07991496 -0.22935547 0.124481656 -0.18066631 0.10079245 0.055356946 -0.19602935
0.11584139 0.05846569 -0.11069512 0.11091084 -0.23079696 -0.021082958 0.17900664 0.029606491

fc4.bias f4 [16]
00000000: b9f4 3b3d d932 c03c f48b 7cbd 5e85 d9bd
00000010: 867c 09be c4e3 883d 9681 8cbb 7b89 283e
00000020: 9e26 ebbd f3eb 2f3e f783 54be ec5b 293e
00000030: 8e47 77be 000e 83bc af8e 2ebe 61b7 073e
0.045887683 0.023461746 -0.061656907 -0.10621141 -0.13426408 0.06684068 -0.004287909 0.16458695
-0.11481975 0.17179851 -0.20753466 0.16538972 -0.2414839 -0.015997887 -0.17046617 0.13253547

fc5.weight f4 [16, 16]
00000000: cbda 3e3e 6610 07be 1b3a 193e 3967 50be
00000010: 08ff 0e3c e4f3 043e 7243 e1bc 266e 1ebe
00000020: 141b 1abe 86f6 5fbe 8da2 173e f1fc 73be
00000030: c998 0c3e 90ed d5bc 1fb2 bdbd 9f1f a73c
00000040: 20dc fb3d 9a3a c1bd 2f24 44be 8e93 483e
00000050: 044e 50bd 3ae5 6abe fe74 5e3c 9da8 73be
00000060: 7bba 643e 8534 3b3e 335f 0fbe acc4 b1bd
00000070: b00a b73c ec82 2bbe 4ae3 96bd 6cd6 ad3c
00000080: f612 2fbe d9a9 623d acd3 623e f485 fe3d
00000090: 18ff 37be d8ff 2b3e 7466 6d3e 60bf f13d
000000a0: d704 343e f97f 1d3e ca79 933d dfab 51be
000000b0: 4aee 61be 4d47 263e e471 47be 00d9 553d
000000c0: 7133 04be d8fc 69be b0d2 543e 31e6 7a3e
000000d0: 0083 443e a040 323e 0f95 acbd cbf9 5d3e
000000e0: 2695 42be f8f4 2a3e 552a febd cb3b 5fbc
000000f0: bd2d 223e e8a8 363e 3db2 123e fc6a 033e
00000100: b940 54bc 00b1 9a3d af37 1f3e 20ed f73c
00000110: b509 c9bd 2f40 013e 579f 803e c633 6a3e
00000120: 6ce0 3f3e d306 e7bd 2161 2cbe 4a25 7fbe
00000130: 6cd2 06be b239 1cbe b057 2c3e 1691 513e
00000140: fd45 963d 79fb 203d 4bfa d23d c474 70bd
00000150: 2754 15bc 07fe 9e3b 066c adbd 5733 363e
00000160: e5af a93d 6943 423e 0df6 2bbe fba9 b3ba
00000170: d1dd 473e edb9 303d d298 14be f770 78bd
00000180: 96b2 1cbe 3a76 8fbc 6bcb b5bd 2606 5e3e
00000190: 94e4 08be e571 29bd e501 3dbe 9c01 eb3c
000001a0: 2ce3 51be 5fc0 5fbe 315b 3b3d 35ec a8bd
000001b0: 0db8 35be 4fea b7bd 4973 213e 5f43 313e
000001c0: f856 ff3d a431 b1bd 2a0f ef3d 8348 7abe
000001d0: 105c 4abe 9691 5e3e 02f2 2d3d 7776 52be
000001e0: dbe9 653e 273b 10be 4f06 a53d 0a21 0e3e
000001f0: ee77 263e e51b 1dbe 08a2 44be 55ae 1d3d
00000200: 9748 60be beba 52bd c6a8 5dbe 44a0 c4bd
00000210: 82fe 003e d913 083e 6010 24be b6d6 e8bd
00000220: b8a9 e5bd 5bef 4bbd c2bc 923d aad9 e83d
00000230: df92 4abe 6990 2fbe 15e4 5f3e a3d7 d3bd
00000240: d042 f1bd 33a6 4f3d 7ba5 7cbe a48e 5c3e
00000250: 7872 1cbe 7210 403e 1a98 54be 1bb6 6d3e
00000260: 64c1 43be f09c 21be eeec 8b3d 7224 9cbd
00000270: f727 c23d 0443 2cbe 55a8 80bd 15c0 3cbe
00000280: 5e78 643e d2ac 913c 81f8 5c3e 1a96 193e
00000290: 96ab 97bc 2216 103e 5294 333e ed47 303e
000002a0: 5441 303e 29a2 bf3d f68e 44be e28a 123e
000002b0: c6d6 033e c956 01be a643 c3bc eaa3 65be
000002c0: dc7b 203e 6e96 4e3e 2ef5 793d 581c f8bd
000002d0: 0797 6fbd d87e 6c3e 1345 023d 928c ac3d
000002e0: f870 8b3d 384d 0d3e 1afb bf3d 17c9 c43d
000002f0: 138b a2bd fa2e d5bd b73e 6cbe 4d24 5cbe
00000300: bb0d 653e d4a0 99bd 17b0 fc3d ebf7 68be
00000310: 0ce5 11be c6ca 44be 541a 5b3e 33c9 71be
00000320: 0294 1c3e dfab 43be 822d bcbd 38c9 373e
00000330: cf22 1bbc 635b d8bd 4239 553d e637 07be
00000340: 422f e2bd bd4c 18be fa2e 6c3e a001 60be
00000350: cbd1 773d bdeb 673e 6e70 44be 50af 95bd
00000360: 0711 57be 8466 9dbc c107 6b3e d896 69bd
00000370: 58d0 41be 11cd 19be e7d8 fbbc 3389 fbbd
00000380: be4a 9f3a 6c99 30be 410a b13d f24b 6ebd
00000390: b7e3 7a3e f4b9 aebd acce 0d3e 36b1 003e
000003a0: 89af 133e 54a6 cebd 9d67 33be 8c0d 68bd
000003b0: 7e02 20be 2a3b 11be 7cfa bc3d a58c 1c3d
000003c0: 47b2 4e3e 8016 37be a8df 0bbe 741b 0ebe
000003d0: f103 27bd d0e7 783c 080b 61be 3fde 213e
000003e0: 2153 dd3d 9118 6fbe d6c9 75be b27d 12be
000003f0: 548a c03d 2931 04be 4c2f fdbd 3053 15bd
0.1863815 -0.1318985 0.14963572 -0.20351876 0.008727796 0.12983662 -0.02749798 -0.15471706
-0.15049392 -0.21871385 0.14808102 -0.23826958 0.13730158 -0.026114255 -0.092624895 0.02040082
0.12297845 -0.094350055 -0.19154428 0.19587538 -0.05085565 -0.22939005 0.013577698 -0.2379479
0.22336762 0.18281753 -0.1400116 -0.0868009 0.022343963 -0.16749161 -0.07367571 0.021220408
-0.17097077 0.05533776 0.22151059 0.12427893 -0.17968404 0.16796815 0.23183614 0.1180408
0.17579971 0.15380849 0.07200964 -0.2047572 -0.22063556 0.16238137 -0.1947704 0.0522089
-0.12910248 -0.22850358 0.20783496 0.24501874 0.19190598 0.17407465 -0.08426868 0.2167732
-0.19002208 0.1669501 -0.12410418 -0.013625096 0.1583776 0.1783787 0.14325805 0.1283378
-0.012954884 0.07553291 0.15548585 0.030264437 -0.098163046 0.1262214 0.25121567 0.22871312
0.18737954 -0.112805985 -0.16833927 -0.24916568 -0.13166207 -0.15256384 0.16830325 0.20465502
0.07337568 0.039302323 0.10301646 -0.058705106 -0.009114302 0.0048520598 -0.084678695 0.17793022
0.08285502 0.18971027 -0.1679308 -0.0013707274 0.1951821 0.043146063 -0.14511421 -0.060654607
-0.153025 -0.01751243 -0.088766895 0.21682033 -0.13368446 -0.041368384 -0.18457754 0.02868729
-0.20496815 -0.21850727 0.045741264 -0.08248178 -0.17745991 -0.08980238 0.15766634 0.17310856
0.1246776 -0.08652046 0.11672814 -0.24441724 -0.19761682 0.21735224 0.042467125 -0.20553003
0.2245249 -0.14085065 0.08057844 0.13879791 0.16256687 -0.15342672 -0.19202435 0.038496334
-0.21902691 -0.051447622 -0.21646413 -0.09600881 0.12597087 0.13288821 -0.16021872 -0.11369078
-0.11214012 -0.049788814 0.07164909 0.11369641 -0.1978259 -0.17144932 0.2186435 -0.10343864
-0.117803216 0.05069561 -0.24672501 0.21538788 -0.15278041 0.18756273 -0.20761147 0.23213999
-0.19116741 -0.15782523 0.068323 -0.07624139 0.09480279 -0.1682244 -0.06282107 -0.18432648
0.22311541 0.017782602 0.21579172 0.14998665 -0.018514436 0.14070943 0.17537048 0.17214938
0.1721242 0.093571015 -0.1919516 0.14310792 0.12874898 -0.12630762 -0.023835968 -0.2242581
0.15672249 0.20174572 0.061024837 -0.12114781 -0.05849364 0.23095262 0.031804156 0.08425249
0.068086565 0.13798988 0.09374066 0.09608667 -0.079366826 -0.10409351 -0.23070799 -0.21498223
0.22368519 -0.07501379 0.12338274 -0.22750823 -0.1424753 -0.19217977 0.21396762 -0.23611908
0.15290835 -0.19108532 -0.091883674 0.17947853 -0.009468748 -0.10564306 0.05205656 -0.13204917
-0.1104417 -0.14873023 0.23064795 -0.2187562 0.06050281 0.22648521 -0.19183514 -0.07308829
-0.21002589 -0.019213922 0.22952177 -0.05702862 -0.18927133 -0.15019633 -0.030743076 -0.12282028
0.0012153012 -0.17246026 0.08644534 -0.058177896 0.24500929 -0.085315615 0.1384837 0.125676
0.1442243 -0.10090318 -0.17519994 -0.056653544 -0.1562595 -0.14182726 0.092274636 0.038220067
0.20185195 -0.17879677 -0.13659537 -0.1387766 -0.040775243 0.015191987 -0.21976864 0.15807436
0.10806871 -0.23349215 -0.24002776 -0.14305761 0.09401384 -0.12909378 -0.12362537 -0.036456287

fc5.bias f4 [16]
00000000: afb9 3f3e 2ee9 bdbd fbd9 f4bd f972 a73d
00000010: e7d2 2f3d 92da 23bd 9e4d e13d 473d b93d
00000020: f22c 5cbe 325f 01be 9501 3c3d fe58 513e
00000030: b261 48bd 9380 393e 0ad3 e63c b85b a63d
0.18723176 -0.09272991 -0.11955639 0.08176226 0.04292574 -0.040003367 0.110011324 0.09044891
-0.2150152 -0.1263397 0.045899946 0.20444104 -0.048921295 0.18115453 0.028176803 0.08122963

fc6.weight f4 [16, 16]
00000000: e0d9 e8bd 5431 583e d5a8 bbbd 839a 3d3e
00000010: 9d36 6cbe 314a 35be 0c83 34be 6654 f8bd
00000020: c4fc a63c e5d7 e63d b786 04bd 07de 6ebe
00000030: 2182 7a3e 3488 773e a42e febd 257e 38bd
00000040: 7b43 11bc 156b 45be 58e6 543e 9e35 97bd
00000050: ede9 233e 7008 773d ed8c d03d b38e 9c3a
00000060: b66d 9abd 716d 75bd 7f3b a5bd 64d0 75be
00000070: a9cf c2bd 3548 b6bd 9be0 463e 0de2 b03d
00000080: 6146 243e 0c89 05be 7905 19be cb0a 52be
00000090: 4105 1d3e d31a 20bb e8de 44be b501 ac3d
000000a0: 2607 74bd f876 53bd c221 57be 1e85 f93d
000000b0: 6573 4bbe d517 1e3e 09b1 24bd 5ac2 b6bc
000000c0: b8ba 6dbd 6f87 223e dbca 65bd 74e1 ee3c
000000d0: 1908 dcbd cadd dfbd fb5f 6f3e 6096 103e
000000e0: 1507 2ebd d95e 033e 81e8 2dbe a0a6 cf3d
000000f0: 0c92 23be 8746 333e 4bd3 65bd bc42 783e
00000100: 21d2 b7bd b2a0 aabc 44c0 293e eb9d 893d
00000110: 6533 47be 4438 72be c083 ba3d bb8a 24be
00000120: 0783 c53d cfc5 523e 4373 0fbe c73f 3fbe
00000130: 42ff 25bd 403e 363e f1a5 f33b 7c86 bf3d
00000140: d48c 193e c6c7 c2bd 819d 3d3e bef9 103d
00000150: 4e9b 173e 329b 44be 17d6 7d3d 3dc0 393c
00000160: e3d8 bc3d df27 64be 2c9b 51be 6471 38be
00000170: d0c4 7cbc 3842 7b3e 4643 1ebd 45f7 203e
00000180: 4ad5 7ebe 7ef7 71be 3765 0abe 4ca7 72bd
00000190: f3a8 133e 0d6d 2fbe 3f44 13bc 6755 eb3d
000001a0: 38d8 3a3d 9c59 153d 852b 59be c9fb 1cbe
000001b0: ffe0 8c3d 2fac b43c 0f83 c33d d683 083e
000001c0: 1de9 243e 30e9 803c 06fd 7fbe 260e 1abd
000001d0: ebc8 6f3e 9444 653e b240 b9bd 2d13 343e
000001e0: 84b3 59be f102 94bc 948a 16be 5ecb 78be
000001f0: 4fee 6bbd 31d7 1bbe d85b 723c ace6 873a
00000200: 7006 3a3e 44f2 7c3d f70e c4bd e901 593d
00000210: 37dd 98bd 8fcf d7bc fd45 4a3b 1c95 a53d
00000220: bf1b 36be c275 a9bd 8938 523e c0b6 3abe
00000230: 93c5 953d a2d4 643e 53ae b33d 5d58 61be
00000240: 66ee 6e3e 54cf 9ebd 302b 683e 56f8 b8bd
00000250: 6161 3dbe 51ae 1a3e d97c 1fbe dde3 79be
00000260: 09b4 7ebe aafa 4f3e 7c49 623e 142b ea3d
00000270: 11b1 27be 9ee5 4e3e 05dc 06be 4cde 95bd
00000280: 0889 00be 1901 4cbd b0d7 103e 0ffa 653e
00000290: 59fa 983d 67ff 0dbe 8e94 43be b023 b13d
000002a0: 7bb9 853d 7ce2 0e3e 20d1 383e c153 6ebe
000002b0: 2e81 1d3e 6768 debd 3033 4dbd cb52 4b3e
000002c0: f1b0 77be 1a1e 7bbe e005 4a3e e6a1 4a3e
000002d0: 8999 5d3e 2458 1f3c 736e 2abe e3c3 55be
000002e0: f621 313e 8e19 3b3c a6f5 a3bd e699 c4bd
000002f0: 1510 11be bc5c 7f3e edd8 3cbe 3eb9 0ebe
00000300: 2946 58be 682a 30be 5899 423e 2aa5 883d
00000310: 9e75 30be 7b0b 22be ae11 243d 1d6e 47be
00000320: 1b5d 3dbe 3b86 1bbe 99c4 3a3e bac6 623d
00000330: 3686 153d 351c 6abe c9dd 33be d3d0 80be
00000340: fdb3 0cbd af7a 0e3e 9e53 6c3e 7862 11be
00000350: 7a0f 6dbe b3d6 cb3d 7588 a0bd 071a 7dbe
00000360: 9753 f53d 5322 613d c6e4 0fbe ab06 5d3e
00000370: 5782 77be 901a 49be f61f 87bc 852a 78bd
00000380: 22de c43c f0b6 bebd 32c6 0c3e b64c c5bc
00000390: 8446 2e3d db61 72be 54ee 003e 02df 0e3e
000003a0: d27d 873d c64a b03d f3b4 653e 1f37 2a3e
000003b0: 2cbf 88bb 9b18 72be 5d74 af3c 18b0 e33d
000003c0: 04d6 4ebe 60bf ab3d 780d 6bbe a8f4 e7bd
000003d0: 9038 a03c e9e0 1d3b 6247 523e 7a29 9b3d
000003e0: e4cb 583d 5f8b 0fbd 8613 9a3d 4155 a33b
000003f0: d8de f23d 7eec 4f3e 73bc 78be 6b62 5d3e
-0.11369681 0.21112567 -0.091630615 0.18515973 -0.23067708 -0.17704083 -0.17628115 -0.12125473
0.0203842 0.11271647 -0.032355037 -0.23326884 0.24463703 0.24173051 -0.1241124 -0.045042176
-0.008866186 -0.1927913 0.20790994 -0.073832735 0.16007204 0.06031078 0.101831295 0.0011944383
-0.07540457 -0.059918825 -0.080679886 -0.24005276 -0.09512264 -0.08900491 0.19421618 0.08636866
0.16042472 -0.1304056 -0.14943494 -0.2051193 0.15334035 -0.002443005 -0.19225657 0.08398763
-0.05957713 -0.05162713 -0.21008971 0.12183593 -0.19868238 0.15438779 -0.040207896 -0.02230947
-0.058039397 0.15871976 -0.05610166 0.029160239 -0.10743732 -0.10930975 0.23376457 0.14119864
-0.042487223 0.1282915 -0.16983224 0.10139203 -0.15973681 0.17507373 -0.056109708 0.24244207
-0.08975626 -0.020828579 0.1657725 0.067195736 -0.19453199 -0.23654276 0.091071606 -0.16068546
0.09644132 0.2058327 -0.14008813 -0.18676673 -0.040526636 0.17797184 0.0074355532 0.09351823
0.14995128 -0.0951076 0.18517114 0.035394423 0.14805338 -0.19199827 0.06197175 0.011337337
0.09221055 -0.22280835 -0.2046935 -0.18012005 -0.015427783 0.24536979 -0.038638376 0.15719326
-0.24886051 -0.23629567 -0.13515173 -0.059241578 0.14419918 -0.17131443 -0.008988439 0.114908986
0.04561636 0.03646241 -0.21208008 -0.15330423 0.06878852 0.02205476 0.09546482 0.13331541
0.1610455 0.015736192 -0.24998865 -0.03761115 0.23416488 0.22389442 -0.09045543 0.1758544
-0.21259886 -0.018067809 -0.14701301 -0.24296328 -0.057600316 -0.15218808 0.014792405 0.0010368428
0.18166518 0.06175448 -0.09573167 0.052980337 -0.074640684 -0.026344089 0.003086447 0.08085081
-0.17784022 -0.08274414 0.20529379 -0.18233776 0.07313075 0.22346738 0.08773484 -0.22006364
0.2333313 -0.077543885 0.22672725 -0.09031741 -0.18494178 0.15105559 -0.1557497 -0.24403329
-0.24873365 0.20310465 0.22098345 0.11433998 -0.16376139 0.2020478 -0.13169868 -0.073177904
-0.12552273 -0.049805734 0.14144778 0.22458671 0.07469625 -0.1386696 -0.19099638 0.08649385
0.06529518 0.13953584 0.18048525 -0.23274137 0.1538131 -0.10859757 -0.050097644 0.19855802
-0.24188592 -0.24523202 0.19728804 0.19788322 0.216406 0.009725604 -0.16643696 -0.20875506
0.17298111 0.011419667 -0.08005838 -0.09599666 -0.14166291 0.24937719 -0.18442126 -0.13937852
-0.21120514 -0.17203677 0.19003808 0.066721275 -0.17232367 -0.15824692 0.040055923 -0.19475599
-0.18492548 -0.15187924 0.18239059 0.0553653 0.036504947 -0.22862323 -0.17565073 -0.2515932
-0.034351338 0.13913988 0.23078772 -0.14197719 -0.23150435 0.0995306 -0.07838527 -0.2471696
0.11978834 0.054964375 -0.14052114 0.21584575 -0.24170814 -0.19639039 -0.016494732 -0.060587425
0.024031702 -0.09312236 0.1374748 -0.02408443 0.042547718 -0.23670141 0.12590915 0.13952258
0.06615795 0.08608012 0.22432308 0.1662259 -0.00417318 -0.23642199 0.021417791 0.111175716
-0.20198828 0.08386111 -0.22954357 -0.11325961 0.019558221 0.0024090356 0.20535043 0.075762704
0.05292882 -0.035045024 0.07523255 0.0049845283 0.1185891 0.20305058 -0.24290638 0.21619575

fc6.bias f4 [16]
00000000: 0690 2a3e 5d89 543e 442a 63bc b8ca 1bbd
00000010: 71a5 113e 519e d63d b2c3 47be e63e 5d3e
00000020: fb37 82bd 4853 cdbc a8af 41be e384 45be
00000030: 6b4a 853d 7ac4 9abd e76e 38be a87e 0bbb
0.16656503 0.20755525 -0.013865057 -0.038035125 0.14223267 0.10479415 -0.19508246 0.21606025
-0.06358334 -0.025064126 -0.18914664 -0.19288974 0.06508335 -0.07557006 -0.18011056 -0.002128521

fc_out.weight f4 [1, 16]
00000000: b361 2bbd ce30 e0bd 4c16 693d 27b4 3e3e
00000010: b4a5 9a3b d427 143e b9a2 be3d 7fcd e2bb
00000020: 7952 06be 229a bcbd 25c6 eabc 155c 62bd
00000030: 0985 46be d540 6f3e bb17 46bd 6a52 2b3e
-0.04184122 -0.10946809 0.05690603 0.1862341 0.0047194604 0.14468318 0.09308381 -0.0069214697
-0.13117398 -0.09209086 -0.028658936 -0.055263598 -0.19386686 0.23364575 -0.048362475 0.16730657

bn.weight f4 [16]
00000000: 0000 803f 0000 803f 0000 803f 0000 803f
00000010: 0000 803f 0000 803f 0000 803f 0000 803f
00000020: 0000 803f 0000 803f 0000 803f 0000 803f
00000030: 0000 803f 0000 803f 0000 803f 0000 803f
1.0 1.0 1.0 1.0 1.0 1.0 1.0 1.0
1.0 1.0 1.0 1.0 1.0 1.0 1.0 1.0

bn.bias f4 [16]
00000000: 0000 0000 0000 0000 0000 0000 0000 0000
00000010: 0000 0000 0000 0000 0000 0000 0000 0000
00000020: 0000 0000 0000 0000 0000 0000 0000 0000
00000030: 0000 0000 0000 0000 0000 0000 0000 0000
0.0 0.0 0.0 0.0 0.0 0.0 0.0 0.0
0.0 0.0 0.0 0.0 0.0 0.0 0.0 0.0

bn.running_mean f4 [16]
00000000: 0000 0000 0000 0000 0000 0000 0000 0000
00000010: 0000 0000 0000 0000 0000 0000 0000 0000
00000020: 0000 0000 0000 0000 0000 0000 0000 0000
00000030: 0000 0000 0000 0000 0000 0000 0000 0000
0.0 0.0 0.0 0.0 0.0 0.0 0.0 0.0
0.0 0.0 0.0 0.0 0.0 0.0 0.0 0.0

bn.running_var f4 [16]
00000000: 0000 803f 0000 803f 0000 803f 0000 803f
00000010: 0000 803f 0000 803f 0000 803f 0000 803f
00000020: 0000 803f 0000 803f 0000 803f 0000 803f
00000030: 0000 803f 0000 803f 0000 803f 0000 803f
1.0 1.0 1.0 1.0 1.0 1.0 1.0 1.0
1.0 1.0 1.0 1.0 1.0 1.0 1.0 1.0

exp_avg f4 [16, 66]
00000000: 920b 9d3d 0de6 793e 327c 423d 1f9a ae3e
00000010: 95e5 7f3b e5e1 be3c b851 d53e bb36 7e3e
00000020: a3d5 913d a717 3938 50ed bb3e f6f1 493b
00000030: 40b7 c33e b0bc 153b 7ae1 c23e 9548 bd3b
00000040: 3fa5 c23e de5d 383b fa19 c33e 7e51 833b
00000050: 783d c33e b807 aa3b b5a2 c23e b2e0 6e3b
00000060: 21db c33e fe61 693b bbd0 c23e 77a4 a33b
00000070: 1a8d c23e 6b43 6d3b 0963 c03e f431 1d3b
00000080: 66df c03e 3604 b83b 9c4e c03e 81a2 503b
00000090: 0303 c13e ea54 693b ba23 c13e c273 ac3b
000000a0: d201 c13e 7518 863b 1afb c03e 7fb4 623b
000000b0: 832b c03e 7156 b13b 27fd c03e f8c4 633b
000000c0: 9bdf bd3e db43 693b f88b be3e 9f1f c93b
000000d0: a46b bd3e 9f63 843b 6967 be3e d1b3 d13b
000000e0: dcec bd3e 8e5b 993b 9fb0 be3e b38c 953b
000000f0: beee bd3e a93c d53b 7f2f be3e 613e c9bb
00000100: 2f34 8c3a ac1d 0abb c4b0 6abe 13b4 30bf
00000110: ce27 0abe ca54 6cbf a260 00bb 6b7e 85bd
00000120: fc72 93bf 3841 31bf 9d66 4cbe 22c6 33bb
00000130: 1ecb 7ebf aad9 e1bb 5d63 84bf e5e8 f3bb
00000140: 9889 84bf 4d18 71bc 4c4a 84bf 9df8 05bc
00000150: cd79 84bf 5fb6 14bc 754c 84bf 43e9 79bc
00000160: a92f 84bf 8320 d8bb b374 84bf f4d2 f1bb
00000170: 468e 84bf a90d 58bc 0f70 84bf f2c9 03bc
00000180: 5cc3 82bf 724f 11bc 23ad 82bf 8e6c 6cbc
00000190: 0e68 82bf f6d0 13bc 33a7 82bf 3bec 0dbc
000001a0: d086 82bf 6794 65bc a770 82bf 72d1 05bc
000001b0: 8edb 82bf 3b13 1dbc d688 82bf aacd 82bc
000001c0: f5a2 82bf 6766 30bc 26f5 80bf ef2d 37bc
000001d0: 33d7 80bf efc1 8bbc 1fe4 80bf f9c4 29bc
000001e0: 0920 81bf 5ee8 9dbc 8fba 80bf 520d 47bc
000001f0: 6d0b 81bf d16d 57bc b1ca 80bf eb67 8ebc
00000200: f9b2 80bf 1a5b 633c 4b72 aeba dc69 bd3a
00000210: 3f3e 46be 3f06 1abf 5c50 f3bd ca55 3ebf
00000220: ff88 febb a0bd 37bd e3ec 6fbf dded 1bbf
00000230: 3822 27be c69c aeba 5818 4fbf 679d cabb
00000240: b87b 57bf cd06 cbbb 2d85 57bf 86b6 36bc
00000250: 9f68 57bf 32ac a1bb f58c 57bf bd2d e8bb
00000260: 1a38 57bf 7481 26bc 7840 57bf aad6 e6bb
00000270: 04e5 57bf 9329 b5bb 0638 57bf 8551 2cbc
00000280: b597 57bf 7a7a f9bb 0d9e 54bf a753 dcbb
00000290: 2458 54bf 6f19 47bc 634a 54bf eac1 06bc
000002a0: 517b 54bf 7c7d c3bb fe8d 54bf 169c 2cbc
000002b0: 5789 54bf d3c9 fabb cefe 54bf 1b4f eabb
000002c0: fa7d 54bf af5d 32bc 815c 54bf 3b39 13bc
000002d0: 57d4 51bf a208 1bbc 0784 51bf 5c4b 5cbc
000002e0: 463c 51bf 8109 11bc fddc 51bf 4990 53bc
000002f0: 1d29 51bf b72a 21bc 410a 52bf 9153 0abc
00000300: afda 51bf 5057 6bbc 0461 51bf a8da 443c
00000310: 5f99 e33a d31d f33a 8810 173d d11a b93d
00000320: 59d7 663c 55b9 3e3e 984c 2e3d b968 973c
00000330: f76e 623e 7424 083e e8a2 053d 894b 98b9
00000340: d21b 543e 7a68 c23a 3789 5a3e 8dd0 1b3b
00000350: 60ef 5a3e 2422 3a3b 4503 5a3e 9e90 b73a
00000360: 1484 593e a556 ff3a c029 5b3e 8c11 853b
00000370: bb6f 593e 355f 7339 53c8 5a3e 35ed 7b3a
00000380: 71f2 5a3e 337c 893b 3941 5a3e 37e0 0b3a
00000390: 305a 583e 0ef7 a23a a0a7 583e 1100 1b3b
000003a0: 01e7 583e ec2f 683a 0bf5 563e 053f cd3a
000003b0: 6e76 573e 552c 823b dd84 563e 49d8 053b
000003c0: 2ec9 583e 8e0e f73a d453 573e 97e2 8f3b
000003d0: d43b 563e da2f 103a cdd6 553e a06d 3b3b
000003e0: 3b32 563e 2bb7 783b fe6c 553e a318 143b
000003f0: a050 553e 719e 533b e5f7 543e c82f 273a
0.076682225 0.24404164 0.047481723 0.3410196 0.0039046754 0.023301074 0.4166391 0.24825566
0.07120826 4.4129465e-05 0.36704493 0.0030814386 0.38225746 0.0022848062 0.3806265 0.0057764747
0.38016698 0.002813212 0.38105756 0.0040075174 0.38132834 0.0051889084 0.3801476 0.0036449847
0.3825312 0.0035611386 0.38049874 0.004993971 0.37998277 0.0036203514 0.37575558 0.0023986073
0.3767044 0.0056157364 0.37559974 0.003183514 0.3769761 0.0035603591 0.3772257 0.005262823
0.376967 0.004092271 0.37691575 0.0034592447 0.37533197 0.005411916 0.3769314 0.0034754854
0.3708466 0.0035593424 0.37216163 0.0061378027 0.36996186 0.004040196 0.3718827 0.0063996096
0.37094772 0.0046801036 0.37244126 0.004563892 0.37096208 0.0065074754 0.37145612 -0.0061414693
0.0010696704 -0.0021074815 -0.22918993 -0.6902477 -0.13491747 -0.9231688 -0.0019588848 -0.06518253
-1.1519465 -0.6924014 -0.19961019 -0.0027431329 -0.9952868 -0.0068924027 -1.0342823 -0.0074435347
-1.035449 -0.014715266 -1.0335174 -0.00817695 -1.0349671 -0.009076684 -1.0335833 -0.015253368
-1.0327045 -0.0065956726 -1.0348114 -0.007379884 -1.0355918 -0.013186851 -1.0346698 -0.008043753
-1.0215869 -0.008869039 -1.0209087 -0.014430178 -1.0188005 -0.009021988 -1.0207275 -0.008662279
-1.0197392 -0.014012433 -1.0190629 -0.008167611 -1.0223253 -0.009587104 -1.0198009 -0.015967209
-1.020598 -0.010766602 -1.0074813 -0.011180385 -1.0065674 -0.017060248 -1.0069617 -0.010361903
-1.0087901 -0.01927584 -1.0056933 -0.012149172 -1.0081612 -0.013148741 -1.0061857 -0.017383536
-1.0054618 0.013876701 -0.0013309208 0.0014451104 -0.19359683 -0.6016578 -0.11880562 -0.74349654
-0.007767796 -0.044858575 -0.93720835 -0.60909826 -0.16321647 -0.0013321869 -0.8089652 -0.0061833146
-0.84173155 -0.006195879 -0.84187585 -0.011151915 -0.84144014 -0.0049338574 -0.8419946 -0.0070855306
-0.8406998 -0.0101627 -0.84082747 -0.007044633 -0.84333825 -0.0055286377 -0.8406986 -0.010517483
-0.8421586 -0.0076134773 -0.83053666 -0.0067238393 -0.8294699 -0.01215206 -0.82926005 -0.008224944
-0.83000666 -0.0059658866 -0.8302916 -0.010535261 -0.83022064 -0.007653454 -0.832013 -0.0071505434
-0.83004725 -0.010886594 -0.8295365 -0.008985813 -0.8196463 -0.009462507 -0.8184208 -0.013445701
-0.81732595 -0.008852364 -0.81977826 -0.012912818 -0.8170336 -0.009836844 -0.82046896 -0.008442775
-0.8197431 -0.014364079 -0.8178866 0.012015022 0.0017364434 0.0018548317 0.036881 0.09038318
0.014089429 0.18625386 0.042553514 0.018482553 0.22112642 0.13295156 0.032626063 -0.00029047977
0.20713738 0.0014832162 0.21341406 0.002377543 0.21380377 0.0028401697 0.2129031 0.0014004891
0.2124179 0.0019480778 0.21402645 0.0040609296 0.21234028 0.00023209753 0.2136548 0.0009610237
0.21381547 0.004195714 0.21313943 0.000533584 0.21128154 0.0012433247 0.21157694 0.0023651163
0.21181871 0.00088572386 0.20991914 0.001565904 0.21041271 0.00397257 0.20949121 0.0020423105
0.21170494 0.0018848942 0.21028072 0.0043910253 0.2092126 0.00055002945 0.20882721 0.0028599277
0.20917599 0.0037950973 0.20842358 0.0022597692 0.20831537 0.0032290483 0.2079769 0.00063776644
