self_avoidance_gym/pth/critic_2.pth (torch, 49940 bytes, 45 tensors)

value_mean f4 [66]
000000 00 00 00 00 00 00 00 00 00 00 00 00 00 00 00 00
       0.0 0.0 0.0 0.0
000010 00 00 00 00 00 00 00 00 00 00 00 00 00 00 00 00
       0.0 0.0 0.0 0.0
000020 00 00 00 00 00 00 00 00 00 00 00 00 00 00 00 00
       0.0 0.0 0.0 0.0
000030 00 00 00 00 00 00 00 00 00 00 00 00 00 00 00 00
       0.0 0.0 0.0 0.0
000040 00 00 00 00 00 00 00 00 00 00 00 00 00 00 00 00
       0.0 0.0 0.0 0.0
000050 00 00 00 00 00 00 00 00 00 00 00 00 00 00 00 00
       0.0 0.0 0.0 0.0
000060 00 00 00 00 00 00 00 00 00 00 00 00 00 00 00 00
       0.0 0.0 0.0 0.0
000070 00 00 00 00 00 00 00 00 00 00 00 00 00 00 00 00
       0.0 0.0 0.0 0.0
000080 00 00 00 00 00 00 00 00 00 00 00 00 00 00 00 00
       0.0 0.0 0.0 0.0
000090 00 00 00 00 00 00 00 00 00 00 00 00 00 00 00 00
       0.0 0.0 0.0 0.0
0000a0 00 00 00 00 00 00 00 00 00 00 00 00 00 00 00 00
       0.0 0.0 0.0 0.0
0000b0 00 00 00 00 00 00 00 00 00 00 00 00 00 00 00 00
       0.0 0.0 0.0 0.0
0000c0 00 00 00 00 00 00 00 00 00 00 00 00 00 00 00 00
       0.0 0.0 0.0 0.0
0000d0 00 00 00 00 00 00 00 00 00 00 00 00 00 00 00 00
       0.0 0.0 0.0 0.0
0000e0 00 00 00 00 00 00 00 00 00 00 00 00 00 00 00 00
       0.0 0.0 0.0 0.0
0000f0 00 00 00 00 00 00 00 00 00 00 00 00 00 00 00 00
       0.0 0.0 0.0 0.0
000100 00 00 00 00 00 00 00 00
       0.0 0.0

value_std f4 [66]
000000 00 00 80 3f 00 00 80 3f 00 00 80 3f 00 00 80 3f
       1.0 1.0 1.0 1.0
000010 00 00 80 3f 00 00 80 3f 00 00 80 3f 00 00 80 3f
       1.0 1.0 1.0 1.0
000020 00 00 80 3f 00 00 80 3f 00 00 80 3f 00 00 80 3f
       1.0 1.0 1.0 1.0
000030 00 00 80 3f 00 00 80 3f 00 00 80 3f 00 00 80 3f
       1.0 1.0 1.0 1.0
000040 00 00 80 3f 00 00 80 3f 00 00 80 3f 00 00 80 3f
       1.0 1.0 1.0 1.0
000050 00 00 80 3f 00 00 80 3f 00 00 80 3f 00 00 80 3f
       1.0 1.0 1.0 1.0
000060 00 00 80 3f 00 00 80 3f 00 00 80 3f 00 00 80 3f
       1.0 1.0 1.0 1.0
000070 00 00 80 3f 00 00 80 3f 00 00 80 3f 00 00 80 3f
       1.0 1.0 1.0 1.0
000080 00 00 80 3f 00 00 80 3f 00 00 80 3f 00 00 80 3f
       1.0 1.0 1.0 1.0
000090 00 00 80 3f 00 00 80 3f 00 00 80 3f 00 00 80 3f
       1.0 1.0 1.0 1.0
0000a0 00 00 80 3f 00 00 80 3f 00 00 80 3f 00 00 80 3f
       1.0 1.0 1.0 1.0
0000b0 00 00 80 3f 00 00 80 3f 00 00 80 3f 00 00 80 3f
       1.0 1.0 1.0 1.0
0000c0 00 00 80 3f 00 00 80 3f 00 00 80 3f 00 00 80 3f
       1.0 1.0 1.0 1.0
0000d0 00 00 80 3f 00 00 80 3f 00 00 80 3f 00 00 80 3f
       1.0 1.0 1.0 1.0
0000e0 00 00 80 3f 00 00 80 3f 00 00 80 3f 00 00 80 3f
       1.0 1.0 1.0 1.0
0000f0 00 00 80 3f 00 00 80 3f 00 00 80 3f 00 00 80 3f
       1.0 1.0 1.0 1.0
000100 00 00 80 3f 00 00 80 3f
       1.0 1.0

fc1.weight f4 [16, 66]
000000 30 dc 09 bd 14 61 82 3d 75 3c 28 bb 99 72 17 3d
       -0.033657253 0.063661724 -0.00256708 0.036974523
000010 74 70 6a 3d 98 6a a9 bd 4b 21 38 bd 39 2e e6 3d
       0.05723615 -0.08272284 -0.044953626 0.11239285
000020 9f 47 f1 3d 3e 44 a1 3d 7d b2 fb 3d dc be e3 3b
       0.11781239 0.07874344 0.12289903 0.0069502424
000030 38 7a b8 bd 60 c9 f7 bd 4b fd ab 3d 4c ed 7d bb
       -0.090076864 -0.12098956 0.08397921 -0.0038746176
000040 71 77 e1 bd 44 52 e0 bd 07 a7 a0 3d bb 59 85 3d
       -0.1100911 -0.10953191 0.07844358 0.06511255
000050 84 73 b0 bd 79 4b cc 3d 62 c0 90 bd 3b 1e db 3c
       -0.08615783 0.09975333 -0.07067944 0.026747813
000060 7c b9 d5 3c ac 35 a7 3b 0f fb f0 bc cc 23 1e bd
       0.026089422 0.0051028337 -0.029416589 -0.038608357
000070 82 58 a5 3d 4d fb f3 bd f5 cf ff 3a 01 0c 74 bd
       0.08073522 -0.11913166 0.0019516932 -0.05958176
000080 25 5c c7 bd e3 0c f8 bb 34 f5 79 bd d9 e5 e1 bd
       -0.09734372 -0.0075698956 -0.06102486 -0.11030168
000090 9b 59 0b bd 06 51 57 bc 9b 99 a2 3d 43 83 8a bd
       -0.034021 -0.013141876 0.07939454 -0.067633174
0000a0 b2 fe 06 3d e6 c1 f5 3d d8 44 2f 3c e1 19 21 bd
       0.03295774 0.11999874 0.010697566 -0.03933132
0000b0 0c 2d 9d 3a 0d 51 3d 3d 25 bf 1c 3d 67 a8 14 bd
       0.0011991574 0.046219874 0.038268227 -0.036293413
0000c0 0a fa d6 3d 29 c1 40 3d f2 8e ed bd b9 c4 ff 3b
       0.1049691 0.047059212 -0.1159953 0.0078054336
0000d0 e2 8b 78 3d 21 75 b8 3c 51 a8 c3 3c 3b 0a 45 3d
       0.060680278 0.022516789 0.02388397 0.04810546
0000e0 7f 68 42 bd 3d dc c7 3d 4a 8b aa 3d af a0 a4 3d
       -0.047462936 0.09758804 0.083273485 0.080384605
0000f0 7f bc d1 bd af 21 cc 3d 4c 3a fb 3d 80 f6 3a bd
       -0.10241031 0.09967362 0.122669786 -0.045645237
000100 9e e4 6a bd fc eb 0f 3d 92 64 e5 3d a0 64 ba 3d
       -0.057346933 0.03513716 0.11200823 0.09101224
000110 fd 26 b6 3c d7 c1 34 3d 6e b7 4b bd 8e 8e b5 bb
       0.022235388 0.044130173 -0.04973548 -0.0055406755
000120 26 d7 d7 bc da 6f cc bc 4e b5 9f bb a3 4b 46 3d
       -0.026347708 -0.024955679 -0.004873908 0.048411977
000130 79 ce 4a bd e0 d6 91 bd 68 70 85 bc 39 63 a7 bd
       -0.049513314 -0.07121062 -0.016288951 -0.08173222
000140 6c fb ee bc 2e 52 66 3c 08 dd ba 3c 59 e7 55 3d
       -0.029172622 0.014057679 0.022810474 0.052222583
000150 ee 2a c2 3d cf 73 ec bd 41 54 a4 bd 0a ab 41 bd
       0.094808444 -0.11545526 -0.08023883 -0.047282256
000160 cc 81 4d 3d c3 bd e6 3d 65 6a 00 3c 05 54 ce 3c
       0.050172612 0.11266663 0.007837866 0.025186548
000170 2d 40 d0 3d 97 38 dd bd bc 94 6c 3d 9d 3d a1 bd
       0.101684906 -0.10801809 0.05775903 -0.0787308
000180 91 a8 f3 bd fb 6b bc bd a3 9c 86 3d b8 49 dc 3d
       -0.11897386 -0.09200283 0.06572845 0.10756248
000190 44 81 d8 3d f9 66 27 bd 06 c8 9a 3d a1 62 a8 3b
       0.105715305 -0.040869687 0.07557683 0.0051387106
0001a0 4f 1e aa bd d7 9b b3 bc 9c 07 1c 3d b2 17 3c 3c
       -0.08306562 -0.021924896 0.038093194 0.011480259
0001b0 ba ed 7b bc ba a2 23 bd 91 3d ac 3d ab 1a d6 bd
       -0.015376503 -0.03995011 0.0841018 -0.10454305
0001c0 f7 31 ee bc 07 ea bd 39 b0 b2 a2 bd 60 df 92 3d
       -0.02907656 0.00036223253 -0.07944238 0.07171512
0001d0 bd f8 e8 3d 3e 6e 45 3d 24 c6 17 3c fd 9e 4c bb
       0.11375568 0.04820084 0.009263549 -0.0031222694
0001e0 98 06 8c 3d a8 a1 d3 bd ed c7 03 bd 1a 69 16 bb
       0.06837195 -0.10333568 -0.032173086 -0.002295083
0001f0 af 54 e7 3d 30 83 bd 3d 18 90 a5 bd 4e d1 c3 bd
       0.11295449 0.09253538 -0.08084124 -0.09561406
000200 d0 82 da bc 42 40 c4 bd 0c d0 3a 3d 4b 5e f8 3b
       -0.026673704 -0.09582569 0.045608565 0.0075796
000210 12 b8 b3 bc 03 d3 ca 3d 88 f6 e8 bc c1 73 b5 3d
       -0.021938358 0.099035285 -0.028437868 0.08859969
000220 ab 04 91 bc 6a b8 1a bd 93 4a 76 3d 48 71 c3 bd
       -0.017702421 -0.037773527 0.060129713 -0.09543091
000230 4a 1c 2f bc 7c f2 58 bd 70 4b 81 3d 86 e7 9d bd
       -0.010687897 -0.052965626 0.06313217 -0.07710175
000240 e5 02 ea bd a5 94 98 3d 46 90 d1 bc 3c 54 ae 3d
       -0.11426333 0.07450227 -0.02558149 0.0851216
000250 9d 66 8b bd 96 dc 6e bd a8 1e e2 3d 04 2a 8b 3d
       -0.06806681 -0.058315836 0.110410035 0.06795123
000260 94 fa b7 3d 94 32 19 bd e9 e4 87 bc cf 41 92 bc
       0.08983341 -0.03740175 -0.016588645 -0.017853646
000270 8f 54 ad 3d 09 bc cb bd e6 0f 60 3d ea f6 e3 3d
       0.08463394 -0.09947974 0.054702662 0.111310795
000280 02 58 b4 3d 8e 62 43 bc 52 ba 58 bd 7b 80 d2 3d
       0.08805849 -0.011925353 -0.052912064 0.10278412
000290 01 14 cf bd fd ae 7b 3d 1e a5 f0 3d ce 8f 08 3d
       -0.10111237 0.06144618 0.117502436 0.033340268
0002a0 93 57 d9 bd 00 e4 8d 3d d8 67 8f 3b 3b a1 f7 3d
       -0.106124066 0.06928253 0.004376393 0.12091299
0002b0 21 0b f0 3d 02 50 d5 3c 17 e3 e9 bd be c6 02 bd
       0.11720873 0.026039127 -0.11420267 -0.031927817
0002c0 38 c3 95 bd 54 ed 71 bd 85 5b 2c bd a9 9c e0 bd
       -0.07312626 -0.059064224 -0.042079467 -0.109673806
0002d0 4d 4a 0a 3d 06 23 ad bd 4b f8 a6 3c 35 4d f1 3d
       0.033762265 -0.08453946 0.020382067 0.11782304
0002e0 0a 70 1b 3c 54 85 f2 bd 9d c4 2a 3d 43 e5 3f bd
       0.009487161 -0.118418366 0.04169141 -0.0468495
0002f0 1b f0 a6 3d bb 28 d1 3d f6 6c a3 bd b2 09 63 3d
       0.08151265 0.10212847 -0.07979767 0.055429168
000300 61 39 b8 bd 90 f9 b1 3d 0b 9d 0c 3b 00 c8 b8 bd
       -0.08995319 0.086901784 0.002145591 -0.09022522
000310 e2 eb 19 3d 2e c5 d2 3c ce bc 8d 3d 53 6b 1e 3d
       0.03757847 0.025728788 0.06920777 0.03867657
000320 0e 4c b2 bc 4c f6 0d 3d b1 e5 0f bd cd cf f0 3d
       -0.021764781 0.034658715 -0.03513116 0.11758385
000330 1a 22 f9 bd ce a9 94 bd 50 24 dd bd e6 44 e1 3d
       -0.121647075 -0.0725895 -0.10797942 0.109994695
000340 ae 93 a7 3c ae db 3c 3d e1 f8 de bc 22 2a 2a 3d
       0.020456161 0.04610794 -0.027218284 0.041544087
000350 8c 91 de 3d e3 61 44 3d d6 93 c1 3d 5d d1 4c bd
       0.108676046 0.047944915 0.094520256 -0.050004352
000360 35 da fc bd a8 cc 80 bd d9 c2 8c bd eb 84 aa bc
       -0.12346307 -0.06289035 -0.06873102 -0.020815333
000370 8e 22 6f bc c3 d2 7c bd b0 6f 4f 3d 9a 26 8f bd
       -0.014595641 -0.061724436 0.050643623 -0.069897845
000380 43 78 1e bd 3a f9 f7 3c fe 8a d3 bd 9f 19 f7 3c
       -0.03868891 0.030270208 -0.10329245 0.030163584
000390 ae 00 aa 3d 83 ae d7 3a a5 b5 a9 3d 41 0a 2c ba
       0.08300911 0.0016455207 0.08286599 -0.0006562807
0003a0 a4 b5 bd bb a5 74 c7 3d 73 4c 78 bd d9 c7 a3 3d
       -0.0057894755 0.09739045 -0.060619783 0.07997102
0003b0 84 a6 55 3d 02 03 87 bc d8 23 f2 3d a3 56 95 3c
       0.052160755 -0.016480926 0.11823243 0.018229788
0003c0 92 d1 a4 3d 15 b2 2f 3a 50 6a 88 3d 2e 6d c7 3d
       0.08047785 0.00067022565 0.066609025 0.09737621
0003d0 73 a3 a3 bd 8c 34 dc 3d c4 52 ee 3c 08 a6 7b bd
       -0.0799016 0.1075221 0.0290922 -0.061437637
0003e0 64 5f bd 3c 51 d1 55 bd b0 48 13 3d 97 b6 9c bc
       0.023116775 -0.052201573 0.035957992 -0.019130034
0003f0 30 85 aa 3c 3c da 77 bd 40 fa b3 bd a7 21 ba bc
       0.020815462 -0.06051086 -0.08787966 -0.022721125

fc1.bias f4 [16]
000000 e0 a0 f6 bb 93 13 a5 bd 68 f9 56 3d 47 c6 91 3a
       -0.007526502 -0.08060374 0.052483946 0.0011121713
000010 82 08 da bd 6c 99 de 3a 6e 8a c2 3c 0b 19 83 3d
       -0.10646154 0.0016982979 0.023747649 0.06401261
000020 aa 2f 82 3d 85 42 b7 3d b1 67 85 3c 35 32 1d bd
       0.063567474 0.089482345 0.016284795 -0.03837796
000030 d9 0c 11 bd f1 c6 47 bd 79 79 20 bd f0 04 33 bc
       -0.035412643 -0.04877371 -0.039178345 -0.01092647

fc2.weight f4 [16, 16]
000000 cc bb 7f bd 32 f9 80 3d 23 ea 33 3d 6d c7 5b 3e
       -0.062434956 0.0629753 0.043924462 0.21462794
000010 87 9a 48 3e f9 e7 22 3e f7 78 3f 3d a8 30 1c 3e
       0.19590198 0.15908803 0.04674622 0.15252936
000020 91 d9 8c 3c 2e c2 4c 3e 8d 60 97 3d 53 0f 74 3c
       0.017193587 0.19995949 0.073914625 0.014896232
000030 55 8c 04 3e b9 b8 73 3e 28 4f 50 3e 70 f0 e7 bd
       0.12944157 0.23800935 0.20342696 -0.11325157
000040 18 4b 5f bd ee 1e 72 3e 20 e2 1e 3e 52 e7 79 bc
       -0.054514974 0.23644611 0.15515947 -0.015252905
000050 33 a9 79 3e 77 69 7f 3e 77 d3 3b be 37 fe 31 3e
       0.2438095 0.24942575 -0.18342386 0.17382132
000060 7e f1 19 be e1 a2 3f be 93 61 e8 bd fc 7f 3a 3e
       -0.15033528 -0.18714477 -0.11346736 0.18212885
000070 42 7a 8c 3d 1d 12 76 3e 3a 7a a7 bd b5 9e 3b bd
       0.06859256 0.24030347 -0.0817761 -0.04580565
000080 22 bf 05 be a6 83 02 3e 9b 77 1c be 0e 65 ca ba
       -0.13061193 0.12745532 -0.15280001 -0.0015441494
000090 b8 8c 87 3d 2d 77 51 be 78 f5 79 be 2d f4 f6 bc
       0.06618637 -0.20455618 -0.24410045 -0.030145729
0000a0 bb 98 46 be e8 13 eb 3d c0 70 7b be 8c 09 44 be
       -0.193942 0.11478406 -0.2455473 -0.19144267
0000b0 9e 7a 1b be 5d 0b 53 be 85 e9 a6 3d ad e8 10 3e
       -0.15183493 -0.20609803 0.08150009 0.14151259
0000c0 4b 72 62 3e 9b 54 45 be 1e e0 4f 3e b1 34 2d 3e
       0.22113912 -0.19270556 0.20300338 0.16914631
0000d0 a3 09 15 3c e1 c0 38 3d e5 da ad 3d 3f 49 2c bd
       0.009096536 0.04510582 0.084890164 -0.04206204
0000e0 9f 38 1f be 89 af 0a 3d 16 42 5d 3e 42 f9 65 be
       -0.15548943 0.03385881 0.21607241 -0.22458366
0000f0 a3 ce 75 3e 49 88 43 be 69 7b 16 3d ec a5 6d 3d
       0.24004607 -0.19094957 0.036738787 0.058019564
000100 e1 c2 40 bd 55 83 12 be 5d 33 8d 3b 9d d8 6d 3e
       -0.04706085 -0.14307912 0.0043091015 0.23227163
000110 58 eb 6d 3e e8 d2 a2 bc b5 ca cd 3b 7d 4b 8e bd
       0.23234308 -0.019875959 0.006280268 -0.06947992
000120 12 a5 72 3e 22 98 6c be da 95 4d be 4b 5c 26 be
       0.23695782 -0.23104909 -0.20076695 -0.16246144
000130 81 47 15 be b9 b0 15 be 7c 49 4c bd b7 a3 02 bc
       -0.14578058 -0.14618196 -0.049874768 -0.007973603
000140 f1 7a a1 bb ad d1 21 3d e3 85 34 3d 87 dd 2d 3e
       -0.004927986 0.039506603 0.044072997 0.16979037
000150 e5 9a 68 be 5e 77 3e 3e bd 43 18 be c5 82 03 3e
       -0.22715338 0.18600222 -0.1486959 0.12842853
000160 19 ba 62 be 7e 23 17 bd 78 6d 44 3e ab de 01 be
       -0.22141303 -0.036899082 0.19182384 -0.12682597
000170 91 c1 d4 3d 81 fe 56 3e ba 6e 13 3e 05 5d f3 bd
       0.10388482 0.20995523 0.14397708 -0.118829764
000180 d1 f0 05 3e 25 25 7f 3e 55 f8 c2 bc 6c 24 45 be
       0.13080145 0.24916513 -0.023800055 -0.19252175
000190 bb db 27 3c 21 88 92 bc 31 58 5a 3c 55 42 42 3e
       0.010245259 -0.017887177 0.0133266905 0.18970616
0001a0 7c be ff 3d 13 e5 5e be 1a 46 75 3e 76 b5 cf 3d
       0.12487504 -0.21767072 0.23952523 0.10142033
0001b0 ad 4a b1 bd 5b b5 65 bd 42 0a 5f 3c 9a 9a 65 be
       -0.086568214 -0.056081157 0.0136132855 -0.22422257
0001c0 c1 0c db 3c 85 38 4c 3e 75 86 61 3e e1 a4 a7 bd
       0.02673948 0.19943435 0.22023948 -0.08185745
0001d0 ed 46 c0 bd 47 4a 46 be 01 41 20 3e bc 64 c5 3d
       -0.09388528 -0.19364272 0.15649797 0.09638354
0001e0 26 89 a8 3d ed 8c 96 bd a9 e2 0a be 45 04 5a bc
       0.08229284 -0.07351098 -0.13563026 -0.013306682
0001f0 5c cd 62 3e 9b e5 22 3d ed 6e fa 3d a3 0d 55 3e
       0.22148651 0.03976975 0.12228189 0.20805983
000200 da 87 25 be b6 52 55 3e a4 e3 3f 3d 1a 83 61 3e
       -0.16165105 0.20832333 0.046847954 0.22022668
000210 be d2 82 bd 1a bf 08 be c4 b4 5c bd d8 63 d9 3d
       -0.06387852 -0.1335415 -0.05388333 0.10614747
000220 b1 55 77 3e fc c0 ad 3c 7a b2 38 bc bb 08 5c bd
       0.24153782 0.021210186 -0.011273021 -0.053719264
000230 3e 1e 75 3e 6b 98 25 be bc d4 a1 bd fa 53 0a be
       0.23937318 -0.16171424 -0.07901904 -0.13508597
000240 fd 7b d8 3d 19 f8 59 3e 18 b8 c8 bd 66 9e 5c be
       0.10570524 0.21286048 -0.09800738 -0.21544799
000250 81 5b 51 be 63 37 31 3e 5f 43 75 3b 6c b5 d8 bd
       -0.20445062 0.17306285 0.003742419 -0.105814785
000260 22 80 4e bd 1a b9 40 be 60 61 49 3e 99 2e cd 3d
       -0.050415166 -0.1882061 0.19666052 0.100186534
000270 9e 78 07 be 9a b5 7f be 50 ae e0 bd 8f ff 7f be
       -0.13229606 -0.24971619 -0.109707475 -0.24999832
000280 c6 aa 2f 3e c9 4e 8a 3d 06 c7 ca ba 0f 94 5b be
       0.17154989 0.06753308 -0.001547069 -0.21443199
000290 8c 26 15 be 0a 35 3a be bc 3d 7f be ab 83 14 3e
       -0.14565486 -0.18184295 -0.24925894 0.14503352
0002a0 f4 f7 d6 3d ac bd 92 3d e1 f8 43 3e c1 50 d2 bc
       0.10496512 0.07165083 0.19137909 -0.025673272
0002b0 af 14 59 3e a1 83 cd bd 22 d8 00 be 50 aa aa bd
       0.21199296 -0.10034872 -0.12582448 -0.08333266
0002c0 03 ce 91 3c be 3f 27 3d 14 1f fd 3d 86 f4 5b 3e
       0.01779843 0.040832274 0.12359443 0.21479997
0002d0 6c 2a d4 3d c4 54 d7 3c f8 58 a9 3d 20 65 47 be
       0.10359654 0.026285537 0.082689226 -0.1947217
0002e0 a2 04 57 3e bb 5c dc bc 1e e7 c0 bd 2a 67 93 3b
       0.20997861 -0.026899686 -0.09419082 0.004498382
0002f0 31 05 56 be 12 e3 77 be e1 c3 04 be 4d d5 74 be
       -0.20900418 -0.24207714 -0.12965347 -0.23909493
000300 55 ab df 3d 6a da 5a 3d 58 b7 cf bc 53 2e 28 3e
       0.10921351 0.053430952 -0.02535598 0.16423921
000310 47 75 b1 bd 82 3c 97 3d f6 75 47 bb 80 2b 3c bd
       -0.08664947 0.07384588 -0.00304353 -0.045939922
000320 98 30 28 3e 9b 86 6b 3e 7c 44 68 3e 46 b5 e0 bd
       0.16424787 0.23000567 0.22682375 -0.10972075
000330 c1 34 62 3e d0 c5 5c 3c 6d 2a 6b 3e 74 56 72 be
       0.22090437 0.013474897 0.22965403 -0.23665792
000340 1a 0b 6f be 27 ec f3 3d 7b ad cc 3d f2 af 16 be
       -0.23344079 0.11910277 0.09994026 -0.14715555
000350 a2 e6 f4 bd 11 02 ab bd 7c c4 f6 39 75 46 a6 3d
       -0.11958052 -0.083500035 0.0004706717 0.08118907
000360 13 30 f7 3c 3f 1d 7c be 0b d6 44 be a3 ab 40 3d
       0.03017429 -0.24620531 -0.19222276 0.047038686
000370 ea 6d e4 3d e1 f2 2b 3e 08 39 f3 bd 5d 85 14 be
       0.11153777 0.1679187 -0.11876112 -0.14503999
000380 b4 9e 2f 3e c8 e7 37 3c 81 16 9c 3d c4 88 5f bc
       0.17150384 0.011224695 0.0762148 -0.013643447
000390 76 c2 a6 bc f5 18 34 bd 3e 8d b0 bd 73 20 62 3e
       -0.020356398 -0.043969113 -0.0862069 0.22082691
0003a0 b4 17 f7 3d f4 39 60 be 57 7c b6 bd 46 3a 86 3d
       0.12065068 -0.21897107 -0.08910435 0.065540835
0003b0 ec 0b 85 bd 21 3f 1d 3e b9 9c 0f be ec 79 28 be
       -0.064964145 0.15356113 -0.14024629 -0.1645276
0003c0 bd c5 57 3e 21 17 70 3e c6 39 90 bd 54 4d 79 3e
       0.21071525 0.23446323 -0.070422694 0.24345905
0003d0 3f 51 6a 3e b2 b0 6b 3e 89 5d 17 3e a7 4f 48 bc
       0.22882555 0.23016623 0.14781775 -0.012226022
0003e0 13 44 a1 bd 7f 66 95 bd 14 6c 60 be c3 62 4f 3e
       -0.07874312 -0.0729494 -0.21916229 0.20252518
0003f0 fc 29 b4 bc 4b 2b 09 3e 98 fa 89 3d 7e 83 95 bd
       -0.021992676 0.13395421 0.0673725 -0.07300471

fc2.bias f4 [16]
000000 45 a7 9f bd 64 03 c2 3d 46 5a cd 3c 6c 07 1b 3e
       -0.07795576 0.09473303 0.02506746 0.1513955
000010 91 36 5e 3d 1e 93 3d be 0e c1 71 be fe 67 47 3c
       0.054251257 -0.18513152 -0.23608801 0.01217079
000020 51 fa 35 3e ee 9e be 3d e3 92 ef 3d 9e 41 38 be
       0.1777127 0.09307657 0.11697938 -0.17993781
000030 33 39 52 3e f4 91 7b 3d f9 73 0a be 99 cb 18 3e
       0.20529632 0.06141849 -0.13520803 0.14921416

fc3.weight f4 [16, 16]
000000 a1 d3 38 be 72 af 33 3e 8a 5c e0 bd 81 d1 37 be
       -0.1804948 0.17547396 -0.109551504 -0.17951013
000010 82 ca 7b be 75 5d d4 bd 79 3d 89 3d 48 e4 48 3e
       -0.2458897 -0.10369388 0.06701178 0.19618332
000020 02 86 8b bd ab 64 fb bb 4c 4a c4 bd 2c 95 b6 bd
       -0.06812669 -0.0076719127 -0.095844835 -0.08915171
000030 b0 48 54 bd 0b f1 a1 3d 19 27 d3 3c 12 66 45 bd
       -0.051827133 0.079073034 0.02577548 -0.048193045
000040 65 f1 25 be 9a dc 0f 3d 2a 59 d4 bd de f1 ec 3c
       -0.16205366 0.03512249 -0.10368569 0.028923925
000050 4e a6 8b ba 75 2b f5 3d 60 55 65 3e 3e db 30 3e
       -0.0010654421 0.119711794 0.22395849 0.17271134
000060 ed 6a 0d 3d d4 1a 21 be 56 6e ed bd f4 0a bb 3d
       0.0345258 -0.1573289 -0.115933105 0.091329485
000070 23 8b 1d 3e 9d 60 44 bb f4 d4 2c bd e7 62 66 3d
       0.15385108 -0.0029964813 -0.042195275 0.056246664
000080 88 9f 35 be 9a 08 2b 3e d1 3a 6d 3e ff a5 38 be
       -0.17736638 0.167025 0.23166968 -0.18032072
000090 85 ff 40 3e 7b 0a 64 be 08 2f a2 bd 61 0a 09 3d
       0.18847473 -0.22269623 -0.07919127 0.033457164
0000a0 3a c8 80 3e 7a 15 2f be c1 1e 5b 3e 1f 2e 03 3e
       0.2515276 -0.17098036 0.2139845 0.12810563
0000b0 9e 37 6e be a3 7a 43 3d 51 ea 76 be 9e 31 42 be
       -0.23263404 0.047724377 -0.24112822 -0.1896424
0000c0 b4 ef 67 be 38 d2 a3 3d 6e 87 8d bd b0 2b 07 3d
       -0.22650033 0.079990804 -0.06910597 0.033000648
0000d0 25 05 f1 bb 70 4b 76 3e fb b4 0e 3e 0c d7 43 be
       -0.0073553496 0.24052215 0.13936226 -0.19125003
0000e0 16 46 a3 bd b8 45 44 bd ce f8 bf bd ef 4b d3 bd
       -0.07972352 -0.04791805 -0.093736276 -0.103172176
0000f0 a5 03 7d 3d 68 48 82 3d a7 a3 45 3d fc 0b 9b bd
       0.061771054 0.06361467 0.048251774 -0.07570645
000100 ce 6f 42 3e d5 ce 4a be aa ce ce 3d a4 d9 27 3b
       0.18987963 -0.19805463 0.10098012 0.0025611902
000110 3c 4c 8f 3d 28 7e dc 3d d3 e1 49 3e b2 de e4 3b
       0.069969624 0.1076625 0.19715051 0.006984555
000120 b7 78 f0 bd af 91 3e 3e d8 9c ab bd 51 56 6f 3d
       -0.117417745 0.18610261 -0.08379525 0.058431927
000130 a0 19 b9 bc e0 4a 5d 3e 8f 0a 3c bd 96 c8 1f 3e
       -0.022595227 0.21610594 -0.045908507 0.15603861
000140 ab c8 ee 3a 5b 87 34 be 82 95 6f bd bf f2 a6 bc
       0.0018217763 -0.17629759 -0.05849219 -0.020379422
000150 3a 33 03 3e 31 ba 55 3e 32 21 5f 3e 90 ee 2a be
       0.1281251 0.20871808 0.21790007 -0.16692567
000160 64 99 51 3e 6e 02 7b 3e 40 29 1c bc ae 36 0a 3b
       0.2046867 0.24512646 -0.009531319 0.002108972
000170 27 02 4c be 71 9a 34 be da cb 56 3d 1f 09 da 3d
       -0.19922696 -0.1763704 0.0524405 0.10646271
000180 b0 a5 b5 3b 1c bf 0f 3e 95 80 73 be 6f cd 04 3e
       0.005543433 0.14037746 -0.23779519 0.12968992
000190 d5 a2 4c 3d 49 16 be bc 07 5b 1c be a7 86 69 3e
       0.049959976 -0.023203986 -0.15269099 0.22805272
0001a0 80 44 5e be c7 78 04 be 0b 52 80 be eb ca 7b bd
       -0.21705818 -0.12936698 -0.25062594 -0.061472815
0001b0 94 68 79 3e 4a 52 19 be d7 29 3a be 93 f3 0a 3d
       0.243563 -0.14972797 -0.18180023 0.033923697
0001c0 a5 6c 7c 3d fe 55 57 3e ae 31 df bd e9 ec 11 bd
       0.06162705 0.21028897 -0.108981475 -0.035626326
0001d0 f1 09 70 3e 81 49 2d 3e e4 45 3c 3e 1c 4c 1f be
       0.23441292 0.16922571 0.18386036 -0.15556377
0001e0 a5 74 6b be cf 0d c2 bd d3 02 67 3e be 75 0a bd
       -0.22993715 -0.0947529 0.22559671 -0.033803694
0001f0 4c 91 21 be 58 4f 53 3e dc be 96 bd 20 7e 92 3d
       -0.15778083 0.20635736 -0.07360622 0.07152963
000200 c5 96 47 3d 99 85 14 3d 6c cf 22 3e d5 40 9e bd
       0.04872777 0.03626022 0.15899438 -0.077272095
000210 0f 59 0d be 68 fc 68 be 62 f7 bf 3c c6 f8 db bd
       -0.13803504 -0.22752535 0.023433391 -0.10740809
000220 35 ce fa bd d1 00 52 3e a2 71 01 3e b4 aa cd 3d
       -0.12246362 0.20508124 0.12641004 0.10042325
000230 fa 6c 34 3e d5 c1 00 3e 61 c3 1f bd 37 e3 2a 3d
       0.17619696 0.12573941 -0.039004687 0.041720595
000240 7a c6 95 bc 69 18 ad 3d b6 c0 c0 bd 9a d5 1e 3e
       -0.018283118 0.084519215 -0.09411757 0.1551117
000250 0a 6f 65 3e d7 59 6c be d5 a1 ff bd 68 47 10 3e
       0.2240564 -0.23081146 -0.12482039 0.1408974
000260 88 47 52 bb f0 7e 9c bd 60 22 2d be bf 99 0b 3e
       -0.0032086093 -0.07641399 -0.16907644 0.13632868
000270 0e 3d 4c be a5 e6 b9 3d 7d c0 c3 3c 63 71 34 bc
       -0.19945166 0.09077195 0.023895497 -0.011013362
000280 4c 45 7b be 42 a8 8b 3d aa fe 5a 3d 77 bd 76 3e
       -0.24538153 0.06819202 0.053465523 0.24095713
000290 2e 64 50 be 33 3f b7 bb 69 61 c0 bd 09 59 62 bd
       -0.20350716 -0.0055922507 -0.093935795 -0.05526069
0002a0 f5 33 63 ba 57 d2 25 3e 9e ce 61 be f4 23 b1 bd
       -0.0008667105 0.1619352 -0.22051474 -0.08649436
0002b0 5b 83 3a be 0a a4 9b 3d 30 13 ae bd 03 66 6b 3e
       -0.1821417 0.07599647 -0.084997535 0.22988133
0002c0 0c 57 e7 3d 99 be 8f 3d 09 29 43 3e d0 4e 6d be
       0.112959 0.070187755 0.19058622 -0.23174596
0002d0 ef cb 05 be 5c b1 cc 3d 3b d4 6e 3e c8 85 60 be
       -0.13066076 0.09994766 0.23323147 -0.21926033
0002e0 b0 0d 54 3e 32 58 79 be 0e c5 37 bd ce b8 7c 3d
       0.20708346 -0.2435005 -0.04486566 0.06169968
0002f0 56 6a 88 bd 22 32 ff 3d 3b d0 dc bc 7c 78 5c be
       -0.06660907 0.12460734 -0.02695476 -0.21530336
000300 03 3a 1f 3e 76 4e 49 be 1f 74 2c 3e 24 d6 74 bd
       0.15549473 -0.19658837 0.16841172 -0.059774533
000310 b2 69 67 be e9 c7 5c be 4c a6 76 3e bd ff 85 bd
       -0.22598913 -0.21560635 0.24086875 -0.06542919
000320 23 73 63 be f2 78 82 be ed 97 48 3e 98 43 c1 3c
       -0.2221189 -0.254829 0.19589205 0.023591802
000330 89 77 25 3e 68 32 39 bd 6d 18 5c 3e cc 19 21 bd
       0.1615888 -0.045214087 0.21493693 -0.039331242
000340 1b 58 3b 3e ed a9 29 be fd 7a 71 3e 46 f5 e2 3c
       0.18295328 -0.16568728 0.23582073 0.027704846
000350 43 64 74 bd a9 d2 ae bc b2 fc 17 3e 25 6f e1 3c
       -0.05966593 -0.021340685 0.1484249 0.027518818
000360 78 2a 6b bd ff 56 4f bd 62 fb db 3d 65 0f 0a be
       -0.05741355 -0.050620075 0.10741307 -0.13482435
000370 73 7e 45 be 63 bf 7f 3e 76 96 ba bd e7 c7 36 3e
       -0.19286518 0.24975352 -0.091107294 0.17849694
000380 23 b7 31 3e 90 c8 53 3d 22 c5 bf bc b7 ee 28 bd
       0.17355017 0.051704943 -0.02340943 -0.04124328
000390 78 50 80 be bb 4c 0d be 79 4e a4 3d 39 73 e2 bd
       -0.25061393 -0.13798802 0.0802278 -0.11057133
0003a0 90 26 e0 bd 36 1a 82 3e 50 d3 02 be be cf 1e be
       -0.10944855 0.25410622 -0.12775922 -0.15508935
0003b0 52 fd 56 bd 3e 1f e9 bd e6 d2 1e 3e f6 27 28 be
       -0.05248768 -0.11382912 0.15510139 -0.16421494
0003c0 20 af 3b 3e c0 ea 36 3e 7a 1f c2 bc c9 0d 81 3e
       0.18328524 0.17862988 -0.02369665 0.2520583
0003d0 51 60 27 be 3c eb a3 3d e0 96 77 3e 5e ee a9 3c
       -0.16345336 0.08003852 0.24178648 0.020743545
0003e0 a3 c5 3a 3e a6 9f 93 3d 6d 3b a9 bd 49 44 eb bd
       0.18239455 0.07208185 -0.08263288 -0.11487634
0003f0 95 5a 56 3e d3 9a 02 be f5 15 67 be 7d df 54 3e
       0.20932992 -0.12754373 -0.2256697 0.20788379

fc3.bias f4 [16]
000000 03 9d 70 3d b0 d3 7d 3e 9c 54 56 3e f2 d5 83 3d
       0.058743488 0.24787784 0.20930713 0.06437291
000010 cc 94 0b be 00 51 04 3e e6 6f 59 be 98 80 6a 3e
       -0.1363098 0.12921524 -0.21234092 0.22900617
000020 cb 38 77 be 3d 7e 22 bd 50 55 18 3e 99 5a a8 bd
       -0.24142759 -0.03967117 0.14876294 -0.08220405
000030 ae 6f 85 3d 34 33 71 be 06 ea b6 3d d9 f1 9e 3d
       0.06515442 -0.23554689 0.08931355 0.077609725

fc4.weight f4 [16, 16]
000000 34 9c d9 bb 6b 24 4a 3e 07 87 48 bd 3c a0 a8 bd
       -0.0066409353 0.19740455 -0.048956897 -0.08233687
000010 8b cf aa bd 75 86 0b 3e bc a7 ca bd 5b 4a 62 3e
       -0.08340367 0.1362551 -0.09895274 0.22098677
000020 e9 dc f0 bd db 76 6f 3d 6c 0d 82 bd c4 b5 42 be
       -0.11760885 0.05846296 -0.06350216 -0.1901465
000030 84 b3 a7 bc cd 4b c0 3d a5 57 e8 bc 9d 57 f9 bd
       -0.020471342 0.09389458 -0.028362105 -0.12174914
000040 87 4d 37 3e d1 92 e0 bb 8c a8 17 3d f6 e9 42 be
       0.17900668 -0.0068534394 0.037025973 -0.19034562
000050 7f d5 6f 3e 62 87 4c 3e 5b 20 4c be af df 37 3e
       0.23421286 0.1997352 -0.19934218 0.17956422
000060 2e 18 6d 3d 96 a6 30 be 75 12 3b be ee 7a 59 be
       0.057884388 -0.17251047 -0.1826876 -0.212383
000070 90 64 5b be 38 ba 3d 3e d3 49 c7 bd f2 7d 04 3e
       -0.2142508 0.18528068 -0.09730878 0.1293867
000080 04 76 01 3e 5b 5c 11 be 18 c8 69 be e3 56 3e be
       0.12642676 -0.14195387 -0.22830236 -0.18587832
000090 e5 e6 d7 bd c1 c1 71 3e 16 81 2a 3e cb 96 6d be
       -0.105420865 0.23609067 0.16650805 -0.23202054
0000a0 1c 2b 69 be 13 f1 c8 3d 34 39 0e be 40 f6 3b 3d
       -0.22770351 0.09811606 -0.13889009 0.04588914
0000b0 a7 a6 13 be 11 2e 17 be 7d ac 34 3e f8 44 31 3e
       -0.14419042 -0.14763667 0.17643924 0.17311466
0000c0 e1 fc ef 3d 8e d4 24 3e 98 43 06 3e c0 75 46 be
       0.11718155 0.16096708 0.13111722 -0.19380856
0000d0 2b 6c db 3d a0 a3 8d bd 49 2d c3 3d e5 60 5e 3d
       0.10713991 -0.069159746 0.09530122 0.054291625
0000e0 68 24 30 3e 77 12 62 be cd ad 2f be 53 b2 85 3c
       0.17201388 -0.22077356 -0.17156143 0.016320383
0000f0 94 ba e6 3d 22 23 24 be 97 44 e0 bb 3f e0 db 3d
       0.11266056 -0.16029027 -0.006844114 0.10736131
000100 e8 46 02 be d5 dc 54 be 09 5f 95 bd 22 0e 1b 3e
       -0.12722361 -0.20787366 -0.07293517 0.1514211
000110 de 10 51 3e 10 c8 29 be 75 bb b2 bb ab 9f b7 3d
       0.2041659 -0.16580224 -0.0054544755 0.08966001
000120 be 6d 6e bd 8f 4b e2 bd 0f ea 07 3c 5b d6 28 3c
       -0.058210127 -0.11049568 0.00829555 0.010305013
000130 39 82 77 bd e3 d4 6d be 94 7d 0f be b0 1d f7 bd
       -0.060426924 -0.23225741 -0.14012748 -0.12066209
000140 65 14 03 3e 9b c1 30 3e 6b 32 11 be 67 96 ad bd
       0.12800749 0.17261355 -0.14179389 -0.084759526
000150 a5 a3 28 3e 05 ca 6a bd 71 3e 13 3d b2 0b 06 bd
       0.16468675 -0.057321567 0.03594822 -0.032725997
000160 b6 3f 25 bd 02 97 93 3d f7 9f 80 3d e4 cf 21 be
       -0.040343963 0.07206537 0.06280511 -0.1580196
000170 45 b6 09 3d 3f f3 3c be 3c a8 f0 bc 6d eb 6a be
       0.03362109 -0.18452166 -0.029377095 -0.2294137
000180 9c 85 06 3e 21 7a 73 be 88 04 28 be a0 16 15 3e
       0.13136905 -0.23777057 -0.16407979 0.14559412
000190 45 19 82 3c 7d af 38 be 7a 02 bc bc 2a bc 05 be
       0.01588119 -0.18035693 -0.0229504 -0.1306006
0001a0 18 39 34 be c8 64 53 be 69 e3 70 3d 4c da 94 bd
       -0.17599905 -0.20643914 0.058810625 -0.07268199
0001b0 8b d0 d8 bd c6 93 61 3d 50 4a 4b 3e 75 d4 6b 3e
       -0.105866514 0.05507257 0.19852567 0.23030265
0001c0 15 d3 78 3e 5e b3 46 be 3a 09 41 bd 5f 46 f1 3b
       0.24299271 -0.1940436 -0.04712794 0.007363125
0001d0 4e 72 da bd 6b 48 18 be 9a d2 45 3e 91 bd 0a 3e
       -0.10666333 -0.14871375 0.1931862 0.13548876
0001e0 5c 26 e7 3d ca 1f 94 bd fb 02 f0 bd b4 7b 3b 3e
       0.11286613 -0.07232626 -0.117193185 0.18308908
0001f0 cd a9 0f be ab f8 10 3e 69 9f 6b 3d 5d 46 5e 3e
       -0.14029618 0.1415736 0.057525072 0.21706529
000200 83 aa 9f bd 45 f5 7a be d8 80 a7 3b 98 5c 21 be
       -0.077961944 -0.24507625 0.005111795 -0.15757978
000210 61 a4 9f bd 13 ab 7a be 3f 8a 69 3e 12 32 6a be
       -0.07795025 -0.24479322 0.22806643 -0.22870663
000220 c0 0d 31 be 83 4d 70 3e 76 84 a1 bd e4 13 50 bd
       -0.17290401 0.23467068 -0.07886593 -0.05080022
000230 32 e5 4b bd 4a 97 8c 3d 21 29 0a 3e ca 7a c1 3c
       -0.049779125 0.068647936 0.13492252 0.02361812
000240 4e d6 7a be 58 c4 13 3e c7 a0 83 bc ae 98 5f be
       -0.24495813 0.14430368 -0.016067876 -0.21835586
000250 ef af 70 be 91 8d 6e 3d 57 82 14 3d 65 08 9c bd
       -0.23504613 0.058240477 0.036257114 -0.07618789
000260 e5 0d fc bd de 64 d9 bd 31 69 bc 3d 86 86 0b 3e
       -0.12307338 -0.10614942 0.09199751 0.13625535
000270 08 de 94 bc 1a 4f 83 bd bc f9 00 be 18 39 b3 bc
       -0.018172279 -0.06411572 -0.12595266 -0.02187781
000280 cf 73 12 be c4 53 3c be 45 35 7f 3d cc 12 15 3e
       -0.1430199 -0.18391329 0.06230666 0.14557952
000290 8d be 54 3d 86 ee 4f 3e 3a 71 42 be bc 36 3b be
       0.051939536 0.20305833 -0.18988505 -0.18282598
0002a0 35 f0 14 3e 17 75 c6 3c 66 df 83 bd bf a8 ab bc
       0.14544757 0.024225755 -0.06439094 -0.020954488
0002b0 7e 03 28 be d8 df 10 bd f3 5a 90 bd 43 5b 61 bc
       -0.16407582 -0.035369724 -0.07048597 -0.013754669
0002c0 dd 05 2f 3d c2 90 af 3d f5 41 3b 3e 74 9f 60 3e
       0.0427302 0.08572532 0.1828688 0.21935827
0002d0 37 df e0 3d 9f 1b a2 3c 5a 3b e8 bd b9 5e c3 3d
       0.10980075 0.019788561 -0.113394454 0.09539551
0002e0 a9 92 87 bc f6 83 20 bd c2 3f f0 3d 84 80 05 3e
       -0.016549425 -0.039188348 0.11730911 0.13037306
0002f0 21 a1 96 3d f1 70 10 3e b7 2d 9c 3c a2 47 15 3e
       0.07354952 0.14105584 0.019064767 0.14578107
000300 48 d1 29 be f6 f4 68 3e 23 00 7a bb cd 11 3a 3d
       -0.1658374 0.22749695 -0.0038147054 0.045427132
000310 24 3c 8b 3d cf 64 7d 3e d8 8b 20 3e c2 9b df bc
       0.0679858 0.24745487 0.15678346 -0.02729595
000320 d8 2a c7 3d 4b 78 50 bd 9e 48 62 3e 20 fd 13 bd
       0.09724969 -0.05089597 0.22098014 -0.03613007
000330 21 9f 2c be 39 2b 50 3d c5 72 76 be 2c a4 f8 3d
       -0.16857578 0.05082247 -0.24067219 0.12140688
000340 ca 5a 8b 3d a7 8a aa bd ea 6d 26 3e c3 2a f9 3c
       0.06804426 -0.08327227 0.16252866 0.030415898
000350 e6 25 1a 3e 95 3f 3e 3e 69 11 ff bd ef 49 18 be
       0.1505352 0.18578942 -0.124544926 -0.14871953
000360 70 6a 1e 3e ee 0e 50 be a0 1a 05 3e e1 08 80 3d
       0.1547029 -0.20318195 0.12998438 0.062516935
000370 fe 40 1b 3e b4 49 3a be ef 76 30 3e 47 c9 e3 3d
       0.15161511 -0.18192178 0.1723287 0.11122375
000380 1a 9b 1a 3e 32 4f 66 be 3b 0a 0e be 73 a6 2b 3e
       0.15098229 -0.22491148 -0.1387109 0.16762714
000390 7b 34 7c be c1 16 88 3d 40 a7 dd 3d 16 b5 72 bd
       -0.24629395 0.06644965 0.10822916 -0.05925473
0003a0 29 f3 38 be ae 17 07 be 36 3e 41 3e 23 13 bc bb
       -0.18061508 -0.13192627 0.18871388 -0.005739586
0003b0 c7 9d 78 be 52 c2 0e be 14 14 50 3e 82 fb 62 be
       -0.24278937 -0.13941315 0.20320159 -0.22166255
0003c0 a2 c6 63 be af 78 da 3d 6d cc 1a be af 14 7b 3e
       -0.22243741 0.1066755 -0.15117045 0.24519609
0003d0 89 0d 92 bc 84 e9 0f 3e 44 2b 07 3e c9 0b 68 3e
       -0.01782872 0.14053923 0.13200098 0.22660746
0003e0 fd 49 1d be 0f ea 8a bd ce 30 29 be ec 9a 4f be
       -0.15360256 -0.067829244 -0.16522524 -0.20273942
0003f0 3f d0 f2 3d 33 80 f3 3c 57 8a 96 3c e5 a0 12 be
       0.11856126 0.029724216 0.018376512 -0.14319189

fc4.bias f4 [16]
000000 ac dd 13 be af 9b b4 3d 00 57 72 3c 77 b3 ed 3b
       -0.1444003 0.08818757 0.01479125 0.00725406
000010 eb d0 27 3e 35 3b 08 3e 8e 2a 93 bc 0a 39 0d bd
       0.1638829 0.13303836 -0.017964628 -0.034478225
000020 3c 52 4d 3e c2 f4 27 3e 72 de 72 be 2d bb 52 3e
       0.20050901 0.16401961 -0.23717669 0.20579214
000030 64 55 3e 3e 44 c3 77 3e ec 57 10 3e c7 c0 0b 3e
       0.18587261 0.24195582 0.1409604 0.13647757

fc5.weight f4 [16, 16]
000000 f2 d7 7f 3d b8 c8 07 bd 62 ab 0b 3e 00 9b b8 bd
       0.0624618 -0.033150405 0.13639596 -0.09013939
000010 84 50 10 3e 98 f2 d1 3c 9c bc 11 be 49 d8 c3 bc
       0.14093214 0.025628373 -0.14232105 -0.023906844
000020 ce b4 13 be 2b 0f ba 3d 73 0d e9 3d b6 70 e7 bd
       -0.1442444 0.09084924 0.11379518 -0.11300795
000030 6e fe b9 bd 5f bb 95 bc ba 22 e8 bd 81 80 e0 3d
       -0.09081732 -0.018277822 -0.113347486 0.1096201
000040 c8 02 1b 3e ba bb 21 3e 74 dd 75 3e 48 3f 0e 3e
       0.1513778 0.15794268 0.24010259 0.13891327
000050 fe 1a fd bd 43 57 32 bc 8e e3 62 3e d7 4e 50 bd
       -0.12358664 -0.010885063 0.22157118 -0.050856438
000060 16 98 13 be c1 15 27 bd 4e f3 36 3e 02 0e 95 bd
       -0.14413485 -0.04079223 0.17866251 -0.072780624
000070 9a e8 12 be db 23 0b bc 44 6c 47 be c0 24 7f be
       -0.14346543 -0.008492435 -0.19474894 -0.24916363
000080 e2 91 7a 3e 23 08 24 be 1b b0 6d 3c 82 ef 29 be
       0.24469712 -0.16018729 0.014507319 -0.16595271
000090 12 c3 78 3d 6e 95 da 3d 5e 46 7e 3e 1a c8 1f bc
       0.06073291 0.10673033 0.2483153 -0.009752298
0000a0 d9 2d 01 be ad 06 ea 3a fb bd e2 bd 4a cf 61 be
       -0.12615146 0.0017854773 -0.11071392 -0.22051731
0000b0 51 28 60 3e 8b cd 56 3e c9 ef 6b be db cb 49 be
       0.2189038 0.20976846 -0.2304069 -0.19706671
0000c0 4e cb 2d 3e b9 6e 7e be 2b 09 22 bd bf 7c 34 bd
       0.16972086 -0.24846925 -0.039559525 -0.04406428
0000d0 1c d1 31 3e c1 da 74 3e 61 23 40 3e 6c 17 81 bc
       0.17364925 0.23911573 0.18763496 -0.015758239
0000e0 d0 61 1e be 0c 01 25 3e fe a0 39 3e 0d 5f ff 3d
       -0.15467 0.1611368 0.1812782 0.124693014
0000f0 c6 3f 41 3e 53 51 48 3c c3 2b 59 3e a1 ca 4d 3e
       0.18871984 0.01222642 0.212081 0.20096828
000100 cf 36 68 bd d7 aa c8 3d 50 83 90 bd c3 d1 4e 3e
       -0.056692895 0.0979821 -0.07056296 0.20197205
000110 24 52 5f be 42 35 4e 3e 17 58 6a 3e 76 e3 3c be
       -0.21808678 0.20137504 0.22885166 -0.18446144
000120 f3 f6 85 bd c1 22 31 3e e3 2b 29 3e 67 2f 15 be
       -0.065412425 0.17298414 0.16520648 -0.14568864
000130 dc 3c 02 3e 69 c0 49 3e aa bf 5c 3d 22 f6 ef bd
       0.12718529 0.19702305 0.053893723 -0.11716868
000140 3e b8 1b 3e e5 0e 43 3e 8a e8 0b 3e 7a 7d 1c be
       0.15207002 0.1904865 0.13662925 -0.1528224
000150 ff 87 55 be 41 a4 8e 3c 51 88 b6 3d b3 49 43 3e
       -0.2085266 0.017412307 0.08912719 0.19071083
000160 62 b2 1e 3d 39 57 5d 3e e9 35 58 3e 2e 1a d6 3d
       0.038744338 0.21615304 0.21114315 0.10454212
000170 a1 f0 b2 bd 5b 76 46 3e a9 9f 77 bd c5 8f dd 3d
       -0.087373026 0.19381087 -0.060455 0.108184375
000180 bb cf 70 3d 18 8c 11 3e 82 af 30 be ee 8c c2 bd
       0.058791857 0.14213598 -0.17254451 -0.094995365
000190 44 b9 32 3e 24 6b 8f bd 96 f9 33 3d d6 b7 71 bd
       0.17453486 -0.07002857 0.043939196 -0.05901321
0001a0 2c 6b 75 3e a9 9d 47 be 56 68 e9 bd 86 59 57 3e
       0.23966664 -0.19493736 -0.113968536 0.21030244
0001b0 ff fc 78 be 72 fd 3e 3e c8 cf 94 3d 85 79 67 be
       -0.2431526 0.18651369 0.07266194 -0.2260495
0001c0 e8 f5 a2 3d ce 2c b1 3d 46 03 fc 3d a8 51 a7 3d
       0.07957059 0.08651124 0.12305312 0.081698716
0001d0 92 d1 69 3e d2 f1 2e 3e 75 9f 0e be 21 46 89 bd
       0.22833851 0.17084435 -0.13928016 -0.06702829
0001e0 20 30 3d 3e 13 29 70 3e a3 7d 9e bd 92 97 ab bd
       0.1847539 0.23453169 -0.07738807 -0.08378519
0001f0 21 27 dc 3c fd 39 a5 bc 34 60 99 bd 46 6e b2 bd
       0.026874127 -0.020169253 -0.074890524 -0.08712439
000200 73 47 1f 3e c2 2f a3 3d 21 45 32 be 29 4e c8 bd
       0.155546 0.079680935 -0.17409183 -0.09780533
000210 9b ae 71 be 40 06 2b be 22 2c 53 3e 93 ea e5 bc
       -0.23601763 -0.16701603 0.20622304 -0.028065955
000220 f5 b5 b1 bb ed 2c 21 be b4 03 6a bb d0 5a 37 3e
       -0.0054233023 -0.15739794 -0.0035707774 0.17905736
000230 5a c4 44 bc 09 79 2b 3e b8 fe 79 3e 09 d2 68 bd
       -0.0120097045 0.1674539 0.24413574 -0.05684093
000240 ec 2a 5a 3e 83 80 5c be de ac 1b be 51 79 42 bc
       0.21305436 -0.21533398 -0.15202662 -0.011869744
000250 73 62 08 3e 1a 55 58 be 7e bb 67 3e 5c 86 d6 bd
       0.13318805 -0.21126214 0.22630116 -0.10474846
000260 1b 62 33 3d fd 1e 72 3e ce 35 49 3b ff e5 2b be
       0.043794733 0.23644634 0.0030702236 -0.16786955
000270 7c 73 2c 3e 8b 39 6f 3e 6e 8b 45 be 2b 30 50 be
       0.16840929 0.23361795 -0.1929147 -0.20330875
000280 93 38 3f be 21 6a 1e be e1 70 62 be f4 84 4f 3e
       -0.18673925 -0.15470172 -0.22113372 0.20265561
000290 4e e4 3c be 5d 26 8d bd 1a 71 b5 bd ca e0 c0 3d
       -0.18446466 -0.06892083 -0.08859463 0.09417875
0002a0 66 ca df bb 2e 21 6b be 13 9e f8 3b d0 47 a4 3d
       -0.0068295477 -0.22961876 0.0075872033 0.0802151
0002b0 48 4c 5b 3e 07 5f 52 be 1f 5c 74 be 05 e9 7b bd
       0.21415818 -0.20544063 -0.23863266 -0.06150152
0002c0 7b 84 d1 3d e8 dc 80 3d da 25 15 be d9 95 8b 3d
       0.10230347 0.062921345 -0.1456522 0.068156905
0002d0 05 44 41 3e 76 98 33 3e d8 e8 ba 3c a5 ae 7c 3c
       0.18873604 0.17538628 0.022816107 0.015422498
0002e0 23 a5 3a 3d 96 f1 4a 3e b8 ff 04 3d 3f d1 39 3e
       0.045567643 0.1981872 0.032470435 0.18146227
0002f0 94 95 4b be 37 8c 90 3c 4e 32 da 3c 31 66 01 bd
       -0.19881278 0.017644985 0.026635315 -0.031591598
000300 b4 09 ab 3c e7 94 82 be f7 83 17 3e 65 94 b2 3d
       0.02087865 -0.25504228 0.14796434 0.0871971
000310 0e 8a 3f bd d2 c7 2c 3e 3b 20 dd bd 15 34 02 3e
       -0.04676252 0.168731 -0.10797163 0.1271518
000320 b6 8c b8 3d d5 6e 84 bd 64 85 12 bd c7 4f 42 be
       0.090112135 -0.06466452 -0.035771742 -0.18975745
000330 69 64 0a bd d2 37 b5 bd 76 cf c6 bd de 6e 83 bd
       -0.033787165 -0.088485375 -0.09707539 -0.064176306
000340 9f f3 2c bd 02 72 57 3c 6b 96 47 3e d6 e2 15 3e
       -0.042224523 0.01314974 0.19490974 0.14637312
000350 94 25 4c 3e 54 b7 7f 3d 89 fd 78 3e a0 49 ad 3d
       0.1993621 0.062430695 0.24315466 0.084613085
000360 42 0b 6f 3d 8b 01 18 3e 4b 86 88 3d 03 cf 08 be
       0.058360346 0.14844339 0.06666239 -0.13360219
000370 9e a4 62 3e db c9 10 be 50 be 76 be 83 f9 15 be
       0.22133109 -0.14139502 -0.24096036 -0.14645962
000380 fc 75 61 3e e1 cf 75 3e 3e 44 83 3c a3 68 da bd
       0.22017664 0.24005081 0.016023751 -0.10664489
000390 40 0a 1a 3c 5c 4d 3d 3e a6 41 c3 3d 8f 2f 0b 3e
       0.009401858 0.18486542 0.09534006 0.13592361
0003a0 dc 61 4d be 52 0d e8 bd 83 11 17 bd f8 7b 18 be
       -0.20056862 -0.11330666 -0.036881935 -0.1489104
0003b0 35 e8 cc bc 93 96 59 3d fd 07 e9 3d 9e bb 1f be
       -0.025013069 0.053122114 0.11378477 -0.15598914
0003c0 b3 3e 81 3e 2e d9 24 be 97 91 dc 3d 9d 04 e6 3d
       0.25243148 -0.16098472 0.107699566 0.11231349
0003d0 f7 74 56 3e 7f 67 c2 bd e0 94 07 be a5 b9 d1 3d
       0.20943056 -0.094923966 -0.13240385 0.10240487
0003e0 b6 52 ce b9 4f d3 50 3e cf ea 5c bd 51 71 c9 3b
       -0.00039353006 0.20393108 -0.05393487 0.0061475416
0003f0 a8 35 1a be bb e6 27 be 7a d6 aa 3d 7d a9 56 be
       -0.1505953 -0.1639661 0.083416894 -0.20963092

fc5.bias f4 [16]
000000 09 91 77 3e 35 4a f9 3d 88 e9 a6 bd df 42 d9 3d
       0.2417642 0.12172357 -0.08150011 0.10608458
000010 79 f4 50 3e 15 3f 4b be 32 df 67 be d7 91 8c bd
       0.20405759 -0.19848283 -0.22643736 -0.06863754
000020 70 1a 52 3e 61 3f 78 3e 60 7f 59 be e1 c8 16 3e
       0.20517898 0.24242927 -0.21239996 0.14725067
000030 a7 f0 74 3e 7e da 5b 3d 3e 81 52 be ee 71 38 be
       0.23919927 0.053675167 -0.20557114 -0.1801221

fc6.weight f4 [16, 16]
000000 e8 08 4c 3d 7b d7 15 be e3 12 42 3e c8 4f 3f be
       0.04981318 -0.1463298 0.18952517 -0.18682778
000010 74 e3 04 3e 7e 0e 89 bd aa fb 9b 3d ea 72 80 be
       0.12977391 -0.06692217 0.076163605 -0.25087672
000020 72 60 98 3b d7 54 3f be 2e 3a a3 bd 8d 44 83 bd
       0.004650169 -0.18684708 -0.07970081 -0.064095594
000030 e0 9a 41 be 41 7a 5a bd 93 c0 59 3e 1b 26 6e 3e
       -0.18906736 -0.053339247 0.21264867 0.23256724
000040 10 8b 1c 3e bc 49 e7 3d cf a3 ad 3d 2f 69 77 3e
       0.15287423 0.112933606 0.0847851 0.24161218
000050 90 f1 4f 3e a7 c7 56 3e 08 1f 3d be 49 58 58 3d
       0.20306993 0.20974599 -0.18468869 0.05281857
000060 9a c7 1d 3e 74 c9 5e 3e 15 43 21 be 4c 52 77 be
       0.15408173 0.21756536 -0.15748246 -0.24152488
000070 0e ff 58 be 6c 09 17 3d ee c0 b8 bd 83 c4 67 be
       -0.21191046 0.03687422 -0.090211734 -0.22633557
000080 00 d2 86 bd f1 87 e7 3d 96 ce 17 be b0 4a ef 3c
       -0.06583023 0.11305226 -0.148249 0.029210418
000090 98 d2 b5 3c 1d db bf bd 9d 47 17 be 7b ed b6 3d
       0.022195145 -0.093679644 -0.14773412 0.089320146
0000a0 61 6d 32 be 32 4d 3d be b7 97 a4 bd a5 7c 66 be
       -0.17424537 -0.18486479 -0.0803675 -0.22508486
0000b0 bb 3e 75 3e 17 32 28 3e 57 d0 6b 3e 6b 86 30 3e
       0.23949711 0.16425358 0.23028694 0.17238776
0000c0 b9 ea a0 bd e1 8d f1 bd 50 f9 9c 3d a5 54 b2 3d
       -0.0785727 -0.117946394 0.0766474 0.08707551
0000d0 a0 7f 41 3e 17 b6 57 3e c4 66 3f be 1c b3 e0 bc
       0.18896341 0.21065556 -0.18691546 -0.027429156
0000e0 51 b4 8c 3c 90 c9 9e 3d 44 dd a3 bd a2 11 52 3e
       0.017175825 0.07753289 -0.080011874 0.20514539
0000f0 22 23 18 be 15 58 9c bd c6 ab 9f 3d a3 1d 62 3e
       -0.14857152 -0.07633988 0.07796435 0.22081618
000100 96 3e b3 bd 04 cd 20 be 93 03 12 3d e8 5f f7 bb
       -0.08752172 -0.15703207 0.03564794 -0.0075492747
000110 64 d4 6a 3d 80 4d 53 bd c0 76 3c 3c d0 ed 80 be
       0.057331458 -0.05158758 0.011502922 -0.25181437
000120 c1 ba 03 bc 5e b0 57 3d 3d aa 00 3e 2d e2 71 3e
       -0.008040131 0.05265843 0.12564941 0.23621435
000130 e9 ab 3f be a7 ab ac bd 76 e8 7d 3e 29 1c 9e 3d
       -0.18717922 -0.084311776 0.24795708 0.07720215
000140 68 8f 48 be be d5 0e be e6 db 02 be c9 e7 31 3e
       -0.19585955 -0.13948724 -0.12779197 0.17373575
000150 28 93 63 3e 3b 92 7d 3d b9 46 b2 3c e0 c9 68 3e
       0.22224104 0.061907034 0.021762239 0.22733259
000160 5d b8 3b be 72 e8 ec bd dd d4 18 be 58 dd 4b 3e
       -0.18332048 -0.11567773 -0.14924951 0.19908655
000170 fe 3f 4b 3e 81 fc 87 3d 36 eb fa 3d 84 de 24 bd
       0.1984863 0.06639958 0.12251894 -0.04025127
000180 8f 8d 0c 3e e3 9c 4d be 95 eb f3 bd 40 3b b7 bd
       0.13725875 -0.20079379 -0.11910168 -0.08946848
000190 ad 04 64 3e 0f d7 c8 bd 39 e2 0b 3e 8d 9f 42 be
       0.22267409 -0.09806644 0.13660516 -0.19006176
0001a0 ad 45 1c be 3a f9 dc bc 5c 4a dc bd ee 74 1f bc
       -0.15260954 -0.02697431 -0.107563704 -0.009732468
0001b0 1b d9 2c 3e fa 40 de 3d b2 aa 60 be 3e b4 42 bd
       0.16879694 0.10852237 -0.21940115 -0.047535174
0001c0 18 a6 c3 b9 8c c2 72 be 22 69 3d 3d ff 18 7c 3e
       -0.00037317048 -0.23707026 0.04624284 0.2461891
0001d0 a7 76 61 be ac 68 04 3e be f8 9e bd cf 55 99 bc
       -0.22017919 0.12930554 -0.077622876 -0.018717675
0001e0 48 ed 50 3e 63 65 fd bd f9 91 47 be 02 51 38 3e
       0.20403016 -0.123728536 -0.19489278 0.17999652
0001f0 2d 86 2d be 0d 40 13 be 76 3b 39 be ff 6e 5d 3e
       -0.16945715 -0.14379902 -0.18089089 0.21624373
000200 32 7e 4a 3d fa fe a2 bd 90 27 26 3e e5 49 81 3e
       0.049436755 -0.07958789 0.1622603 0.2525169
000210 94 9a 2d be 2e f3 93 3c 8b fc 39 3d 72 ad 50 3e
       -0.16953498 0.018060293 0.04540686 0.20378664
000220 b7 e3 19 be f6 13 7c 3e 99 d0 7a be c4 3e 63 3d
       -0.15028273 0.2461699 -0.24493636 0.05547978
000230 fe c5 67 bd 5e df 77 be 4b f7 20 3c 4c 48 1b be
       -0.056585304 -0.24206302 0.009824584 -0.15164298
000240 e3 91 71 3e 55 87 fe 3d 85 d4 98 bd 20 6e 7d 3d
       0.23590808 0.12428156 -0.0746241 0.0618726
000250 ff 8f f3 3d 9a 81 8b bd a9 00 9b bd d8 f2 e4 3d
       0.118926995 -0.06811829 -0.07568485 0.11179131
000260 09 74 d9 3d 57 0d 21 3e 25 c1 20 3e 16 c9 9b 3d
       0.10617835 0.15727745 0.15698679 0.076067135
000270 a0 68 47 3d 9c 1a 60 be c7 ca 62 3e 40 e4 18 be
       0.048683763 -0.2188515 0.22147666 -0.1493082
000280 d4 2b 09 3e 12 25 28 3d b8 0e 0b be fa a6 17 be
       0.13395625 0.041050978 -0.13579834 -0.1480979
000290 a2 87 10 3e bd aa 65 3d be d2 4e be 22 d2 06 bd
       0.1411424 0.05607103 -0.2019758 -0.032915242
0002a0 63 75 9b bd 21 58 7d be c4 2e eb 3d 89 7e 76 3d
       -0.07590749 -0.2474065 0.11483529 0.060179267
0002b0 de 9d 4b be 4d 38 5f 3d 10 95 39 3e 99 cb cc 3d
       -0.1988444 0.054497052 0.18123269 0.09999771
0002c0 05 74 76 3e f8 3c 5f be 41 01 29 3e 10 87 04 3e
       0.24067695 -0.21800601 0.16504385 0.12942147
0002d0 46 b6 5c be c1 85 02 3c 5b c0 07 3c 7f 14 2a bd
       -0.21553907 0.00796646 0.008285607 -0.041523453
0002e0 26 4a 51 be 14 5a 4d 3e 90 62 6d be dc c4 6c 3d
       -0.20438442 0.20053893 -0.2318213 0.057804927
0002f0 c3 05 c4 bd 46 9c 29 3e 8f fd f3 3d 64 ca 54 be
       -0.095714115 0.1656352 0.11913597 -0.20780331
000300 3b 92 e1 3d 1d f6 4d be e7 f4 1b be 3f 44 e1 bd
       0.110142194 -0.20113416 -0.15230142 -0.10999345
000310 29 03 44 be 09 1a 58 3e e3 70 7c 3e a7 e4 2e bd
       -0.1914183 0.21103682 0.24652438 -0.04269853
000320 90 19 72 be 0c ab cb bd 2b 01 5b 3c 3d 37 61 be
       -0.23642564 -0.09944734 0.013366978 -0.21993728
000330 8f a1 0f be 80 c4 ae 3d e7 0e 89 3d 45 43 7d 3e
       -0.14026473 0.08533573 0.066922955 0.24732693
000340 a4 8a e1 bd c7 7a f5 bd ab 0e 36 bc 78 d4 62 be
       -0.11012772 -0.119863085 -0.011111896 -0.22151363
000350 33 63 3e 3e 3a 3b 0e be 07 07 08 3e ac 0c 42 3e
       0.18592529 -0.1388978 0.1328393 0.18950146
000360 14 98 71 be 68 19 37 3e a1 46 b7 3d 74 32 9f bd
       -0.2359317 0.17880785 0.08949018 -0.07773295
000370 cb 0d 84 bd 49 69 80 3e ee cb 2e be 83 f1 06 3e
       -0.06447943 0.25080326 -0.1706998 0.13178067
000380 26 94 22 3e ae 4f 9d bd 16 f5 93 bd a4 ab 69 be
       0.15876827 -0.07681213 -0.07224481 -0.22819382
000390 8e 05 db ba 00 3c 03 be e1 cc 3e 3e 7d 66 e3 bd
       -0.001671003 -0.12815857 0.18632843 -0.111035325
0003a0 19 83 d3 3b 96 1b 1b be 1d ce f0 3d fd 95 02 be
       0.006454837 -0.15147242 0.11758063 -0.12752528
0003b0 16 69 72 bd 38 fd 6f 3e 6f 50 12 3d 8a 0b b2 bc
       -0.05918225 0.23436439 0.03572124 -0.021734018
0003c0 4c 5f 11 be 4d 1c 74 be 5f 8f 7f 3e cb 9e 68 3e
       -0.14196509 -0.23838921 0.24957035 0.22716825
0003d0 d6 be f7 3d 80 58 70 be 2f f4 44 be 3a 98 39 3c
       0.12096946 -0.2347126 -0.19233774 0.011327798
0003e0 af 20 20 bd b5 05 32 be a8 33 aa bb dd 20 58 be
       -0.03909367 -0.1738499 -0.005194146 -0.21106286
0003f0 a5 13 bd 3d 84 20 66 bc ea aa 2e 3d 9d 18 53 3e
       0.092322625 -0.014045838 0.042643465 0.20614858

fc6.bias f4 [16]
000000 83 c5 38 3e eb 12 5c be ce 3c 58 3d 53 40 de bd
       0.18044095 -0.21491592 0.052792363 -0.108521126
000010 68 d0 22 be ad 17 4a bc 39 17 63 be a8 53 4f be
       -0.15899813 -0.012334746 -0.22176827 -0.20246756
000020 65 f4 04 be ec 45 a2 bd 6e 45 0d 3e b2 16 6e be
       -0.12983854 -0.07923493 0.13796017 -0.23250845
000030 16 f9 97 bd c0 b1 f6 3d 6a 0c 5c be f5 64 14 bd
       -0.07420556 0.12045622 -0.2148911 -0.036229093

fc_out.weight f4 [1, 16]
000000 f4 1a aa 3c 87 7f 1b 3e 86 b2 fe 3b e7 53 13 3d
       0.020764805 0.15185367 0.0077727465 0.035968687
000010 b2 f0 65 3e d2 de 66 3e 2c 00 74 bd 1c 1e c9 3c
       0.22455099 0.22545937 -0.059570476 0.02455049
000020 30 53 ca 3d 0a c2 76 3e b6 e7 27 be 21 44 c4 3d
       0.09879148 0.24097458 -0.16396984 0.09583307
000030 2d f7 00 3e 51 64 1f be 73 f7 e3 3d 56 2d 72 be
       0.1259429 -0.15565611 0.111311816 -0.23650107

bn.weight f4 [16]
000000 00 00 80 3f 00 00 80 3f 00 00 80 3f 00 00 80 3f
       1.0 1.0 1.0 1.0
000010 00 00 80 3f 00 00 80 3f 00 00 80 3f 00 00 80 3f
       1.0 1.0 1.0 1.0
000020 00 00 80 3f 00 00 80 3f 00 00 80 3f 00 00 80 3f
       1.0 1.0 1.0 1.0
000030 00 00 80 3f 00 00 80 3f 00 00 80 3f 00 00 80 3f
       1.0 1.0 1.0 1.0

bn.bias f4 [16]
000000 00 00 00 00 00 00 00 00 00 00 00 00 00 00 00 00
       0.0 0.0 0.0 0.0
000010 00 00 00 00 00 00 00 00 00 00 00 00 00 00 00 00
       0.0 0.0 0.0 0.0
000020 00 00 00 00 00 00 00 00 00 00 00 00 00 00 00 00
       0.0 0.0 0.0 0.0
000030 00 00 00 00 00 00 00 00 00 00 00 00 00 00 00 00
       0.0 0.0 0.0 0.0

bn.running_mean f4 [16]
000000 00 00 00 00 00 00 00 00 00 00 00 00 00 00 00 00
       0.0 0.0 0.0 0.0
000010 00 00 00 00 00 00 00 00 00 00 00 00 00 00 00 00
       0.0 0.0 0.0 0.0
000020 00 00 00 00 00 00 00 00 00 00 00 00 00 00 00 00
       0.0 0.0 0.0 0.0
000030 00 00 00 00 00 00 00 00 00 00 00 00 00 00 00 00
       0.0 0.0 0.0 0.0

bn.running_var f4 [16]
000000 00 00 80 3f 00 00 80 3f 00 00 80 3f 00 00 80 3f
       1.0 1.0 1.0 1.0
000010 00 00 80 3f 00 00 80 3f 00 00 80 3f 00 00 80 3f
       1.0 1.0 1.0 1.0
000020 00 00 80 3f 00 00 80 3f 00 00 80 3f 00 00 80 3f
       1.0 1.0 1.0 1.0
000030 00 00 80 3f 00 00 80 3f 00 00 80 3f 00 00 80 3f
       1.0 1.0 1.0 1.0
