self_avoidance_gym/pth/critic.pth (torch, 181914 bytes, 29 tensors)

mean f4 [24]
00000000: 0000 0000 0000 0000 0000 0000 0000 0000
00000010: 0000 0000 0000 0000 0000 0000 0000 0000
00000020: 0000 0000 0000 0000 0000 0000 0000 0000
00000030: 0000 0000 0000 0000 0000 0000 0000 0000
00000040: 0000 0000 0000 0000 0000 0000 0000 0000
00000050: 0000 0000 0000 0000 0000 0000 0000 0000
0.0 0.0 0.0 0.0 0.0 0.0 0.0 0.0
0.0 0.0 0.0 0.0 0.0 0.0 0.0 0.0
0.0 0.0 0.0 0.0 0.0 0.0 0.0 0.0

std f4 [24]
00000000: 0000 803f 0000 803f 0000 803f 0000 803f
00000010: 0000 803f 0000 803f 0000 803f 0000 803f
00000020: 0000 803f 0000 803f 0000 803f 0000 803f
00000030: 0000 803f 0000 803f 0000 803f 0000 803f
00000040: 0000 803f 0000 803f 0000 803f 0000 803f
00000050: 0000 803f 0000 803f 0000 803f 0000 803f
1.0 1.0 1.0 1.0 1.0 1.0 1.0 1.0
1.0 1.0 1.0 1.0 1.0 1.0 1.0 1.0
1.0 1.0 1.0 1.0 1.0 1.0 1.0 1.0

fc1.weight f4 [64, 24]
00000000: 1ac8 82bd 17eb 513e 58c1 fcbc 18f9 8d3e
00000010: eed3 f63c 82ea c93d 2dd2 50bd 01ad bcbc
00000020: fb2e eabd 1821 12bd 7c02 413e b25f ce3c
00000030: c296 7a3d 20ba f23b 10e5 363e 46db 97bc
00000040: 2c71 b73d 683b cfbd 7e2e 86bd 1c51 843e
00000050: 8f6c e2bd ba01 a43e 0607 95bd 4c2c 6c3e
00000060: b486 94bc 7ea0 6d3d 0ecb 713d 1d8e a1be
00000070: 56e5 6e3b 2e5b 2cbc a6c4 5cbe d806 e63d
00000080: f303 1abe b21d cd3c 7481 78bd 3540 3bbd
00000090: 58af 063e 6e9c eebd b8e8 bd3d 90f0 0f3e
000000a0: 6167 28be 3f4e 5ebe 2ae7 c1bd 791e cabd
000000b0: 1f69 253e e9e7 1cbe 7a08 eabd 3ac7 c0bc
000000c0: 4d03 843d 5fef 12be 837a 903d a2b0 203e
000000d0: d43e d43d 8d4a 2a3e 29ed b8bc 7e25 cabd
000000e0: eb85 c13d 961c 9cbd 61a5 9a3e b83d 603d
000000f0: 44f9 84bb 188c b13d 20da 263c e15a e63d
00000100: 09ab a03d 23bc 2c3e 9b7f a73d f2b7 46be
00000110: c6e2 2abe c27f b93e 2a0e 073e 272b 353e
00000120: 65ec e6bd 691b f83d 6e8d 793d 1993 1b3e
00000130: 953b 15be b5ef 24be 357b d5bd 9b53 88bd
00000140: 8848 e53d 42b3 59be 7a90 b03e 2f61 c43d
00000150: 6686 80be f309 1b3e 2570 4bbe 1cc0 b63c
00000160: 061d c3bd c76a 983d 482f fe3d ca32 76be
00000170: d47b 523d ac59 a33c 303e 243e b78d 893e
00000180: b10c 143e 63a0 2fbe f545 5abe 3715 263e
00000190: e53c 163e e3a8 a3bd 832c e63d f515 07be
000001a0: f47b f23d f15d da3d 7ec9 1bbe c3b4 213e
000001b0: d6e2 343e c1ca 1bbe 74ab b6bd 13de 3c3e
000001c0: cb5b fbbd 0518 8abd 9e70 9bbc 3e7b 123e
000001d0: 12da 8bbd 31a7 1d3e 22e7 473d 4378 0bbd
000001e0: ddb0 203d c012 ddbd 55ee dbbc da2a 483d
000001f0: e6d1 ba3d 6f5b 093e 60af 7cbe 3188 cc3b
00000200: c6e3 0e3e cab3 9c3d 726d 19bd d5d2 3e3d
00000210: 8e5c 31be 6d00 a2bd 9e09 08be 1521 2ebe
00000220: 13ce 793d d808 27be 04bc 2c3e c660 1f3e
00000230: f3a9 a43d 8c37 1dbc 8fa7 973d d65b 30be
00000240: 0de2 033d 4c6e 41be 9ae2 eabd 9394 bebe
00000250: 4852 bd3d 10dc 19be 9a10 31be b200 18be
00000260: c7e3 56bd 0b0a 38be ca69 e5be 8055 14be
00000270: 64d1 cc3d 4939 293d 09fd 40be aef1 cebb
00000280: 3b2d c83d b856 17be af2f 723b ce9a 213e
00000290: 6d3d 3f3e 7084 69be 9445 d1bd c6e1 a4be
000002a0: 151a c63d b15d 7ebd 5403 023e 9008 483d
000002b0: d74e 2fbe 7de0 c5bd 8e05 1b3e b30e 3c3e
000002c0: f5e5 533e 27ba 813d a33f 5f3e d134 6a3d
000002d0: ce84 203e d38e 6f3d 9960 f43d 4942 033e
000002e0: 042a 3d3e 9810 81bb 5792 39be 2f99 093e
000002f0: 98f8 a13d 71d9 b73e 11e9 3d3d c1f0 6c3c
00000300: 8e45 66bd 07ed 32be 9e48 153e 345b 18bd
00000310: f092 d3bd 303f 8ebd 9412 b4bd a669 0cbb
00000320: 9413 1c3b 351c 21be cdc9 dd3d 8b65 563d
00000330: 05b3 bab9 77e4 11bd 52e4 e03d e6eb 273c
00000340: 63da 05bd eb6a 2cbe 314f 563d fb60 633e
00000350: 7c51 1bbe 5b25 603e 92f9 b73d f392 48bd
00000360: addc 693d a926 a43c 26ca 6cbe 827c bb3e
00000370: 344b 44bd 57d2 b53d 8f48 06bd adbd 6e3d
00000380: 01d1 6fbd 2770 493d eb46 d03e 3c60 c73d
00000390: defc 3fbe 12a2 bbbc 3bec a6bd c426 0ebe
000003a0: 9e47 d33d dd4f b3bd b61e 5dbe dcb5 ed3d
000003b0: 940b 363e 1c6d 763e c0b3 a2bc dd70 f43d
000003c0: b9c4 893e 9103 2339 bd10 a1bd 7d65 0f3e
000003d0: 1168 a83c 51f7 673c 8f9f 733e 3051 b23d
000003e0: 7ae4 383e 619b 303e 357b 3c3e 5f45 803c
000003f0: 4677 bc3d db54 a0bd fee1 853e dc3c 6c3e
-0.063858226 0.20499836 -0.030853912 0.27729106 0.030130353 0.09859182 -0.05098169 -0.023031713
-0.11434742 -0.035676092 0.18848604 0.025192115 0.06117893 0.0074074417 0.17860818 -0.018537175
0.08957133 -0.10118753 -0.065518364 0.25843132 -0.11055862 0.32032567 -0.0727673 0.23063773
-0.018130638 0.058014385 0.05903154 -0.31553736 0.0036452613 -0.010519786 -0.2155939 0.11231774
-0.15040569 0.025038574 -0.06067033 -0.04571553 0.13152826 -0.1165093 0.09272903 0.14056611
-0.16445686 -0.21709536 -0.09467919 -0.098690934 0.16153382 -0.15322842 -0.11427398 -0.023532499
0.06445942 -0.14349125 0.07054617 0.1569238 0.10363546 0.16630001 -0.022574024 -0.09870432
0.09449371 -0.0762264 0.302043 0.05474636 -0.004058035 0.08669299 0.010183841 0.112478025
0.07845122 0.16868643 0.08178636 -0.19406107 -0.1668807 0.36230284 0.13188997 0.17692243
-0.112755574 0.12114603 0.060925893 0.15192832 -0.1457351 -0.16107066 -0.104238905 -0.066565715
0.11195475 -0.21259788 0.34485227 0.09588849 -0.25102538 0.15140514 -0.19866998 0.022308402
-0.0952702 0.07442241 0.12411362 -0.24042812 0.051387623 0.01994022 0.16039348 0.26865932
0.14457966 -0.17151026 -0.21315749 0.1621903 0.14671667 -0.07991197 0.11238959 -0.1319197
0.118400484 0.10662449 -0.15213582 0.15791611 0.17664656 -0.15214063 -0.08919421 0.1844409
-0.122733675 -0.067428626 -0.018974598 0.14304826 -0.06828703 0.1539581 0.04880441 -0.034050237
0.03923117 -0.10794592 -0.026847044 0.04886899 0.09122066 0.13413785 -0.24676275 0.006241821
0.13954076 0.076514795 -0.03745789 0.046587784 -0.17320463 -0.079102375 -0.13284919 -0.17004807
0.060987543 -0.16311967 0.16868597 0.1556426 0.08040228 -0.009595763 0.07405006 -0.17222533
0.032198 -0.18889731 -0.11469002 -0.37222728 0.092442095 -0.15025353 -0.17291489 -0.14844015
-0.05246332 -0.17972581 -0.44807273 -0.1448574 0.100008756 0.041314397 -0.18846525 -0.0063154316
0.09774252 -0.14779174 0.0036954691 0.1578171 0.18675776 -0.22804427 -0.10218349 -0.322035
0.096729435 -0.06210107 0.12696582 0.04883629 -0.17119919 -0.09661958 0.15138838 0.18364982
0.2069319 0.06334334 0.21801619 0.057179276 0.15675661 0.058485817 0.11932487 0.12818255
0.18473059 -0.0039387457 -0.1812223 0.13437341 0.079087436 0.35908082 0.046364848 0.014461697
-0.056218676 -0.17473231 0.14578483 -0.037196353 -0.103307605 -0.06945646 -0.08792606 -0.0021425276
0.002381538 -0.15733416 0.10829506 0.052342933 -0.00035610065 -0.03561827 0.10981049 0.010249114
-0.032678973 -0.16837661 0.052321617 0.22204964 -0.15167803 0.2188925 0.08983149 -0.048968267
0.05709522 0.020037966 -0.23123989 0.3661843 -0.04792328 0.0887801 -0.03278404 0.058286358
-0.05854893 0.049179222 0.40679106 0.09735152 -0.18748805 -0.02290443 -0.08150526 -0.13881975
0.10316394 -0.08755467 -0.21593747 0.116069525 0.17777854 0.2406506 -0.019861102 0.119355895
0.269079 0.0001554622 -0.07864521 0.14003558 0.020557435 0.014158086 0.23791336 0.087068915
0.18055907 0.17246772 0.18406375 0.015658079 0.09202437 -0.07828685 0.2614898 0.23070091

fc1.bias f4 [64]
00000000: 065c 3d3e ad84 0dbe 6b9c 21bd 46af 89bc
00000010: 3dcd 1b3e 0b89 e53d 4794 443d a5bb 08bd
00000020: 0db4 2b3e 8d22 eebc b31f 9d3d d602 bc3d
00000030: 591e 3d3e 9dd3 19be d025 11bb 82ad 15bd
00000040: c101 233e b8ea 22bd 0ad4 a73d 1d10 1dbe
00000050: bd3c e23d 858f 943e ddca 6e3e 0065 433e
00000060: 7bff 36b9 3e0c 0dbc c71d 283e 57a4 053e
00000070: 6c90 283e ba10 a83c 5e1e 7abe e459 0e3d
00000080: 1f8e 583d 890f eabd 633a 5dbe 27f1 bebd
00000090: ef74 f93c ef5d 3c3e 3685 7cbe e6e9 183e
000000a0: 77ed 7dbd fb1b 3cbe 44b8 fd3d 0583 883c
000000b0: 7b27 0e3e 3ce0 27bc c343 5ebe 1014 34be
000000c0: 448e 563d 296c 36be 090c a4bc 846a 18be
000000d0: 3554 243d 9f70 3a3e e537 81ba 54b2 0abe
000000e0: 5325 c8bc f173 f03d 6035 763e 40bb 373e
000000f0: 9977 ccbc cb03 35be eb58 313e 4f96 f03d
0.18492135 -0.13820143 -0.039455812 -0.01680721 0.15215011 0.112077795 0.04799297 -0.033382077
0.16767903 -0.02906921 0.07672062 0.091802284 0.18468608 -0.1502213 -0.0022147782 -0.036542423
0.15918638 -0.039774626 0.0819474 -0.15338178 0.11046741 0.29015747 0.23319574 0.19081497
-0.00017452046 -0.008608876 0.16417609 0.13050972 0.16461343 0.020515788 -0.24425647 0.034753695
0.052869912 -0.11428744 -0.21604304 -0.0932334 0.030451266 0.18395208 -0.24660191 0.14932975
-0.061994042 -0.18370049 0.123886615 0.016664037 0.13882248 -0.010246333 -0.21705537 -0.17585778
0.05238177 -0.17814697 -0.02002527 -0.14884382 0.04011937 0.18207024 -0.0009858577 -0.1354459
-0.02443186 0.11740864 0.24043798 0.17942524 -0.024959372 -0.17677228 0.17319076 0.11747419

fc2.weight f4 [64, 64]
00000000: c438 10be bac1 6abd 0446 eabd 39b7 f9bd
00000010: 617c d8bd d9b3 133d dd02 783c ed3a d339
00000020: 7afa acbd f3e0 22bd f6ba de3c 5f44 f7bd
00000030: f4e4 c0bc 3821 ab3d a8fc 14be 83fb c03d
00000040: f3ea a23c eea7 543d ef3b b13d b91f 03bc
00000050: f3c9 0ebd b162 96bd 5a25 03bd 0dc5 a9bc
00000060: 15fe e13c ab6e e6bd 5c26 9bbd a363 ca3d
00000070: c1e4 4a3d a55c f5bd 8bd6 92bd a294 e93c
00000080: fd9a b03d cf0b fc3d 14be e9bd 4911 fe3d
00000090: 5327 843d 45bf 033c b8bf fabd b35f 4a3c
000000a0: 5b2f 833d f53e 90bb 96e9 13ba 82b0 f83c
000000b0: 4083 18bd fec0 d53d 2e38 f5bd 7159 c6bc
000000c0: d08a f53a 0f91 fc3d 1d49 a4bd 53b5 42bd
000000d0: 3602 fbbd 5aae 00be 603a c93c f6e7 a83c
000000e0: 2760 12be abde a4bd 84ee 5e3d edf3 dbbd
000000f0: 578a d0bd a605 373d 53ea a9bd 1651 413d
00000100: c4ef bfbd 9424 853b 2156 7fbd c438 923c
00000110: 91d6 0cbe 155b 0bbe e6db 123e ab54 953d
00000120: 007d ca3c d63d 14be edf8 dabd 5658 33be
00000130: 45ce e13c 19f6 6abd 37f9 273a b2cc 94bd
00000140: c744 d23c 37d0 85bd a386 15be ca5c a0bd
00000150: 8a3e 0bbe b8d6 f4bb 36a2 d73d 0056 5dbd
00000160: d029 123c 4701 bc3d 5edc 183d b19c 33bd
00000170: 44d3 d13c 65c4 333c 5d83 f7b8 4fe1 8d3c
00000180: 942b 83bd 5c8d 873d 32f9 9ebd d723 6fbd
00000190: 2a92 e8bd 9b1a 473d ed74 c73d c566 193d
000001a0: 3757 8ebd c5b1 eb3c c34d 19bd f7a6 35be
000001b0: d9d4 863c 1222 6f3d d620 173d a7e9 f8bd
000001c0: eab6 b6bd e4e9 9fbd 9fa0 a73d e7b7 58bd
000001d0: 6a3d b3bd dd0c f0bd 7d06 5abd 9798 e0bd
000001e0: 50be 29bd 4578 0dba ef18 bcbd e609 2fbe
000001f0: a053 c2bc bdff e4bd c388 10be f120 fdbd
00000200: b10a 713d cb41 1bbd 42e5 233b 8067 9fbd
00000210: 84b7 4c3d 9966 86bc 278f d3bd 6241 be3d
00000220: 4e54 23bd e941 34bd ee0d 563e b8ad 593e
00000230: bf43 203e 3859 73bd 1c38 fa3d 75ec a0bd
00000240: 591d d93d 9894 9dbd 601e 7a3b 5e79 bb3d
00000250: fec5 e2bd 12d1 0e3c 2ccf 8c3d c375 de3d
00000260: 09e7 50bd 92e5 0abe ebd2 7abd 4baf 0ebe
00000270: abf9 e13d 2754 00be a73a 5cbd 9e9c 263e
00000280: a178 c63d fccc 96bd b037 123e defd f0bd
00000290: f8c3 96bc a9dd 03be 9d71 08bd a179 b23c
000002a0: e3f4 3f3d a7a0 b5bd be68 9a3d 4ac0 193e
000002b0: 18cc e1bd b251 f8bd 4e67 bd3d 63e4 963d
000002c0: b19f c4bd 84db d8bd f97c 9fbd 2bac c9bd
000002d0: 7c17 2ebd d8d1 243d e574 063d 4d6c d93c
000002e0: afd5 db3c 60fd f53c 899d 29bd 5e76 8f3d
000002f0: 13d2 643d 98ff 88bd ed21 413d d7b8 09bd
00000300: d7fc 4f3d 5c70 e2bc 1ace 81bd ff46 62bc
00000310: 1fc9 9abd 84be 43bc 4b23 3dbe 77a1 dbbc
00000320: eb86 3a3d 4b68 163d 710c debd 4027 1abc
00000330: 959f 9e3d bce2 0dbe c29f ac3d 7b84 8b3c
00000340: 0a39 c8bd 4382 6abc a3f6 8fbd 0bd1 fdba
00000350: 6085 fabd b7f7 c2bd 1ef0 63bd 5ee6 f1bd
00000360: 26dc 3bbd 713a 58ba a9f0 e53d 9d97 acbd
00000370: 6bdb ae3d ad29 b53c f5cc b9bc b228 023e
00000380: 5e4d 55bc f500 a7bd 6121 a0bd c23b b33d
00000390: 27e6 ec3d a0b2 babd ff83 93bd 2561 c7bd
000003a0: eef5 a53d 31c4 8a3d 8dc1 08be bf91 65bd
000003b0: aeda f93c aa73 e5bc 912a 413d d986 023e
000003c0: 7875 1e3e c990 4fbd 4f54 10be ebb9 b43d
000003d0: aa47 3f3d db1e 2e3e 53ba ccbc 7aeb ab3d
000003e0: ab3f 3fbd 2b57 5cbd 8775 98bc 84ce c53d
000003f0: 9bbd 7b3d f3e4 c03d 3afd cd3c edae 753d
-0.14084154 -0.05731366 -0.11439136 -0.1219315 -0.105705984 0.036060188 0.015137401 0.0004028896
-0.08446212 -0.03976531 0.02718876 -0.120735876 -0.023546673 0.08355945 -0.14549506 0.09422972
0.019887423 0.051917963 0.086540096 -0.008003169 -0.034860563 -0.07343043 -0.032018043 -0.020723844
0.027586976 -0.11251577 -0.07575676 0.098822854 0.049534563 -0.11980561 -0.07169827 0.028513256
0.08623312 0.1230694 -0.11413208 0.12405641 0.06452813 0.008041208 -0.12243599 0.012351918
0.06405517 -0.0044020363 -0.0005642412 0.030357603 -0.037234545 0.10437201 -0.11973606 -0.02421257
0.0018733386 0.12332355 -0.08021758 -0.047536206 -0.12256281 -0.1256651 0.024563968 0.02061842
-0.14294492 -0.08050283 0.054426685 -0.107398845 -0.10182636 0.04468312 -0.08296647 0.04719647
-0.093719035 0.0040631983 -0.062338 0.017849334 -0.13753726 -0.13608964 0.14341697 0.0729154
0.024717808 -0.14476714 -0.1069201 -0.17514166 0.027564177 -0.057363603 0.00064076803 -0.07265605
0.025667561 -0.065338545 -0.14602141 -0.07830198 -0.13598076 -0.0074718855 0.10528986 -0.054037094
0.008921102 0.09179931 0.037319534 -0.043850604 0.025613435 0.010972117 -0.00011802346 0.01731935
-0.06404796 0.06618759 -0.07762374 -0.05838379 -0.113560036 0.048609357 0.09739099 0.037451524
-0.06950229 0.02877129 -0.037427675 -0.17739473 0.016458916 0.0583821 0.03689655 -0.12153941
-0.08921607 -0.07808283 0.08184933 -0.052909758 -0.08751948 -0.117212035 -0.053228844 -0.10966604
-0.04144126 -0.00053966447 -0.09184443 -0.1709362 -0.023721516 -0.11181591 -0.1411467 -0.12359799
0.058848087 -0.037904542 0.0025008474 -0.07783413 0.0499797 -0.016406344 -0.103300385 0.092898145
-0.03987532 -0.04400817 0.20903751 0.21257675 0.15650843 -0.059411258 0.12217733 -0.078576006
0.10601301 -0.07694358 0.0038165078 0.09154008 -0.1107292 0.008716838 0.068754524 0.10862305
-0.051001582 -0.13564137 -0.061236303 -0.13934056 0.110339485 -0.12532102 -0.053766873 0.16270682
0.09690977 -0.073633164 0.14279056 -0.11767171 -0.018403992 -0.12877525 -0.033311475 0.021786513
0.0468644 -0.08868533 0.07539509 0.15014759 -0.11025256 -0.12124957 0.092482194 0.0736778
-0.09600771 -0.10588744 -0.077875085 -0.098472916 -0.042502865 0.040239185 0.032826323 0.0265409
0.02683529 0.030028045 -0.041410003 0.070049986 0.055864405 -0.06689376 0.047151495 -0.033623543
0.050778236 -0.027641468 -0.06338139 -0.013810872 -0.07557892 -0.011947278 -0.18470494 -0.02681039
0.045538824 0.036720555 -0.10842217 -0.009408772 0.077452816 -0.13856024 0.08428909 0.017030945
-0.09776504 -0.014313283 -0.07029464 -0.0019364668 -0.122324705 -0.09519904 -0.055648915 -0.11811517
-0.045864247 -0.00082484545 0.11227543 -0.084273554 0.085379444 0.0221146 -0.022680739 0.12710837
-0.013018934 -0.081544794 -0.078188665 0.08751632 0.115673356 -0.09116101 -0.07202911 -0.09735326
0.08103548 0.06775702 -0.13355084 -0.056047197 0.030499782 -0.028009254 0.047159735 0.12746753
0.15474498 -0.050675187 -0.14094661 0.088245235 0.046699204 0.17003958 -0.02499119 0.08394523
-0.046691578 -0.053794067 -0.018610729 0.0965853 0.06146012 0.094186686 0.025145162 0.059981275

fc2.bias f4 [64]
00000000: 9b2b f6bd fbf5 dabd be66 6c3c ee86 7c3d
00000010: a2cb 53bc 4113 d03d cc1d 333c 746e 763c
00000020: 26f7 df3d 7d0c 8dbb 4147 beb7 ccdf 5d3d
00000030: 74eb 7cbc fc5c 1cbe 5a00 df3d 1898 253e
00000040: 6474 0b3d 2273 0ebd 4f9e c4bd 9dec 953b
00000050: de02 063d 9232 f43d 1c26 d1bb 9a2e 8d3d
00000060: 2c2a 9abd 2e1c de3d 73f6 a8bd 8bf7 6d3d
00000070: 6072 883d 4ddc 153e 01f3 a03d 3884 8c3d
00000080: f7af 163e d995 223d dd32 bb3d e9a2 623d
00000090: c038 e7bd fa85 dabc f172 70bc c76d c3bd
000000a0: 6f32 c5bd dde5 593d e322 743d 6637 76bd
000000b0: 1be6 083d 1c34 0fbe 5820 c4bc 39a5 0d3d
000000c0: b5c8 ab3d 081e a83d d591 5dbd 586e b6bc
000000d0: 7724 533c 3d92 183d 11af 9dbd cbfa 6e3d
000000e0: 2831 303c a76f 3d3d 36aa bcbd 1c40 aa3c
000000f0: a666 1d3d e175 343d 6c83 34be 65fb 363d
-0.12020036 -0.10691448 0.0144287925 0.061652116 -0.012926968 0.101599224 0.010932397 0.0150409825
0.10935812 -0.0043044672 -2.2682945e-05 0.054168507 -0.015436996 -0.15269846 0.10888739 0.161713
0.034046546 -0.034777768 -0.096005075 0.0045753256 0.032717578 0.11923708 -0.006382717 0.06893654
-0.07527575 0.108452186 -0.082501315 0.058097403 0.0666244 0.1463482 0.07858849 0.06861156
0.14715563 0.039693687 0.09140561 0.055331144 -0.11290121 -0.026675213 -0.014675842 -0.09542423
-0.0962876 0.05319773 0.059603583 -0.060111426 0.03342257 -0.13984722 -0.023941204 0.034581397
0.08387891 0.08208853 -0.054094154 -0.022269413 0.012887112 0.03724884 -0.07699407 0.058344644
0.010753907 0.046249058 -0.09212153 0.020782523 0.03842797 0.04405773 -0.17628258 0.044673342

fc3.weight f4 [64, 64]
00000000: 0be1 32bc bacb 9d3c 3862 01be d6e4 ad3d
00000010: c316 abbd 3dab a13d 3f4b ba3d 12fb 93bd
00000020: 4e8b 6b3d 1ca4 083e f2bb 0b3d 537d 22bc
00000030: 318f 5b3d 351b fdbd 8c39 a3bd b148 cabc
00000040: 4469 a33b 85bc 8e3d 34ed df3d 3153 74bd
00000050: a0d7 ff3d 3842 a43d 996e 97bd 45bc 043e
00000060: 1125 653d 347d ab3c d93a 2f3d f18f 093d
00000070: 3f07 4bbd 7853 99b9 33d2 fabd 2fa6 e1bd
00000080: 7c28 53bd 55e9 f93d 1cb1 083e 845e c33c
00000090: ae23 a33c a384 c33d 8add b1bc 11bd 543c
000000a0: 2b9e 113e 8f5b 4cbd ee8e bcbd 7c66 1a3b
000000b0: e0cf 10bd 2167 f83d bb28 b53d ecfc 03bd
000000c0: a953 b43d 8a14 5b3c 8778 28bd 081c d3bc
000000d0: 95d9 843d e530 143a 4967 333c 65fe b5bd
000000e0: 2672 2cbe 6a54 aebd 6532 6bbc c581 61bd
000000f0: ad98 b73c 61e6 0bbc 3474 cf3d 6e57 483d
00000100: dc29 cbba 81cf ef3c ec26 e23d 6e7f 813d
00000110: f05b 71bd c85c 08bb 2a73 d63d 5d5b 253d
00000120: b906 c4bd ebb7 7e3b 6ece dc3c 77b1 08bd
00000130: a2cb 373d a1ca b93d 4821 30bd 102e e3bc
00000140: 4dac 00be 9f4a a33d fdb1 643d 7a20 adbd
00000150: 40e3 79bd 1257 ffbd fdbe 78bd cc51 a13d
00000160: 3d94 7d3d 6982 cebd c508 083b 3b71 d2bc
00000170: ea51 ab3c b7b7 9abd 98b7 78bc 09b8 6bbd
00000180: fc14 063d a663 783c 8cc1 c93c ec1a d7bd
00000190: ec6c c53b b249 b5bd dec9 9ebd 9691 29bc
000001a0: ed24 a93d 00c7 18bd 00d5 d5bd fafe fb3c
000001b0: dca2 383d 1e62 753d 77e0 4cbd 76da 9b3d
000001c0: 1891 c73a 640f 1fbe 824d 13be 3f6b 8fbd
000001d0: 0ec7 b23a cfe4 aebd 70e3 bc3d 247e cb3b
000001e0: d2c1 be3d 251c 7a3d 9b99 e4bd f0e2 94bd
000001f0: 54e0 96bd cb91 763c d96b 0bbe e8ae 003e
00000200: 3e13 c33d b95b 82bc 06c8 a43d fca8 eb3d
00000210: 8e93 abbd 0a43 913d f6ce e63d 4131 b5bd
00000220: b118 653c fca3 0a3e 20fd dabd 325d 37bd
00000230: 7afe 3dbc 65af a83d a66f b53d f174 073e
00000240: 0641 4cbd 9b8b fa3d 79cd 63bb 41ff c03d
00000250: 91a6 bf3d 8107 c6bc 0c78 ecbc 9edf 36ba
00000260: 6b18 483d 7dd9 f23d 70b9 a53d e191 8dbd
00000270: 1d77 89bd 1a20 63bd c83a 90bb ebd4 14bc
00000280: 22f5 1bbd 424b d739 6e10 093e 9dc8 44bd
00000290: 16a1 e73d bc1d cc3b 605d 003e 47f6 88bd
000002a0: 0ee8 9dbc c61a febc 1a0c b7bd 7949 af3d
000002b0: c1d7 393d 2052 913c 54a9 8f3c 1d61 99bd
000002c0: c433 833d 0e20 dcbd 0356 433d 5667 e2bd
000002d0: 9992 2c3b 113d cc3c 4e63 883d 71ce 053d
000002e0: e3e4 af3d 483b cf3d 1361 a9bc d21d 3d3c
000002f0: d921 633d 0f2c 84bd 1509 963d 1908 253d
00000300: 861d bf3d f36a 863d 6469 ed39 3932 4cbd
00000310: 929a b2bd 2fae 16bd 7709 a2bd ea95 333e
00000320: cf2c 053e 6fbf a53b c1e5 82bd e8a5 e0bc
00000330: 20fa 0c3d 2a32 963c a975 2bbb 2f54 00bd
00000340: 5f67 2c3d 4c69 7bbb 74f1 8cbd c33b 64bd
00000350: fe46 cdbd 5e4a 94bc 8a73 e13d 3385 9abd
00000360: 4c1b 10bd e1a3 bdbd 1519 7b3d c90e c23d
00000370: 1d9b 163d ddcb 12be 00ac adbd 5d08 82bd
00000380: a558 b6bb 074c 923d 3139 02be 5dbf 143d
00000390: fa3b 0e3e 323f 9d3d a946 963c 9444 82bb
000003a0: 6893 703d afd4 053e d324 dcbc 6659 25bc
000003b0: a072 0abe 065d bcbd f50b 86bc 0e91 35bc
000003c0: 9319 05be c0c4 95bd f7a7 f33c 0683 273d
000003d0: 3083 dd3d 6d1a 143d 2831 2b3d dade a1bd
000003e0: 8b0a 053e 9e4b 7b3d 4235 bd3d beb0 f1bc
000003f0: 59f6 5a3d 65dd f33c b9db 85bb 00d4 46bc
-0.010917912 0.019262183 -0.12635124 0.084909126 -0.08353951 0.07893989 0.09096383 -0.07225622
0.0575059 0.13343853 0.034114785 -0.009917575 0.053603355 -0.12358705 -0.079699606 -0.024692865
0.004986914 0.06969551 0.10933915 -0.05964965 0.12492299 0.08020443 -0.07394142 0.12962444
0.055943552 0.020933725 0.04278073 0.03358454 -0.049567457 -0.00029244623 -0.122471236 -0.11018025
-0.05155228 0.12202708 0.13348812 0.02384878 0.019914474 0.09546783 -0.021712083 0.01298453
0.14220493 -0.049892005 -0.09206949 0.002355962 -0.035354495 0.12129045 0.08845659 -0.032223627
0.088050194 0.013371596 -0.04113057 -0.025770202 0.06486813 0.0005653038 0.010949918 -0.088864125
-0.16840419 -0.085121945 -0.014355277 -0.0550554 0.022411669 -0.008538813 0.10129586 0.048911504
-0.0015500146 0.02927375 0.1104258 0.063231334 -0.05892557 -0.0020807255 0.104711846 0.040370334
-0.09571595 0.0038866948 0.026953902 -0.03337237 0.044871934 0.090718515 -0.04300049 -0.027731925
-0.12565728 0.07973217 0.055833805 -0.0845346 -0.061007738 -0.12467779 -0.060729016 0.0787693
0.06190895 -0.100834675 0.002075718 -0.025688758 0.020913083 -0.07554572 -0.015180491 -0.057548556
0.032734856 0.015160477 0.024628423 -0.10503182 0.0060249474 -0.08851947 -0.07753347 -0.010349652
0.08258996 -0.037299156 -0.10441017 0.03076123 0.04507719 0.059908025 -0.050018754 0.076100275
0.0015225736 -0.15533215 -0.14385036 -0.070028774 0.0013639645 -0.085397355 0.09223068 0.0062101055
0.09314312 0.061061997 -0.111621104 -0.072698474 -0.07367006 0.015049408 -0.1361536 0.12566721
0.095251545 -0.015912877 0.08045964 0.115068406 -0.08377753 0.07092865 0.112699434 -0.08847285
0.013982938 0.13539118 -0.10692811 -0.044766612 -0.0115963165 0.08236579 0.08859186 0.13228203
-0.0498667 0.12233659 -0.0034759922 0.09423686 0.09357942 -0.0241735 -0.028865837 -0.00069760706
0.04885141 0.11857889 0.0809201 -0.0691259 -0.06712172 -0.055450536 -0.0044015385 -0.009083967
-0.038075574 0.00041064067 0.13385174 -0.048042882 0.113100216 0.0062291306 0.1253562 -0.06687599
-0.019275691 -0.031018626 -0.08937855 0.08558936 0.045371775 0.017739356 0.017536797 -0.07489226
0.06406358 -0.107483014 0.04768945 -0.11054866 0.0026332496 0.024931462 0.06659566 0.03266758
0.085885786 0.10118729 -0.020676171 0.011542754 0.0554522 -0.06453716 0.07325951 0.040290926
0.09331803 0.06563368 0.00045282685 -0.049852584 -0.08720888 -0.03678721 -0.079119615 0.17537656
0.13005374 0.005058221 -0.06391478 -0.02742286 0.034418225 0.018334467 -0.002616266 -0.031330284
0.04209077 -0.0038362322 -0.06881991 -0.055721056 -0.10023306 -0.018101867 0.110083655 -0.07544937
-0.035182282 -0.09259773 0.061303217 0.09475476 0.03676902 -0.1433558 -0.08480072 -0.063492514
-0.0055647665 0.07143407 -0.1271713 0.03631531 0.13890067 0.07678069 0.01834424 -0.0039754603
0.058734328 0.13069414 -0.026873028 -0.010092115 -0.13520288 -0.0919743 -0.016363123 -0.011081947
-0.12998037 -0.07312918 0.029743178 0.040896438 0.10816038 0.036158014 0.041794926 -0.07903834
0.12992303 0.06135141 0.09238674 -0.029503223 0.05345759 0.029768655 -0.004085031 -0.012135506

fc3.bias f4 [64]
00000000: 1d9b 1a3d 0fca b23c e0dc f33d 6e07 a83c
00000010: 07bb 5bbc 95ea e33d 912e 1d3e 17fb 833d
00000020: 833e 81bd d1d6 babd a76f 1a3d 622e cb3d
00000030: ff05 8d3d 0870 4ebc 9069 b23c 4185 77bd
00000040: 5013 d7bb 2abd aabd ab3a c63b 9c04 3e3e
00000050: 87e6 76bd 01b4 403e 6ef0 08be 0135 e83d
00000060: e6df 0bbe 9f24 ef3c 7b84 aa3d 283d 853d
00000070: 24fe a23c b373 013e f334 993d dc7b b6bd
00000080: 60d6 1dbd 5f7d 2bbe b4bf 42be 0854 963d
00000090: eca8 243d ad81 5ebd e85c 0a3e 5fbc e6bc
000000a0: c942 ee3d 635c 43bd c278 053e 3ee6 923d
000000b0: 2d64 a6bd 46dd 1bbd b9c8 9f3c 5006 c8bd
000000c0: d59f 6cbd d8f3 5fbd 057d b13d 3dec 1e3d
000000d0: 4be3 e93d 5888 6fbd 3460 d4bd 1b73 983d
000000e0: 7c8e c73d af73 bebc 0c76 c53d dce4 8cb9
000000f0: 6130 9a3c 13bc f63d 6f95 72bd 95b1 253d
0.037745584 0.021824865 0.11907363 0.020511355 -0.01341129 0.11128727 0.15349795 0.06444376
-0.06310751 -0.09123004 0.037704136 0.09920956 0.06885909 -0.0125999525 0.021778852 -0.060429815
-0.0065635815 -0.083368614 0.0060494742 0.18556446 -0.06027844 0.18818666 -0.13372967 0.11338235
-0.13659629 0.029192267 0.0832605 0.06505805 0.019896574 0.12641792 0.074808024 -0.08910343
-0.038534522 -0.16747044 -0.19018441 0.073402464 0.04020016 -0.054322887 0.13512003 -0.028165994
0.11633832 -0.04769553 0.13034347 0.071728215 -0.08124576 -0.03805282 0.019504892 -0.09766829
-0.057769615 -0.054675907 0.08666424 0.038799513 0.11420306 -0.058479637 -0.10369912 0.074438296
0.097439736 -0.023248522 0.09641656 -0.00026873394 0.018821897 0.12047591 -0.059224542 0.04045256

fc4.weight f4 [64, 64]
00000000: 45d8 a1bd ba2e 883c 426c 7ebd a477 19bd
00000010: 5af1 a8bd 4325 b4bd 6f0a 953c 4812 5cbd
00000020: 2377 67bd 1532 e7b9 ef6e 84bd e126 6c3d
00000030: 3cbf 813c 7d66 be3d 3176 003d eab6 99bb
00000040: 5b45 98bc 1cc1 3d3c 38e8 e4bc 474e 15be
00000050: a41b db3d 6df2 6bbd 9c13 0a3e 4e34 cfbd
00000060: 217d c53d edd9 293d 7207 11be 36ae bebd
00000070: 72cb 363d faa1 b6bd 6d4f bf3d 1545 043e
00000080: b7e7 673d cab3 763d c84a a63d 6c13 753d
00000090: 2e9c e5bd 3f7c b23d 99fe 863c abfc 5f3d
000000a0: 006a 52bd 5a42 093e 5750 57bd 9a39 51bd
000000b0: 52cd 273d 3e26 143e 2d35 35bc 1109 a3bd
000000c0: 7ef0 7fbd 9c29 ebbd 86ee 03bb 4586 803d
000000d0: c12a 20bd ff2e b33c 778f c43d b2c3 ffbd
000000e0: 9f14 8ebd 1d48 283d 770c f7bd 2afd babd
000000f0: 2fa2 1b3e 6591 01be 486c 0d3e 0f20 53bd
00000100: 4d88 b8bd b371 bf3d 61d4 9ebd 52ea 1a3e
00000110: 6caa ec3c 1a26 1f3d 85a2 a63b 1458 37bd
00000120: 3183 1b3d 7421 9d3d 2ff8 d2bd ebd4 b8bd
00000130: cd8f 0fbc 1286 503d 7ddd d83d d89b 033e
00000140: da31 143e 4bb4 c73d 5dc3 243e 2f29 523b
00000150: 493e f03d 754c b1bd 5fc4 5b3d eca7 153c
00000160: ec2f 613d e6fa 2b3d c626 c5bd cde1 3f3d
00000170: 2fa0 b4bd ab38 913d 71fb 92bd 64b2 e03c
00000180: 3525 05bc 5799 bfbd 4ce7 d23d 4fcc 963c
00000190: 989a 823c 1292 0a3e 1f72 83bd 26be b03d
000001a0: 95c9 bd3d 39d6 f23c 6e7c 86bc c734 783d
000001b0: 1428 a73d d527 c53c dc7d d63b c755 223c
000001c0: 06c9 d2bd b418 45bd 2777 f6bc 1eee 12bb
000001d0: 2da5 023d 1d21 e23c 3d37 99bd 48dc 70bd
000001e0: cb55 9d3c cc4e 1c3e 4385 e43d 037b c5bd
000001f0: 9a1f 803d 3465 20bd ea7a ef3d 3b50 3fbd
00000200: 7354 9dbd 81fa e1bd 6cd7 5fbd d21f a7bd
00000210: b072 87bc 81a5 a9bd 1605 febd 893f abbd
00000220: 5104 063e 7406 f63d 8351 7c3c 5db5 183d
00000230: 124d f3bc 8bdb eb3c dcc3 e6bd 2393 6fbd
00000240: 6a9b ce3d 0569 c23c a263 d43d 062d 5c3c
00000250: c9d7 37bd d4de 713d 3fc9 b63d 14a9 b93d
00000260: e4b8 053a 10c6 b63c dcb8 e8bd a647 f2bd
00000270: 68e3 70bb 1541 203d e117 55bd 31f5 c0bd
00000280: a0e7 e53c ab4b 383c 3ea8 fd3d d862 cb3d
00000290: fb99 493c 0805 373d 1365 7dbd 8b88 1bbe
000002a0: d0c6 803d 1989 79bd 1a74 9c3c 3f0a ebbc
000002b0: c591 dd3d 04f7 c7bc 5a1e b9bd 89e6 803d
000002c0: 8ec2 cbbd 997a 543d f275 0fbe 6b95 50bd
000002d0: a039 d0bd c757 713d 6c76 093e f800 4fbb
000002e0: 8299 043d eabc 4ebc 1b6d fd3d 41f2 2cbd
000002f0: 3f54 0e3d a6f2 bbbc 5fc4 2c3e 915d a83d
00000300: 2caf 543d eb4e 823c 8269 d93d e309 a6bd
00000310: 70eb 133c 7e5d 8f3d 635b ed3c 2ad9 9c3d
00000320: 76d4 a6bd 5c61 d6bd 53d6 1d3d a4c4 b53d
00000330: c331 1cbd 005a e9bc 9c11 d4bd 8c94 86bd
00000340: 3a11 b1bc 80ba 063c e091 1cbb 45ea b2bc
00000350: e87c 6d3b 88bc a6bd 57e3 4abd de09 80bd
00000360: eea6 41bd bc7b 10bd 6c02 1ebc 69e7 7b3c
00000370: 3a21 dcbd 28d5 c03c 3bd9 e73d e3f8 06be
00000380: 2851 a4bb 3340 953d 1801 afbd 5a6f aabd
00000390: 1a48 99bd ed01 50bd 2354 08bd 0022 f73d
000003a0: 9453 8a3d bf4b e5bd 2c59 793c aa44 42bd
000003b0: a211 5fbb ea3b a23d 830d 14bc c7cd 4cbd
000003c0: 8999 d8bd 9dce 143d 1ae7 043e b1bc e83d
000003d0: b6bd f43d 537d 47bd bde5 05be 2ef2 043e
000003e0: 672c 17bc 225b 0cbe 1391 1fbc 8290 7dbc
000003f0: 48f2 663d 15a4 d7bb f6ed 10be f6c7 93bb
-0.07902578 0.016623843 -0.06211496 -0.037467614 -0.08249159 -0.087961696 0.018193452 -0.05372837
-0.056510102 -0.00044097067 -0.064664714 0.057654265 0.015838258 0.09296892 0.031362716 -0.0046909945
-0.018587759 0.011581685 -0.027942762 -0.14580642 0.106986314 -0.057604242 0.13484043 -0.10117398
0.09643007 0.041467596 -0.14162996 -0.09310572 0.044627614 -0.08917613 0.09341321 0.12916978
0.056617465 0.060230054 0.08119732 0.059832975 -0.112114295 0.08715104 0.016478823 0.054684322
-0.05137062 0.13404217 -0.052566852 -0.051080324 0.040967293 0.14467713 -0.011060041 -0.07960714
-0.06248521 -0.11482546 -0.0020131185 0.0627561 -0.039103273 0.021872995 0.09597676 -0.12488498
-0.06937527 0.041084398 -0.12062924 -0.091303185 0.15198587 -0.1265312 0.13810837 -0.051544245
-0.09010372 0.09347858 -0.07755352 0.15128449 0.028889857 0.038854696 0.005085292 -0.044761732
0.03796691 0.07672396 -0.103012435 -0.09024986 -0.008762312 0.05090911 0.105891205 0.12852418
0.14472142 0.09751185 0.1609015 0.0032068004 0.1173063 -0.08657161 0.05365407 0.009134274
0.054977342 0.041987322 -0.09626536 0.0468462 -0.08819615 0.07090887 -0.07176865 0.027428813
-0.008126547 -0.09355419 0.10298023 0.018407969 0.015942857 0.13532284 -0.06418251 0.08630018
0.09266964 0.029643165 -0.016416755 0.060597207 0.08161941 0.024066845 0.0065457653 0.009908146
-0.102922484 -0.04811926 -0.030086113 -0.002241976 0.031895805 0.02760368 -0.07481239 -0.058803827
0.019205948 0.15264434 0.1115823 -0.09642603 0.062560275 -0.039159015 0.11693366 -0.046707373
-0.07682123 -0.11034108 -0.0546488 -0.08160366 -0.01653418 -0.082835205 -0.12403314 -0.08361728
0.13087584 0.120129496 0.015400293 0.037282337 -0.029699836 0.02879121 -0.11267826 -0.05848993
0.10088237 0.023731718 0.10370566 0.013438469 -0.044883523 0.059050396 0.089251034 0.09065452
0.0005101098 0.02231124 -0.11363384 -0.11830072 -0.0036756638 0.039124567 -0.052024726 -0.094217665
0.028064549 0.011248509 0.12385605 0.09930962 0.012304778 0.044682533 -0.06186397 -0.15188806
0.062879205 -0.060921762 0.01909833 -0.02869141 0.10818819 -0.024409778 -0.09038992 0.06293971
-0.09949218 0.05187473 -0.14009836 -0.050923746 -0.10167241 0.0589216 0.1342408 -0.003158627
0.03237296 -0.012618283 0.12374326 -0.04222322 0.034748312 -0.022942852 0.16871785 0.082209714
0.05192487 0.015906772 0.10615827 -0.081073545 0.009028301 0.07000254 0.02897424 0.07658608
-0.081459925 -0.104677886 0.038534474 0.08875397 -0.038133394 -0.028485298 -0.10354921 -0.06571302
-0.02161466 0.008223176 -0.002389066 -0.021840224 0.003623778 -0.08141428 -0.049533214 -0.06251882
-0.047278337 -0.035274252 -0.009644132 0.015374997 -0.10748525 0.02353914 0.1132073 -0.1318088
-0.0050145574 0.07287636 -0.085451305 -0.0832202 -0.074844554 -0.050783087 -0.033283364 0.12067032
0.067542225 -0.11196088 0.015219014 -0.047428764 -0.003403761 0.07921584 -0.009036425 -0.050000932
-0.105761595 0.036329854 0.12978783 0.11364115 0.11950247 -0.048703503 -0.1307592 0.12983009
-0.009226895 -0.1370664 -0.009739178 -0.015476348 0.0563834 -0.0065808394 -0.14153275 -0.004509921

fc4.bias f4 [64]
00000000: cf18 cfbd 3b96 21be 7927 35bd 5cf2 a43d
00000010: da71 533e 3ff0 5c3d 2019 473e df33 473e
00000020: 7741 a5bc 09e8 a03c fd29 4e3e 909d dbbc
00000030: 5d35 103e cee0 993d 5ed1 db3d cd70 d8bd
00000040: 28e8 093e 6afa ee3d 34c1 383e f84d 3ebd
00000050: b5c5 8ebd 6d78 3a3d e9b9 1f3d bb0e 453d
00000060: 2d51 01bd 30f7 ad3d 080e fb3d a67b e73d
00000070: c8b2 b83c 8898 4bba b6ec 8dbd 31e2 09bc
00000080: 58a4 d0bc e1b6 313d e677 653e 417f 343e
00000090: 496c f7bd 99a0 12bd d845 b5bc 2689 2f3d
000000a0: 1308 673e ec4e 18bc eb02 b13d 2b2a 253d
000000b0: 680f 0c3e a2ad c6bc 3a8a d63d d75d 1abd
000000c0: d6bf bb3d 2159 38bd 632b 433e e48d 22bd
000000d0: ddf3 0dbe 3b8d 4f3d 365d 1cbe 36bc 17bb
000000e0: 3a3d 1abe 5742 c73d 3039 42be 33ac abbc
000000f0: e9e4 b43c 3e91 fabb 21af 36be 683f 133c
-0.10112154 -0.15779965 -0.044227097 0.08054039 0.206489 0.053940054 0.19443178 0.19453381
-0.020172818 0.019641893 0.20133205 -0.02680853 0.14082856 0.07513581 0.10733293 -0.1056839
0.13467467 0.116688564 0.18042451 -0.046461076 -0.069713034 0.045525003 0.038995657 0.04810975
-0.031571556 0.08494413 0.122585356 0.11302881 0.022546187 -0.00077665644 -0.06929915 -0.008415745
-0.02546899 0.043387298 0.22409019 0.17626669 -0.12081201 -0.03579769 -0.02212803 0.042855404
0.22561674 -0.00929616 0.08643135 0.040323418 0.13677752 -0.024252716 0.104755834 -0.03768715
0.09167449 -0.045006875 0.1905952 -0.0396861 -0.13862558 0.050671797 -0.15269932 -0.0023152954
-0.15062419 0.0972945 -0.18967128 -0.020956134 0.02208181 -0.0076467087 -0.17840244 0.008987285

fc5.weight f4 [1, 64]
00000000: 4824 fe3c 06c3 f13d a2f2 c03d f05e 1cbd
00000010: 0884 5dbd f78e 4cbd 646f afbd 8fa6 62bd
00000020: f24d 59bd 0c26 f13d d2c8 33bd 202a 0bbc
00000030: 6d86 e9bd 1e08 f1bd d5b3 ddbd f2a7 253a
00000040: 3409 afbd 6bc1 d3bc 389e aebd fa34 dfbd
00000050: 05ac cebc 75cd 62bd ff9e b0bc 2e30 683c
00000060: 9f8a af3d 3992 b0bd 11e5 f0bd 465e 40bd
00000070: 84dc ce3d df47 00be 7d05 2e3d e66a 9d3d
00000080: 3232 87bd 4cdd 13bd d15e ffbc b16f 98bd
00000090: 92ca a73d 48a1 9dbd 151b bcbc ccd1 c03d
000000a0: c817 21bd 75af 1cbd fbfc b1bd 5a1c e7bc
000000b0: 6273 66bc f94a 8ebd be8e 4bbd 0064 8e3d
000000c0: fa02 e0bc 2493 9ebd 5a22 9abd aeed 94bc
000000d0: 7e41 083d db46 d6bd 369a 293d 82a5 f73d
000000e0: e80c 3bbc e2ee fcbc 898c cd3d aafb d3bd
000000f0: 8a00 dd3d a71e 9ebd 5edf c83d 98bc 64bd
0.03102316 0.11804776 0.094212785 -0.038176477 -0.054080993 -0.04994103 -0.08566168 -0.055334624
-0.05305285 0.11774835 -0.04389269 -0.00849393 -0.11402593 -0.11769126 -0.10825316 0.0006319276
-0.08546677 -0.025849065 -0.085262716 -0.10898776 -0.02522851 -0.05537172 -0.02156019 0.014171643
0.08571362 -0.0862164 -0.11762441 -0.046964906 0.10100654 -0.12527417 0.042485703 0.07686405
-0.06601371 -0.036099717 -0.031173142 -0.074431784 0.08192934 -0.076967776 -0.022962132 0.094150156
-0.03932932 -0.038253266 -0.0869083 -0.028211761 -0.014065595 -0.06947894 -0.049696676 0.06952667
-0.02734517 -0.077429086 -0.07526083 -0.01817974 0.033265583 -0.10462733 0.041406833 0.12092115
-0.011416651 -0.030875627 0.100365706 -0.103507355 0.107911184 -0.0772069 0.09808229 -0.05584392

exp_avg f4 [64, 24]
00000000: b758 a840 689b a140 7534 9f3f b97f 3b40
00000010: 6620 493f 5b3d 5b3e 350b 0341 58bd ba40
00000020: 2996 ba3f 014d 253c b3c1 6340 db7c cf42
00000030: cd90 a740 c37d b342 0cd2 b640 8061 8f3f
00000040: 5701 a53f f98d 9040 463d 70c0 b1f5 223f
00000050: 7409 fcc1 9216 84be a302 95bd 6cf8 c1bc
00000060: e856 6dbf ad75 4f3e bb07 c53d 7469 b53f
00000070: 0fd9 7d3c 85bd ce3c 7907 fb3e 8360 5f3e
00000080: d34e f83d a2e9 cbba 7f1a b73f 7006 2941
00000090: d06b 74bf c3e1 ea40 a631 803e ce51 d13d
000000a0: 7555 073d 46be d03e a7eb 8d41 4e11 393f
000000b0: d06a 8741 7470 203d 3f06 7a3c 8e2d 303c
000000c0: c927 8d40 fd95 c0bf 3855 1cbe 7d7b b9c0
000000d0: 9e4c 153d 4b1b 01be d056 b1bf 82ed bbbf
000000e0: eaca 8ebe 4f87 f33b d685 c0c0 2c3d 8fc1
000000f0: d5a7 9040 229e d3c1 35f8 b7bd ddcc 07be
00000100: d761 63be 2167 90bf f3de 6ec2 fb90 cdbf
00000110: 009b abc2 207c 5fbe b6a4 cebd 917c 31bd
00000120: 27dc da3f 363d 08c0 ce43 cdbe b222 8dc0
00000130: 2a29 5ebe 235c 1cbe a7d9 2cc0 7720 16c0
00000140: 0bab 0dbf f84a 163b 2217 98c0 830f 0cc2
00000150: 4d9d ed3f e6ea 19c2 fbb7 82bf fac4 bfbe
00000160: db14 e8be dc35 c3bf 8680 58c2 74b0 f2bf
00000170: 0cbe 7ec2 5612 03be c798 42bd e5e8 d1bc
00000180: 684a 023f 6368 2e3f b2d4 703e 99ac 503f
00000190: b358 533d 8a87 143d 2375 a93f ea96 3b3f
000001a0: 3a31 8b3e b865 b63a a520 683f d15d 8541
000001b0: 412e f73e 2e31 4941 a50f 2a3f ca7a 683e
000001c0: cbdf 203e 7e2f 363f 87cb b040 f116 da3e
000001d0: 0cbb 5f3f d25e 93bc 80cf 1bbc 7076 3a3a
000001e0: cc1c f1bf 2dd2 81c0 ffb6 82bf d0d7 96c0
000001f0: 3037 85be ecc5 5cbe be21 d3c0 7125 8ac0
00000200: ae4e 9ebf 863a 9abb f5ce a3c0 8797 a4c2
00000210: 215c e2bf c6f8 b0c2 67c3 48c0 61eb 69bf
00000220: 90fb 7dbf 8c9d 78c0 941c a4c2 b9e1 01c0
00000230: 6ecb acc2 501b a6bd 2507 1bbd e4a5 f0bc
00000240: 52dc e63f e98a 6a41 027f a440 07a1 d241
00000250: b0db 563d 3df6 c63e 260f e141 8f61 6b41
00000260: 23f0 b040 d760 873c bc55 e041 bd55 b643
00000270: 824f c73d f257 bb43 3910 1441 9f10 9b40
00000280: 9c3c 5f40 cc99 9341 c7d6 c243 b327 8f41
00000290: a26b d343 a7b1 183f 6811 383e dd12 123e
000002a0: e0f1 523d 6b3e 3a3f 6d71 ec3d 58b9 723f
000002b0: df79 713e dcff af3d dae8 7f3f 35b8 763f
000002c0: e566 4e3e ca37 b8b9 91d1 a33f 2e08 2041
000002d0: a63a 633e 1e62 6a41 744e 013f 4c6a c93d
000002e0: a86b 843e 3152 693f 18c7 cac1 fcb1 08bf
000002f0: a7f7 8dc1 83a6 91bd 8c02 39bc f08c 0fbc
00000300: 3402 863f 690c 7e3f 00ed 8c3e 6ae9 1a3f
00000310: 4bf2 a0bc 9469 c73c 1677 d33f ed16 793f
00000320: e759 993e 245c 1a3b e928 363f 64bb a041
00000330: 6a8e 7a3f d4d2 1441 3a0d 993f 93dc 843e
00000340: 35dc 593e 5336 f53e 786a bbbf 5af6 893e
00000350: e390 93c1 36d1 88bd 76ed 01bd f097 ecbb
00000360: 5470 6640 736e e2c0 e0fb d3bf 9f5f 5fc1
00000370: 0620 a5be 5367 81be 68c5 25c1 bcbf ecc0
00000380: f452 f4bf 42ba 1a3b aa50 6bc1 e63c 00c3
00000390: fd48 8d40 ac24 03c3 e767 8fc0 639f c8bf
000003a0: ce5c b2bf 2aab c4c0 898f 28c3 db00 91c0
000003b0: c1a5 30c3 4577 9abe 1d11 f1bd ea19 90bd
000003c0: 4214 f63f 181c 3c40 2bd9 2f3f a08a 5f40
000003d0: 9f18 983e 255d 753e fc48 ad40 4320 4f40
000003e0: 8440 6d3f bb54 4f3b ab20 8040 1c2e 8442
000003f0: 9532 f33f f82b 4242 a45f 4840 2d2f 223f
5.2608294 5.0502205 1.2437884 2.9296706 0.7856506 0.21410124 8.190236 5.8356133
1.4577075 0.01008916 3.5586975 103.74386 5.236426 89.74563 5.7131405 1.120163
1.2891034 4.5173306 -3.7537398 0.63656145 -31.504616 -0.2579847 -0.072758935 -0.023678027
-0.92710733 0.20259733 0.09620615 1.4172807 0.015493645 0.025236854 0.4902914 0.2181416
0.121244095 -0.0015557299 1.4304961 10.564072 -0.9547701 7.340059 0.2503788 0.10220681
0.033040483 0.40770167 17.740065 0.7229203 16.927155 0.039169744 0.015260278 0.010753049
4.4111066 -1.5045773 -0.15266883 -5.7963243 0.03645002 -0.12608068 -1.3854618 -1.4681857
-0.27889186 0.0074319015 -6.0163374 -17.90487 4.5204873 -26.452213 -0.089828886 -0.13261743
-0.22205292 -1.1281472 -59.717724 -1.605987 -85.802734 -0.21824694 -0.1009001 -0.043331686
1.7098435 -2.128736 -0.40090793 -4.4104853 -0.2169539 -0.15269522 -2.7007844 -2.3457315
-0.55339116 0.0022932868 -4.752824 -35.01515 1.8563629 -38.479393 -1.0212396 -0.3745497
-0.4532841 -1.5250812 -54.12551 -1.8960099 -63.685593 -0.12799963 -0.04750898 -0.025623748
0.50894785 0.6812803 0.23518637 0.81513363 0.051598262 0.036262073 1.3238872 0.7327715
0.27185994 0.0013915813 0.9067481 16.670809 0.48277476 12.574507 0.6643012 0.2270309
0.1571037 0.7116622 5.5248446 0.42595628 0.87394786 -0.01798955 -0.009509921 0.00071129855
-1.8836913 -4.056906 -1.0212096 -4.7138443 -0.26018667 -0.21559876 -6.597869 -4.3170705
-1.2367761 -0.0047066836 -5.1190133 -82.29595 -1.7684366 -88.485886 -3.1369264 -0.91374785
-0.9921198 -3.884616 -82.05582 -2.029402 -86.39732 -0.08110678 -0.03784861 -0.029375978
1.8035986 14.658914 5.140504 26.328627 0.052455604 0.3885974 28.132397 14.711318
5.5293136 0.016525669 28.041862 364.66983 0.09731962 374.68707 9.253961 4.845779
3.4880743 18.450096 389.67795 17.894384 422.84088 0.59646076 0.1797539 0.14265008
0.0515002 0.7275149 0.11545072 0.9481406 0.23581646 0.08593723 0.9996468 0.9637483
0.20156439 -0.0003513678 1.279833 10.001997 0.22190341 14.648954 0.50510335 0.09834728
0.25863385 0.9114104 -25.347214 -0.5339658 -17.745924 -0.07111838 -0.011292111 -0.008761629
1.0469422 0.99237686 0.27524567 0.6051241 -0.019646784 0.024342336 1.6520717 0.97300607
0.29951403 0.0023553455 0.71156174 20.0915 0.97873557 9.301472 1.1957161 0.25949535
0.21275409 0.4789301 -1.4641867 0.26945764 -18.445745 -0.06680529 -0.0317206 -0.007220261
3.600606 -7.0759826 -1.6561241 -13.960845 -0.32250994 -0.25274143 -10.360695 -7.398405
-1.9087815 0.0023609553 -14.707193 -128.23788 4.4151597 -131.14325 -4.4814334 -1.5673641
-1.3934572 -6.145894 -168.56068 -4.5313544 -176.64748 -0.3016912 -0.11770842 -0.07036193
1.9224932 2.9392147 0.6869075 3.492836 0.29706284 0.23961313 5.415159 3.236344
0.9267657 0.0031636197 4.003988 66.09006 1.8999811 48.54294 3.1308374 0.63353235

exp_avg_sq f4 [64, 24]
00000000: a5c8 ab42 41f8 fa42 ab90 f840 05f5 5642
00000010: 7f33 f440 d03d cf3e 4107 6043 f67e 0343
00000020: deb4 0c41 cfe8 0b3a 09a7 8342 ebbb 1947
00000030: 2fa9 9942 a103 0e47 b159 ca42 9593 d440
00000040: 95f9 9040 ed28 9942 d5f5 a345 666b 0f42
00000050: bb57 5345 4700 0d3e d689 443c 9a91 063b
00000060: 7ffa 2f41 b776 3141 4c69 223f d7b1 bf40
00000070: 5dc1 4b3f cd76 143d bef9 8e41 c056 2641
00000080: c854 393f 92d6 6d38 510b ed40 9b73 e344
00000090: 4c7f 2241 a20d 3c45 90f2 b740 b85d 073f
000000a0: e663 c43e 3963 b840 ccde dd44 db02 a340
000000b0: 262c 4445 4d0f a63b cf2c b73a 1b63 c139
000000c0: 5908 1143 31cf be42 834b d440 1b6c 8242
000000d0: 32e6 c540 9156 b93e 64be 2d43 13c6 c942
000000e0: 618e e840 6014 503a 999c 9942 d348 ea46
000000f0: b646 0343 35f4 e246 0a19 9142 54dd b240
00000100: 408d 5a40 5134 8142 51ed df46 495d 1b42
00000110: 9739 dc46 7294 653d 1cf9 8f3c c0ee 673b
00000120: f851 3442 d7eb 0642 e379 1240 c8d2 d841
00000130: 17f4 f23f a6ea f13d 3715 7b42 b102 0b42
00000140: bbc6 2740 96ae 7d39 bdbd fe41 ec9d 2946
00000150: 76dc 2042 922d 2d46 5ccf c241 e8f1 f33f
00000160: 359b ab3f df6a c241 46ac 2b46 a900 5541
00000170: e254 2f46 0fa1 943c 1cf7 993b 89b9 9e3a
00000180: 3f30 0440 6698 1640 d86c 383e 0c38 bb3f
00000190: 2536 2c3e 6304 0a3c 93ce aa40 ed46 3740
000001a0: 6f13 553e 8dea 7837 fee7 e33f dc35 6344
000001b0: 7820 f13f 4725 1144 0404 e23f 0208 1e3e
000001c0: 640c d83d 401b c73f 88dc c943 2f43 a53f
000001d0: c381 2943 d1b0 cb3a 4055 f339 a128 1a38
000001e0: 68dd a741 8b1c ff41 01e3 e83f d69e db41
000001f0: d007 0040 8ee4 153e 6abf 7842 9636 0b42
00000200: 7c4d 1d40 2cbc ed38 8b58 0342 dd5d 2746
00000210: 20e9 9941 ef11 2d46 0662 bd41 d561 c03f
00000220: 9426 bf3f 6b48 a241 b512 1e46 4a6a 5841
00000230: 89b4 2446 197d 3a3c 8832 af3b 2453 9c3a
00000240: 0f53 b144 6440 8a44 4918 9742 d19b 5344
00000250: 45b5 3242 b21b 2d40 1528 fb44 f130 8d44
00000260: e8a6 a742 5c19 f03b fbc9 7444 9041 a548
00000270: 4d76 a044 0b65 ad48 4321 4944 57c4 7d42
00000280: 3c7b 1f42 2897 3544 0226 a948 7313 0c44
00000290: cfd5 b448 1b3c 003f 650c 113e eeb5 143d
000002a0: a208 0842 f7cf 2742 aea3 2640 71aa 6841
000002b0: d64f 1f40 598a e93d 4686 8f42 4faa 2d42
000002c0: 8414 3a40 e930 4639 64fc 8e41 d952 2a46
000002d0: a0d6 fa41 c26f 4246 b6a6 ef41 0bb0 0c40
000002e0: f66f b23f 8692 c341 bfcf 5f45 36ae 6f41
000002f0: e190 b945 1118 d43c d6fb 7e3b f9b8 613a
00000300: b417 8540 54d8 e440 309d d43e 4b53 6940
00000310: 7933 2c3f 6856 083d c5de 4841 c5fe 0241
00000320: e2d5 ff3e e6a3 0d38 842b 9440 2b28 0845
00000330: 0bd7 6f40 ff3f b544 3c7d b740 293d b53e
00000340: 3a37 8b3e 25d6 3c40 77da 8a44 295d 6f40
00000350: 97a9 1944 c766 df3b 4554 e93a efd9 2839
00000360: 335e b043 5a3a 9043 ad76 9141 d4f2 8143
00000370: bc8b 9c41 c1ef a13f 4824 0244 8103 9443
00000380: e04b ad41 81d5 ee3a 15e0 9843 85c5 aa47
00000390: 74b6 9f43 6271 b147 453a 5443 51c1 7141
000003a0: 5917 3941 924d 3a43 38d8 b247 9de5 f742
000003b0: ac76 ba47 3e3e 153e c2b0 383d 7fb2 423c
000003c0: 7fa3 0d42 824a 8342 0ed4 7c40 d0c6 0942
000003d0: eee6 9340 a023 723e a37a ed42 8b93 8e42
000003e0: f240 9440 ca9f 7b39 4356 2942 f3ae 9b46
000003f0: 7a03 0142 bf91 8246 5425 5842 0bd5 5340
85.891884 125.48487 7.7676597 53.739277 7.631286 0.40476847 224.02834 131.49594
8.794157 0.00053371204 65.82624 39355.918 76.83044 36355.63 101.17518 6.6430154
4.5304666 76.57993 5246.729 35.85488 3381.4832 0.13769637 0.011995753 0.0020533563
10.998656 11.091483 0.6344192 5.990459 0.79591924 0.03624611 17.871944 10.396179
0.7239499 5.6705037e-05 7.4076314 1819.6127 10.156078 3008.852 5.7483597 0.5287738
0.38357466 5.762112 1774.9624 5.0940986 3138.7593 0.005067742 0.0013975146 0.00036885668
145.03261 95.40467 6.6342177 65.21114 6.18435 0.36198857 173.74371 100.88686
7.26738 0.00079376064 76.805855 29988.412 131.27621 29050.104 72.548904 5.5895176
3.4148712 64.60218 28662.658 38.8411 28188.795 0.05604977 0.01757484 0.0035390109
45.080048 33.730312 2.2886894 27.10292 1.898074 0.11812334 62.770718 34.75263
2.6215045 0.00024192999 31.842646 10855.48 40.215294 11083.393 24.35125 1.9058199
1.340674 24.302183 10987.068 13.312661 11221.221 0.018143205 0.004698647 0.0012109737
2.0654447 2.3530517 0.1801027 1.4626479 0.1681753 0.008423897 5.3377166 2.863704
0.20808195 1.48365625e-05 1.7805173 908.84155 1.8838034 580.58246 1.7657475 0.15432742
0.10549238 1.5555191 403.7229 1.2911128 169.50688 0.0015540366 0.00046412088 3.67543e-05
20.983109 31.888937 1.8194276 27.452557 2.0004768 0.14637968 62.186928 34.803307
2.4578543 0.000113360904 32.836468 10711.466 19.23883 11076.483 23.672863 1.5029856
1.4933648 20.28536 10116.677 13.5259495 10541.134 0.011382365 0.0053466 0.0011926633
1418.5956 1106.0122 75.54743 846.43463 44.67702 2.7048154 2009.2526 1129.5294
83.82599 0.007327242 979.15594 338444.5 1283.6969 355112.34 804.5197 63.44174
39.870346 726.3618 346416.06 560.3039 370350.47 0.50091714 0.14164884 0.036306314
34.00843 41.95309 2.6037402 14.541612 2.4892478 0.11403341 71.76225 43.416317
2.9075022 0.00018900972 17.873238 10900.712 31.354797 12443.939 29.956402 2.1982448
1.3940418 24.446545 3580.9841 14.980032 5938.11 0.025890382 0.003890743 0.0008610632
4.1591434 7.1514072 0.41526175 3.6457088 0.6726604 0.03328553 12.554387 8.1872
0.49967867 3.3769662e-05 4.630312 2178.5105 3.7475002 1449.9999 5.7340374 0.35398224
0.27190572 2.9505703 1110.827 3.740061 614.64984 0.006817672 0.0017801604 0.00016102915
352.73593 288.45587 18.182947 259.8971 19.56823 1.2651292 520.5669 296.02737
21.662048 0.0018221588 305.75064 87435.04 319.4254 90850.766 212.22762 15.109696
11.5682 186.30301 91568.44 123.94846 95469.34 0.14574525 0.045090444 0.011883377
35.409664 65.64552 3.9504428 34.444153 4.6219397 0.23646402 118.739525 71.28817
4.632928 0.00023996751 42.33424 19927.475 32.253395 16712.873 54.036453 3.309878

exp_avg f4 [64]
00000000: 8a83 d83d 8514 ac3b 7547 80bc 58d8 11bd
00000010: 4343 873c d693 abbd ec19 b83e 879d 7e3c
00000020: d4e7 a73c c723 02be 4225 8a3d bf26 c1be
00000030: b8b1 1ebe ab73 073c bef8 adbd f198 a73d
00000040: fd61 8f3c b940 263c bad2 55bd 7a5c afbc
00000050: 5b3f d5ba a510 12bc 5108 afba 0005 153c
00000060: 1d10 93be b0d7 88bd 38ef 38bd 7633 d93a
00000070: 5fa7 023d 9b74 6cbd 8a14 0abe 63e2 353a
00000080: e600 bf3b b14a 973c a65a 853d 411c 98ba
00000090: f1af 76bd c542 403e 0466 11bd aebf 8c3c
000000a0: 5c97 d9bc 6ba3 52bc 6b84 aa3d 5b88 5ebe
000000b0: 9dee a93c 0984 d0bb f6ca d5bd e47f 77bd
000000c0: 650f 1dbe 48e7 0f3b 2b6a 373d a762 4c3c
000000d0: d409 24bd 3a8a 91be 1c9e 27bd 6fc6 973d
000000e0: c03d 90bc c2ef 3e3a a41c a63d 6591 f1be
000000f0: ce22 b03a d9c2 f6bc 0d8e 6f3b e82a 79bc
0.10571964 0.0052514696 -0.015659073 -0.035606712 0.016511565 -0.08377807 0.35957277 0.015540487
0.020496286 -0.1270896 0.067453876 -0.37724873 -0.15497482 0.0082673235 -0.084947094 0.08183468
0.01750278 0.010147267 -0.052202918 -0.021406401 -0.0016269492 -0.008915101 -0.0013353919 0.00909543
-0.2872323 -0.06681764 -0.04515001 0.0016571123 0.0318979 -0.05772839 -0.13484398 0.00069383363
0.0058289645 0.018468233 0.065114304 -0.00116051 -0.060226385 0.1877547 -0.03549768 0.017181244
-0.026561432 -0.012856345 0.08326038 -0.21731703 0.020743662 -0.006363396 -0.10439102 -0.0604247
-0.15337904 0.0021957923 0.044778984 0.012474692 -0.040048435 -0.2842577 -0.04092227 0.07410895
-0.01760757 0.00072836515 0.081109315 -0.4718124 0.0013438107 -0.030122207 0.0036553175 -0.015207984

exp_avg_sq f4 [64]
00000000: 743a 213d e31f 503b 8b19 f73c c699 353c
00000010: daf6 703a 1e18 2f3c 0195 b53e 97a6 4e3c
00000020: 52db 0f3b caa1 b93d c1ec a73c 88dc ba3e
00000030: b01c 533e 7123 ec3a 5e99 843d 6e49 5c3d
00000040: 5c88 e73b 7405 bb39 56e5 d33d c5ab 603b
00000050: de8d 0f3a e79f 3b3c 051c 193a 51db 723a
00000060: d464 6a3e 52e7 2a3d 665d ca3c 9ef3 003c
00000070: dfaa 0f3c 8353 5b3d 46ee 9b3d 7ec4 e93b
00000080: a7b9 bb39 0baf c73a 5360 fd3b e3b9 6b3a
00000090: 8c95 e93c f053 ee3d 8a26 033c 7af2 0a3d
000000a0: 5bf2 063c 553d 9b3c c5c2 fc3c aac8 493e
000000b0: 3f0c 9f3b 88e1 563b 1c2a ec3c 905d a73d
000000c0: 9360 943d abca 713a 480b da3b b078 063b
000000d0: e686 4c3c ee22 fb3e 7ba4 843b 6d5f 113d
000000e0: 9420 9c3c c283 083b 493a e53c 1399 e03e
000000f0: e7bb 733b 57d2 a83c be12 b13c 3722 3f3b
0.039362386 0.0031757287 0.030163547 0.011084026 0.0009192057 0.010686902 0.35465243 0.01261296
0.0021950793 0.09064062 0.020498635 0.36496377 0.20616412 0.0018015933 0.06474565 0.053780966
0.007065816 0.00035671482 0.10346477 0.003428207 0.0005476157 0.011451698 0.0005840662 0.0009264248
0.22890025 0.04172451 0.024702739 0.007870583 0.008768766 0.05354644 0.076138064 0.0071340194
0.0003580574 0.0015234662 0.00773243 0.0008992238 0.028513692 0.116371036 0.008004794 0.03392265
0.008236493 0.018950144 0.030854592 0.19705454 0.004853755 0.0032788236 0.028828673 0.081721425
0.072449826 0.000922362 0.006654177 0.0020518713 0.012483334 0.49050087 0.004047928 0.035491396
0.019058503 0.0020830487 0.027981894 0.43866786 0.0037190856 0.02060811 0.021615382 0.002916468
