self_avoidance_gym/pth/SAC_actor.pth (torch, 54541 bytes, 58 tensors)

policy_mean f4 [63]
0.0 0.0 0.0 0.0 0.0 0.0 0.0 0.0
0.0 0.0 0.0 0.0 0.0 0.0 0.0 0.0
0.0 0.0 0.0 0.0 0.0 0.0 0.0 0.0
0.0 0.0 0.0 0.0 0.0 0.0 0.0 0.0
0.0 0.0 0.0 0.0 0.0 0.0 0.0 0.0
0.0 0.0 0.0 0.0 0.0 0.0 0.0 0.0
0.0 0.0 0.0 0.0 0.0 0.0 0.0 0.0
0.0 0.0 0.0 0.0 0.0 0.0 0.0
00000000: 0000 0000 0000 0000 0000 0000 0000 0000
00000010: 0000 0000 0000 0000 0000 0000 0000 0000
00000020: 0000 0000 0000 0000 0000 0000 0000 0000
00000030: 0000 0000 0000 0000 0000 0000 0000 0000
00000040: 0000 0000 0000 0000 0000 0000 0000 0000
00000050: 0000 0000 0000 0000 0000 0000 0000 0000
00000060: 0000 0000 0000 0000 0000 0000 0000 0000
00000070: 0000 0000 0000 0000 0000 0000 0000 0000
00000080: 0000 0000 0000 0000 0000 0000 0000 0000
00000090: 0000 0000 0000 0000 0000 0000 0000 0000
000000a0: 0000 0000 0000 0000 0000 0000 0000 0000
000000b0: 0000 0000 0000 0000 0000 0000 0000 0000
000000c0: 0000 0000 0000 0000 0000 0000 0000 0000
000000d0: 0000 0000 0000 0000 0000 0000 0000 0000
000000e0: 0000 0000 0000 0000 0000 0000 0000 0000
000000f0: 0000 0000 0000 0000 0000 0000

policy_std f4 [63]
1.0 1.0 1.0 1.0 1.0 1.0 1.0 1.0
1.0 1.0 1.0 1.0 1.0 1.0 1.0 1.0
1.0 1.0 1.0 1.0 1.0 1.0 1.0 1.0
1.0 1.0 1.0 1.0 1.0 1.0 1.0 1.0
1.0 1.0 1.0 1.0 1.0 1.0 1.0 1.0
1.0 1.0 1.0 1.0 1.0 1.0 1.0 1.0
1.0 1.0 1.0 1.0 1.0 1.0 1.0 1.0
1.0 1.0 1.0 1.0 1.0 1.0 1.0
00000000: 0000 803f 0000 803f 0000 803f 0000 803f
00000010: 0000 803f 0000 803f 0000 803f 0000 803f
00000020: 0000 803f 0000 803f 0000 803f 0000 803f
00000030: 0000 803f 0000 803f 0000 803f 0000 803f
00000040: 0000 803f 0000 803f 0000 803f 0000 803f
00000050: 0000 803f 0000 803f 0000 803f 0000 803f
00000060: 0000 803f 0000 803f 0000 803f 0000 803f
00000070: 0000 803f 0000 803f 0000 803f 0000 803f
00000080: 0000 803f 0000 803f 0000 803f 0000 803f
00000090: 0000 803f 0000 803f 0000 803f 0000 803f
000000a0: 0000 803f 0000 803f 0000 803f 0000 803f
000000b0: 0000 803f 0000 803f 0000 803f 0000 803f
000000c0: 0000 803f 0000 803f 0000 803f 0000 803f
000000d0: 0000 803f 0000 803f 0000 803f 0000 803f
000000e0: 0000 803f 0000 803f 0000 803f 0000 803f
000000f0: 0000 803f 0000 803f 0000 803f

fc1.weight f4 [16, 63]
-0.028157404 0.016258705 -0.04520312 -0.089637965 0.09891055 -0.11842248 -0.061026912 0.0062509333
-0.08626184 0.103373095 -0.110520996 0.061151467 0.015873583 -0.040373165 -0.08090475 0.029885383
0.046561033 -0.119531155 0.041860953 -0.07596722 -0.02191429 0.10754217 0.030793883 -0.0018657655
-0.0029624572 -0.08769824 0.061486814 -0.117011935 0.071204506 -0.118939325 -0.069729574 0.040457368
-0.096907884 -0.028417032 -0.055984113 0.01287383 0.05960183 0.101367176 -0.04878557 -0.043472357
0.04885813 -0.009687519 0.047714714 0.04252569 -0.0023832112 0.012242681 0.053179175 -0.08999125
-0.07030836 0.076166466 -0.036022436 0.015775468 -0.052590944 0.016714834 -0.11611636 0.027474338
-0.050866075 -0.06927893 -0.120065756 0.11753495 -0.04966263 -0.10920192 -0.02331795 0.08438783
0.06128132 -0.022092117 0.03566842 0.0532062 0.066842556 0.03291091 0.007056425 0.093980424
-0.097542815 0.04172796 -0.10129985 0.007069861 -0.059792556 0.07222336 -0.035842244 -0.014246391
-0.03539859 -0.11727996 0.032656897 0.044213418 -0.025917258 0.03918234 0.09560824 -0.100443035
0.02678158 0.020677501 0.07872205 -0.07156079 -0.063124746 0.08340735 -0.07631844 -0.053322595
0.07120366 0.0028218299 0.062254265 0.089816675 0.00031712896 -0.021655392 -0.056181006 0.037917618
0.075837955 -0.103346825 -0.062180795 -0.00443914 0.06950132 0.107240446 0.08222784 0.10483133
0.05142431 0.06749832 0.11725438 -0.010132142 -0.002257917 0.046134163 0.0926932 -0.09405474
0.041651033 -0.018655824 0.07797025 0.0014600387 0.0389018 0.0034213653 0.05326483 -0.07373264
0.05861312 -0.11088347 -0.06990183 0.08978716 -0.03907697 0.0414342 -0.005107572 0.08069041
-0.056162238 0.00033798418 0.11875308 -0.057789557 0.04818489 -0.04713892 -0.089286834 0.03270609
0.11562313 0.081833825 0.010785734 -0.0130097885 -0.043961845 0.0112266075 -0.011644914 -0.11462122
0.020557368 -7.480786e-05 -0.05589849 -0.030624928 0.03023118 -0.086525746 -0.08537402 0.09188585
-0.06176025 0.0013729306 0.109314576 -0.101649895 -0.048109524 0.0435135 -0.0986623 -0.061404616
-0.10832321 0.034296025 0.017869258 0.059232846 -0.064861774 0.101926625 -0.014412142 -0.035071395
-0.050680768 -0.031692065 0.033227663 0.04139978 0.08149311 0.115635276 0.022336751 -0.09948443
-0.03074822 -0.021378672 0.081798956 0.0008568947 0.061552156 -0.11268331 0.036440108 0.05949106
0.0093878945 0.062467024 0.06375931 0.05328252 -0.07598145 -0.05530388 0.085947976 0.11267803
0.028919125 -0.111740224 0.07894524 -0.025985751 -0.012281516 -0.068996206 0.0414958 0.122948825
-0.0092301555 -0.112009086 -0.09741205 0.11734771 -0.04610599 0.05380177 -0.092119396 -0.11096189
0.046004273 -0.051691394 -0.004010711 -0.039350923 -0.099319 0.032321174 0.045800257 -0.04284903
0.034032308 0.11781444 -0.008278697 0.0835848 -0.0813288 -0.043511994 -0.09722004 0.02774973
-0.10133711 0.106848925 -0.069977246 -0.09918487 -0.015788712 -0.019041244 0.005885169 0.07812027
0.08880403 -0.039037123 0.11998533 0.056207903 -0.05522207 -0.0372685 0.06365865 -0.06646443
0.064669386 -0.09715462 -0.11642635 0.008766558 0.029904805 0.060564682 -0.020225184 -0.079278626
00000000: 5baa e6bc fa30 853c e826 39bd 1c94 b7bd
00000010: 9d91 ca3d 7c87 f2bd 5bf7 79bd a1d4 cc3b
00000020: 0caa b0bd 46b5 d33d d558 e2bd f679 7a3d
00000030: 5109 823c 555e 25bd 64b1 a5bd 31d2 f43c
00000040: c8b6 3e3d c0cc f4bd 6476 2b3d b494 9bbd
00000050: 9985 b3bc 123f dc3d 7443 fc3c b48c f4ba
00000060: c925 42bb 239b b3bd 99d9 7b3d f4a3 efbd
00000070: abd3 913d 7696 f3bd 61ce 8ebd a0b6 253d
00000080: a477 c6bd d6ca e8bc 994f 65bd c2ec 523c
00000090: 0c21 743d 9899 cf3d 61d3 47bd 1210 32bd
000000a0: 761f 483d 66b8 1ebc 8170 433d 6b2f 2e3d
000000b0: a62f 1cbb 8795 483c 68d2 593d 554d b8bd
000000c0: d4fd 8fbd 2afd 9b3d 438c 13bd 8e3b 813c
000000d0: 9a69 57bd 8ced 883c 6ace edbd dd11 e13c
000000e0: f258 50bd 1de2 8dbd 09e5 f5bd 2ab6 f03d
000000f0: 0b6b 4bbd 42a5 dfbd 4905 bfbc 87d3 ac3d
00000100: 1f02 7b3d 87fa b4bc 0d19 123d bfee 593d
00000110: c0e4 883d 97cd 063d 9539 e73b cf78 c03d
00000120: 87c4 c7bd f0ea 2a3d 4c76 cfbd 4baa e73b
00000130: 0ae9 74bd d7e9 933d 51cf 12bd b269 69bc
00000140: 1dfe 10bd 7a30 f0bd 3dc3 053d 2119 353d
00000150: 6e50 d4bc a97d 203d 41ce c33d 14b5 cdbd
00000160: 0b65 db3c dd63 a93c 0739 a13d 778e 92bd
00000170: 8c47 81bd 79d1 aa3d d84c 9cbd cb68 5abd
00000180: 39d3 913d 73ee 383b 54fe 7e3d cef1 b73d
00000190: 5444 a639 a666 b1bc 0e1e 66bd 814f 1b3d
000001a0: ee50 9b3d 80a7 d3bd 4ab1 7ebd 3576 91bb
000001b0: b556 8e3d e1a0 db3d 1267 a83d cfb1 d63d
000001c0: 4ca2 523d 8f3c 8a3d 1023 f03d 4901 26bc
000001d0: 90f9 13bb 2df7 3c3d efd5 bd3d c69f c0bd
000001e0: 469a 2a3d 19d4 98bc deae 9f3d c55e bf3a
000001f0: 7e57 1f3d fc38 603b 392c 5a3d 2301 97bd
00000200: 5014 703d df16 e3bd b128 8fbd 55e2 b73d
00000210: 2c0f 20bd e8b6 293d 6b5d a7bb 0441 a53d
00000220: 600a 66bd 7833 b139 d134 f33d beb4 6cbd
00000230: 855d 453d bd14 41bd 04dc b6bd d2f6 053d
00000240: d2cb ec3d 7e98 a73d a6b6 303c 0227 55bc
00000250: 5611 34bd ceef 373c 4fca 3ebc 88be eabd
00000260: ed67 a83c 2ae2 9cb8 d1f5 64bd 21e1 fabc
00000270: 61a7 f73c 6934 b1bd 93d8 aebd a62e bc3d
00000280: 51f8 7cbd e8f3 b33a 52e0 df3d d22d d0bd
00000290: 7e0e 45bd 363b 323d 760f cabd 6883 7bbd
000002a0: 8fd8 ddbd fd79 0c3d 8d62 923c 249e 723d
000002b0: 40d6 84bd e8be d03d e820 6cbc 06a7 0fbd
000002c0: a396 4fbd 8acf 01bd bb19 083d d192 293d
000002d0: dce5 a63d 30d2 ec3d 90fb b63c 7ebe cbbd
000002e0: b1e3 fbbc 5322 afbc 3686 a73d 3ba1 603a
000002f0: 1d1e 7c3d 82c6 e6bd 3942 153d e6ac 733d
00000300: afcf 193c 6cdd 7f3d 3e94 823d c63e 5a3d
00000310: 2a9c 9bbd 5286 62bd 7e05 b03d bdc3 e63d
00000320: cde7 ec3c 0fd8 e4bd 0bae a13d 12e0 d4bc
00000330: 6938 49bc e24d 8dbd 80f7 293d 98cc fb3d
00000340: 143a 17bc 0565 e5bd f87f c7bd ff53 f03d
00000350: a2d9 3cbd 3f5f 5c3d 18a9 bcbd fd3f e3bd
00000360: fa6e 3c3d 5bba 53bd 486c 83bb 6f2e 21bd
00000370: c367 cbbd 3563 043d 0d99 3b3d 7782 2fbd
00000380: 7665 0b3d b248 f13d 5fa3 07bc 822e ab3d
00000390: b78f a6bd a239 32bd 4d1b c7bd 6753 e33c
000003a0: d589 cfbd 9cd3 da3d 3b50 8fbd 7021 cbbd
000003b0: 5457 81bc 62fc 9bbc 60d8 c03b 85fd 9f3d
000003c0: e3de b53d 64e5 1fbd deba f53d 423a 663d
000003d0: 8a30 62bd dba6 18bd 775f 823d 811e 88bd
000003e0: 6271 843d 00f9 c6bd f070 eebd 9ca1 0f3c
000003f0: ecfa f43c ac12 783d 49af a5bc d55c a2bd

fc1.bias f4 [16]
3.7369737e-05 -0.05444515 0.11376439 0.038514815 -0.11800508 0.009302181 -0.018293614 -0.09347721
0.08077777 -1.2244734e-05 -0.040852167 0.060769737 0.07659857 0.040953904 0.055438317 0.049135618
00000000: 73bd 1c38 e101 5fbd 4efd e83d b6c1 1d3d
00000010: a6ac f1bd 2d68 183c 7ddc 95bc fb70 bfbd
00000020: d16e a53d bb6e 4db7 9a54 27bd b0e9 783d
00000030: b6df 9c3d 48bf 273d 4a13 633d 6e42 493d

fc2.weight f4 [16, 16]
-0.18182597 0.101623714 0.026654799 0.006205365 -0.18618412 0.14545423 0.107591115 0.08136277
0.08314416 -0.12924644 -0.06216249 -0.14050555 -0.09742055 0.15894526 -0.20710698 -0.14509223
0.13739412 0.008884446 -0.03333112 0.19643803 -0.030913223 0.053010378 0.017437026 0.16979083
-0.029984998 0.22344944 -0.1431619 -0.012160384 -0.19561365 0.19964954 -0.076465696 0.15528125
0.22216558 -0.2324815 0.15726224 -0.15748167 -0.18807925 0.2251737 -0.051913813 0.1754222
-0.17062126 0.1901334 -0.038549174 -0.20069093 -0.21828604 0.047514062 0.044946738 0.12138539
0.20423736 0.21133362 0.2116395 0.16564539 0.18724051 -0.05290897 0.023784783 0.14217114
-0.12651439 -0.17570767 0.1509418 -0.10156737 -0.14043571 -0.20663574 0.16871971 -0.115042575
-0.096489914 -0.14237618 -0.112576775 -0.014835751 0.14503087 -0.13311575 -0.15852383 -0.18740892
-0.24339142 0.19533776 -0.13274786 -0.08670756 -0.089074485 0.012764788 0.031355258 -0.15140927
-0.074953236 -0.19473629 -0.19259763 0.13661067 -0.03704285 -0.195006 -0.17029107 -0.13980655
-0.16679746 -0.0061202412 0.23594327 -0.11621669 -0.070521064 -0.080597594 -0.07804586 0.034839004
0.09292089 0.024748541 0.016475074 -0.16328523 -0.17567462 -0.15957314 0.039744698 -0.203578
0.065545 -0.17609285 -0.23649229 0.21134047 0.0063814945 -0.098318115 -0.1320394 -0.031448387
-0.16058654 -0.037207115 0.14201339 -0.07894676 0.16698766 0.052526962 0.20737436 -0.0054611773
0.016920185 -0.19267629 0.17156126 0.11717833 -0.08189685 0.013582954 0.16240677 0.21219109
-0.23630781 0.16854405 -0.050342713 0.2134835 -0.0572232 0.20653611 -0.187 0.20731293
-0.21959837 0.22720736 -0.021793444 -0.104871325 -0.20746942 -0.09094563 0.20493011 -0.22711726
0.1339549 0.18115272 0.12029092 0.045752324 0.09815412 0.08927265 0.092734456 -0.016852092
0.070545785 -0.10267514 0.09180326 -0.1499788 -0.20168065 -0.13372913 0.21535264 0.117263466
0.07063477 -0.19822966 -0.23656613 0.18785392 -0.16363868 -0.23528315 0.22337146 -0.21330996
-0.15372783 0.11219748 -0.17122793 -0.19767992 -0.16958958 -0.24390548 0.040100906 -0.08078686
0.09186407 0.13265564 0.20474145 0.11400598 0.10373001 0.068820186 -0.058430035 0.006293776
-0.11458087 -0.041378707 0.12563196 -0.20892674 -0.09423845 -0.10963765 0.11154033 -0.05310954
0.03348733 -0.08634327 0.20890553 -0.14237171 0.0027641808 0.06079971 -0.024744302 -0.14206623
-0.053114846 0.03728201 0.028935215 -0.04380717 -0.071022004 -0.10477565 -0.14381088 -0.15539677
0.13854058 -0.21802662 -0.23513806 0.192399 0.1388177 0.10012798 0.16936558 0.06246045
-0.06656552 0.21688528 -0.027608259 0.22066525 -0.14104365 0.11479825 -0.13988064 0.06811732
0.027081694 0.209162 -0.18893427 -0.004952227 -0.019184679 -0.12825191 -0.1438184 0.22673607
0.005159698 0.0010514237 0.060187068 -0.06782866 -0.13147251 0.13957705 0.21664691 -0.14806521
0.22738734 0.12746613 0.014016991 0.1265086 -0.07581032 0.15308219 -0.17926747 -0.08895009
-0.04368314 -0.16405301 -0.22154629 0.22187456 -0.072789714 0.021751408 0.01895798 -0.0008713023
00000000: 9630 3abe 1820 d03d 2a5b da3c 6056 cb3b
00000010: 0da7 3ebe f4f1 143e bb58 dc3d 86a1 a63d
00000020: 7c47 aa3d 2e59 04be 189e 7ebd b0e0 0fbe
00000030: 6d84 c7bd 8cc2 223e da13 54be 0f93 14be
00000040: 0bb1 0c3e 1190 113c 3686 08bd 0d27 493e
00000050: ba3d fdbc 6921 593d 18d8 8e3c a6dd 2d3e
00000060: 19a3 f5bc eecf 643e 0899 12be 593c 47bc
00000070: f24e 48be ee70 4c3e 0c9a 9cbd 0c02 1f3e
00000080: 607f 633e a10f 6ebe 5a09 213e e042 21be
00000090: d997 40be ef93 663e 94a3 54bd e1a1 333e
000000a0: 57b7 2ebe 54b2 423e bde5 1dbd ec81 4dbe
000000b0: 6086 5fbe 1b9e 423d 121a 383d e798 f83d
000000c0: 9923 513e d767 583e 06b8 583e f29e 293e
000000d0: fabb 3f3e 13b7 58bd 4ed8 c23c 5095 113e
000000e0: fd8c 01be b6ec 33be 7d90 1a3e 8e02 d0bd
000000f0: 61ce 0fbe 5298 53be dcc4 2c3e 719b ebbd
00000100: 819c c5bd 10cb 11be a78e e6bd a611 73bc
00000110: f982 143e 7f4f 08be 1254 22be 20e8 3fbe
00000120: 9a3b 79be 9f06 483e 0eef 07be bc93 b1bd
00000130: af6c b6bd 6723 513c 5f6e 003d 080b 1bbe
00000140: 1581 99bd f368 47be 5038 45be abe3 0b3e
00000150: 3eba 17bd a7af 47be c860 2ebe 7329 0fbe
00000160: f4cc 2abe 4e8c c8bb 1d9b 713e 0403 eebd
00000170: 596d 90bd 5a10 a5bd 82d6 9fbd 58b3 0e3d
00000180: 4f4d be3d 74bd ca3c bcf6 863c 3e34 27be
00000190: 0ce4 33be 2467 23be 56cb 223d c076 50be
000001a0: 753c 863d af51 34be 092b 72be a369 583e
000001b0: db1b d13b 025b c9bd 5635 07be 06d0 00bd
000001c0: cc70 24be 7d66 18bd f56b 113e d7ae a1bd
000001d0: d0fe 2a3e 8326 573d f259 543e adf3 b2bb
000001e0: 339c 8a3c ef4c 45be c1ad 2f3e 31fb ef3d
000001f0: 89b9 a7bd 0a8b 5e3c f64d 263e 9f48 593e
00000200: adfa 71be d096 2c3e 2934 4ebd 6b9b 5a3e
00000210: e062 6abd 347e 533e ee7c 3fbe d749 543e
00000220: 65de 60be 0ca9 683e 2a88 b2bc c7c6 d6bd
00000230: dd72 54be b441 babd 33d9 513e 6d91 68be
00000240: 792b 093e 1980 393e 165b f63d ca66 3b3d
00000250: 0705 c93d 94d4 b63d 90eb bd3d 660d 8abc
00000260: 4f7a 903d 5847 d2bd 5903 bc3d 0b94 19be
00000270: 5f85 4ebe 4af0 08be 6785 5c3e d427 f03d
00000280: f6a8 903d b7fc 4abe 643e 72be c75c 403e
00000290: e690 27be 11ee 70be 7dbb 643e ed6d 5abe
000002a0: d46a 1dbe cbc7 e53d 6056 2fbe 9b6c 4abe
000002b0: e4a8 2dbe 5cc2 79be d940 243d 9573 a5bd
000002c0: 3b23 bc3d e1d6 073e bea7 513e f87b e93d
000002d0: 6670 d43d 99f1 8c3d 5554 6fbd 053c ce3b
000002e0: 60a9 eabd b87c 29bd aaa5 003e e4f0 55be
000002f0: 1700 c1bd b489 e0bd 426f e43d 6489 59bd
00000300: 032a 093d bed4 b0bd 55eb 553e e4c9 11be
00000310: 4227 353b 1e09 793d 90b4 cabc cf79 11be
00000320: f48e 59bd 05b5 183d 8b09 ed3c 266f 33bd
00000330: fc73 91bd 9e94 d6bd 2943 13be 5520 1fbe
00000340: 95dd 0d3e 5f42 5fbe 08c8 70be 3e04 453e
00000350: 3a26 0e3e e60f cd3d 2c6e 2d3e 87d6 7f3d
00000360: 8153 88bd 2d17 5e3e b72a e2bc 12f6 613e
00000370: bf6d 10be 581b eb3d df3c 0fbe 1881 8b3d
00000380: 6eda dd3c 902e 563e fc77 41be 4b46 a2bb
00000390: 3029 9dbc 7854 03be 2145 13be 802d 683e
000003a0: af12 a93b edcf 893a b786 763d c1e9 8abd
000003b0: bba0 06be 49ed 0e3e b0d8 5d3e 689e 17be
000003c0: 3ad8 683e 7b86 023e 85a7 653c 788b 013e
000003d0: 7142 9bbd 94c1 1c3e e491 37be 772b b6bd
000003e0: 18ed 32bd 83fd 27be 08dd 62be 1633 633e
000003f0: c612 95bd 0230 b23c c44d 9b3c 1c68 64ba

fc2.bias f4 [16]
-0.09797534 -0.19995365 0.020980207 0.07169413 -0.1303376 0.13070743 -0.029480997 0.10542523
0.18168008 -0.078746766 -0.08481873 -0.08896454 -0.056000818 -0.07650515 0.12100697 -0.062827975
00000000: 4ca7 c8bd a6c0 4cbe afde ab3c 5fd4 923d
00000010: 3877 05be 2bd8 053e 2282 f1bc 2fe9 d73d
00000020: 580a 3a3e fc45 a1bd 71b5 adbd 0a33 b6bd
00000030: 1d61 65bd bbae 9cbd 81d2 f73d f4ab 80bd

fc3.weight f4 [16, 16]
0.19800383 -0.07031126 0.2435899 0.092932716 0.08080527 -0.08196774 0.10215017 -0.10842531
-0.17203352 0.030562028 -0.09452689 0.006379251 -0.06446941 -0.23578134 0.035166714 0.0012817737
0.09802914 0.059156284 0.026291078 0.07412344 -0.14376266 0.087842435 -0.13497482 -0.059014533
0.02759145 0.17381942 0.13690579 -0.19101147 -0.1578985 0.14289346 -0.1029273 0.18088579
-0.14877221 0.02131712 -0.14126804 0.059702348 0.052238125 0.07921552 -0.0051158764 0.23375192
-0.05248961 0.11834506 0.20927882 -0.09814988 0.038009007 0.05609258 0.12124121 -0.085112885
-0.21970366 -0.18949525 0.135134 -0.025702279 0.069495626 -0.2263588 -0.029834569 0.14286637
-0.060822982 -0.18322924 0.049008552 -0.06399832 -0.17626683 -0.06667293 -0.048252318 0.051554374
-0.15955763 0.071986295 -0.13717903 0.060887087 0.14442667 -0.14892873 0.2418819 0.036469523
-0.18567221 -0.08751014 -0.2074734 0.11940454 0.197519 -0.028253416 -0.09669007 0.085560374
0.042019565 0.15160415 -0.22987662 -0.19577393 -0.11912861 0.056139458 -0.0748855 0.22643217
0.21634245 -0.19960515 0.090961896 -0.016931603 -0.19429907 0.24293129 0.23669142 0.09106176
-0.08381337 0.108646624 -0.2348611 -0.16508278 0.097835645 0.1767708 -0.17246726 -0.23961617
0.012021614 0.19883557 -0.14121322 -0.00071539346 0.20922795 -0.03825031 -0.01399861 0.018162284
-0.1372884 0.17555253 0.051695462 -0.06484197 0.04614785 0.05629785 0.11440505 0.18904611
0.09259739 -0.033037264 -0.0646974 -0.21215735 -0.1513756 0.24389724 -0.09616812 0.19645402
-0.039490692 0.20841286 -0.11554043 0.01917162 0.15312408 -0.19817875 -0.057656478 -0.0032543822
-0.0697999 0.104883574 -0.020068308 -0.013684925 0.12680653 0.042457294 -0.07266465 0.058724783
-0.19557828 -0.20777266 -0.016558215 0.16711783 0.02124549 -0.21791932 -0.11665951 0.1970208
0.029374875 -0.21287337 0.008807494 -0.23441768 0.0014256309 -0.04421473 0.2123742 0.21002907
0.031220078 0.015711648 -0.1829074 -0.10370795 0.13167082 0.093341306 0.21549064 0.0971457
-0.024336929 -0.14569576 -0.04399978 -0.006032906 0.19392751 -0.051054586 -0.01007304 -0.22003672
0.2125152 -0.18446088 -0.15029295 -0.10000887 0.11854924 -0.20676474 0.13426396 0.23115987
0.1895802 -0.12318592 0.114513844 0.23846531 0.028703975 0.16959208 0.018700203 0.038767207
-0.06876242 0.18124808 0.06442836 0.20516337 -0.02411911 0.10066671 0.045457914 0.0028676097
-0.049050275 0.22872339 -0.14418285 0.20249793 -0.04293964 -0.03317757 -0.045701317 0.2420601
0.060074423 -0.16771044 -0.17957635 0.0055510323 -0.20616952 -0.2324765 -0.0061058374 0.19436169
0.23024322 -0.15826716 0.1244135 -0.13805804 0.10133533 0.09076749 0.18541782 -0.11777483
-0.016424472 -0.23089339 -0.030319013 -0.07772079 0.05899711 -0.20061006 0.17665504 -0.002390717
-0.113383435 0.23189819 -0.078049734 0.15226518 0.09054131 0.08480336 -0.09058144 0.19322807
-0.15798153 -0.1914189 0.23548421 -0.22167228 0.026340172 0.019664405 0.21707022 0.0019827406
0.102484815 0.14803225 -0.23964514 0.051164877 0.07203556 -0.13083702 -0.045050997 0.072704956
00000000: 84c1 4a3e 5aff 8fbd a16f 793e 8253 be3d
00000010: 3c7d a53d b4de a7bd 1c34 d13d 170e debd
00000020: 8e29 30be 385d fa3c 5097 c1bd 0909 d13b
00000030: 8a08 84bd aa70 71be f90a 103d 3001 a83a
00000040: 80c3 c83d dc4d 723d 6360 d73c 08ce 973d
00000050: 8536 13be bce6 b33d d736 0abe 39b9 71bd
00000060: 7707 e23c b8fd 313e 0831 0c3e 8398 43be
00000070: 25b0 21be aa52 123e 8ccb d2bd 203a 393e
00000080: be57 18be 3ea1 ae3c 92a8 10be 738a 743d
00000090: a5f7 553d bf3b a23d 15a3 a7bb aa5c 6f3e
000000a0: 58ff 56bd e55e f23d 304d 563e ce02 c9bd
000000b0: 55af 1b3d 55c1 653d 504d f83d aa4f aebd
000000c0: fff9 60be 0b0b 42be 9160 0a3e 968d d2bc
000000d0: b953 8e3d 9aca 67be a067 f4bc 904b 123e
000000e0: 8521 79bd 72a0 3bbe 31bd 483d 8d11 83bd
000000f0: 4b7f 34be d18b 88bd 39a4 45bd ae2a 533d
00000100: 1363 23be 8d6d 933d a978 0cbe bd64 793d
00000110: 96e4 133e c680 18be e4af 773e 1161 153d
00000120: db20 3ebe 8438 b3bd e873 54be 5e8a f43d
00000130: 6c42 4a3e b573 e7bc 7205 c6bd 473a af3d
00000140: b51c 2c3d 1e3e 1b3e c764 6bbe f678 48be
00000150: b3f9 f3bd 7df2 653d 925d 99bd d6dd 673e
00000160: e088 5d3e 4b65 4cbe 3b4a ba3d 25b4 8abc
00000170: 56f6 46be fbc2 783e 3c5f 723e 977e ba3d
00000180: 58a6 abbd 1f82 de3d 6e7f 70be 760b 29be
00000190: 0e5e c83d 6803 353e 429b 30be f15d 75be
000001a0: 4ef6 443c 8d9b 4b3e 339a 10be 3e89 3bba
000001b0: da3f 563e 5bac 1cbd 6d5a 65bc 12c9 943c
000001c0: 5595 0cbe 0bc4 333e 9fbe 533d decb 84bd
000001d0: 8705 3d3d 9398 663d 324d ea3d 4e95 413e
000001e0: b3a3 bd3d 1552 07bd 1280 84bd c73f 59be
000001f0: 3502 1bbe 33c0 793e cbf3 c4bd 3e2b 493e
00000200: fec0 21bd 2e6a 553e 76a0 ecbd cd0d 9d3c
00000210: 8fcc 1c3e 5fef 4abe 3329 6cbd 7947 55bb
00000220: 40f3 8ebd 33cd d63d 4b66 a4bc bc36 60bc
00000230: 92d9 013e b3e7 2d3d 34d1 94bd 6689 703d
00000240: ac45 48be 5bc2 54be 18a5 87bc f020 2b3e
00000250: 060b ae3c 3e26 5fbe 2eeb eebd d2bf 493e
00000260: 94a3 f03c 7afb 59be 4f4d 103c 300b 70be
00000270: 3cdc ba3a 811a 35bd 9f78 593e dc11 573e
00000280: 40c1 ff3c b7b5 803c 144c 3bbe d564 d4bd
00000290: b7d4 063e ba29 bf3d 94a9 5c3e 53f4 c63d
000002a0: 3d5e c7bc 4531 15be 1d39 34bd afaf c5bb
000002b0: ef94 463e 9d1e 51bd 6409 25bc 4e51 61be
000002c0: 969d 593e 50e3 3cbe 65e6 19be 73d1 ccbd
000002d0: f2c9 f23d 23ba 53be 7e7c 093e 2cb5 6c3e
000002e0: 5021 423e e648 fcbd 3c86 ea3d 4030 743e
000002f0: 9924 eb3c 8ca9 2d3e 2b31 993c 5dca 1e3d
00000300: 50d3 8cbd 1999 393e 04f3 833d 5916 523e
00000310: 7195 c5bc 592a ce3d 1432 3a3d 82ee 3b3b
00000320: f1e8 48bd 7736 6a3e aba4 13be 9e5b 4f3e
00000330: 7ae1 2fbd 34e5 07bd 4e31 3bbd 9ade 773e
00000340: 9910 763d 49bc 2bbe dde2 37be 6fe5 b53b
00000350: 1a1e 53be 520e 6ebe 7a13 c8bb c006 473e
00000360: e1c4 6b3e c910 22be 81cc fe3d 165f 0dbe
00000370: e688 cf3d 4ee4 b93d 2bde 3d3e ee33 f1bd
00000380: 9d8c 86bc 516f 6cbe 945f f8bc 142c 9fbd
00000390: f4a6 713d b96c 4dbe 0fe5 343e 93ad 1cbb
000003a0: 9335 e8bd b876 6d3e 8ad8 9fbd 67eb 1b3e
000003b0: b96d b93d 62ad ad3d c382 b9bd 94dd 453e
000003c0: e9c5 21be 5103 44be c622 713e 0ffe 62be
000003d0: 58c7 d73c 3f17 a13c a847 5e3e def0 013b
000003e0: 8fe3 d13d c495 173e 8965 75be 4392 513d
000003f0: 6187 933d 24fa 05be 6587 38bd 56e6 943d

fc3.bias f4 [16]
-0.22051165 0.08960546 -0.07522393 0.0018424378 0.052961323 -0.058401898 0.06741803 0.0065935664
0.20989989 -0.17625284 0.014314408 0.09865198 0.0020339873 0.06034224 -0.08551257 0.14756499
00000000: cecd 61be 1183 b73d 010f 9abd f47d f13a
00000010: f9ed 583d d436 6fbd 7712 8a3d d80e d83b
00000020: ffef 563e a07b 34be fb86 6a3c 0d0a ca3d
00000030: a54c 053b 6d29 773d 3721 afbd 471b 173e

fc4.weight f4 [16, 16]
-0.18729071 -0.19964609 -0.08582245 0.076040044 -0.03177965 0.048173774 -0.12818877 -0.065711565
0.07847253 -0.024947677 0.15038346 0.12994714 0.20803654 0.014973053 -0.23185459 -0.16082442
-0.08316048 0.030472536 -0.14866064 0.1682486 -0.23029901 -0.086319946 -0.046309687 -0.102329426
-0.011626892 0.04517747 -0.033132236 0.14906597 -0.16826393 0.14236091 0.02701335 -0.02137889
0.19090053 -0.000557882 0.17268306 0.010190737 0.047521845 0.05396158 -0.1775813 -0.17718127
-0.097993135 -0.03425066 -0.16158605 0.23075972 0.096246526 -0.107436046 -0.09340496 0.22429438
-0.06302334 -0.012841757 0.20820172 0.11950591 -0.040061053 0.1460265 -0.2207069 0.12646662
-0.09365818 0.15258667 -0.027328396 0.11638483 -0.056226075 0.017159078 -0.023492115 0.059156153
0.08610878 -0.14153959 -0.043480758 -0.21642199 0.11749911 -0.09669943 -0.17360789 0.18002808
0.11429597 -0.2331618 0.07641854 0.028264772 -0.1503085 -0.16309024 -0.021541819 -0.019026546
-0.005000283 -0.0011491766 0.15641075 0.1704097 -0.15398902 -0.19397734 0.046022356 0.036882818
-0.21157444 -0.049715433 0.13468714 -0.09133364 -0.2100833 0.034531955 -0.22490692 -0.024953408
0.002459096 -0.015464896 -0.20232314 0.021672871 0.20992771 -0.10650081 -0.13263963 -0.19661564
-0.08524967 -0.0024900162 0.010856823 0.04945085 -0.19584657 0.03969736 0.13473716 -0.15992993
-0.20063514 0.23948708 0.20856439 0.19746731 0.112324804 0.010931939 -0.24091026 -0.15297925
-0.23977175 -0.012574099 0.038922273 0.24398738 0.042781327 0.18397503 0.17105605 0.08004829
0.09696778 -0.031121803 -0.13078466 0.00052248494 -0.047319382 -0.061195668 0.06394445 -0.047405437
-0.032819014 -0.056998394 -0.025597127 0.24358116 -0.07951127 -0.13460955 -0.06762339 -0.2299278
0.19783676 0.016583906 -0.18218462 -0.046488374 0.06297745 -0.18428813 0.0026483291 0.12108183
0.09310614 0.0119527355 0.18187301 0.21192548 0.21793872 0.08533303 0.15692863 -0.0028253244
-0.14197592 -0.21542248 0.23649402 -0.17130354 -0.07604863 0.1779773 -0.07263886 -0.16122538
-0.08098582 0.032984644 0.21123357 0.034460798 -0.18863107 -0.08785146 0.13119178 -0.037812103
-0.1814858 0.11029455 -0.023789972 0.15809277 0.116173565 0.18372339 -0.08453654 0.17658323
-0.08188198 0.124148674 -0.036661357 0.16664973 -0.14140624 0.069938235 -0.12926942 0.01691874
0.0040395455 0.1425136 0.04340545 -0.038807843 0.23635678 -0.17868604 -0.16845067 0.06022838
-0.11173952 -0.10934916 -0.078512244 0.18674988 -0.2394726 -0.13753513 0.16168721 -0.13574255
0.0016061588 -0.07605457 0.20798406 0.03570489 -0.18278517 -0.0074527278 0.036360208 -0.13337235
0.024197796 -0.04392943 0.15606864 -0.22950289 -0.21577108 -0.1750085 0.1688115 0.022696752
-0.22688074 -0.0769587 0.028539408 -0.16477655 0.05339708 -0.028390532 -0.07001634 0.07127004
-0.23018065 -0.055392984 -0.18708473 -0.112380154 -0.011799235 0.054516844 -0.07725882 0.18430306
0.22249812 0.08605534 0.08855453 -0.23630458 -0.08316933 -0.06197313 -0.24293204 -0.053973597
0.17376967 0.119668454 0.08446412 0.15072247 -0.18478876 -0.014976712 -0.035022125 -0.14962035
00000000: 23c9 3fbe 0670 4cbe aec3 afbd e2ba 9b3d
00000010: 612b 02bd dd51 453d eb43 03be c993 86bd
00000020: 35b6 a03d 125f ccbc 1ffe 193e dd10 053e
00000030: 8807 553e 8951 753c 4a6b 6dbe 28af 24be
00000040: 0b50 aabd 8aa1 f93c 7f3a 18be 5c49 2c3e
00000050: 81d3 6bbe 83c8 b0bd 3aaf 3dbd 1792 d1bd
00000060: b87e 3ebc 030c 393d abb5 07bd c0a4 183e
00000070: 614d 2cbe 0fc7 113e 1a4b dd3c c822 afbc
00000080: 6e7b 433e d43e 12ba d4d3 303e 0df7 263c
00000090: 44a6 423d d106 5d3d dfd7 35be 026f 35be
000000a0: a0b0 c8bd 6c4a 0cbd d076 25be 474c 6c3e
000000b0: e61c c53d 6e07 dcbd 1a4b bfbd 6dad 653e
000000c0: 6212 81bd 3c66 52bc d532 553e 84bf f43d
000000d0: 0f17 24bd f987 153e fd00 62be 7780 013e
000000e0: dccf bfbd ae3f 1c3e cddf dfbc 2b5b ee3d
000000f0: 504d 66bd 3291 8c3c 8972 c0bc b94d 723d
00000100: cd59 b03d c1ef 10be e118 32bd ba9d 5dbe
00000110: 60a3 f03d 5a0a c6bd 44c6 31be 4859 383e
00000120: 0114 ea3d f8c1 6ebe 5381 9c3d 868b e73c
00000130: 79ea 19be 2101 27be 7878 b0bc 8fdd 9bbc
00000140: 6ad9 a3bb f89f 96ba 242a 203e e17f 2e3e
00000150: 4caf 1dbe ffa1 46be f081 3c3d 7012 173d
00000160: f8a6 58be 69a2 4bbd 6deb 093e 220d bbbd
00000170: 1420 57be 6171 0d3d 004e 66be 176b ccbc
00000180: c928 213b 7a60 7dbc cc2d 4fbe 4e8b b13c
00000190: 4af7 563e 191d dabd afd2 07be 9c55 49be
000001a0: 6197 aebd 8a2f 23bb d1e0 313c f98c 4a3d
000001b0: 018c 48be b399 223d 8af8 093e acc4 23be
000001c0: 4c73 4dbe 1a3c 753e e791 553e df34 4a3e
000001d0: 8c0a e63d e01b 333c 2eb1 76be 98a6 1cbe
000001e0: ba86 75be 9803 4ebc f66c 1f3d d4d7 793e
000001f0: 793b 2f3d f363 3c3e 5129 2f3e 5cf0 a33d
00000200: 0b97 c63d 27f3 febc 6aec 05be 5ff7 083a
00000210: f8d1 41bd 4fa8 7abd 4ff5 823d 342c 42bd
00000220: 3b6d 06bd 2677 69bd 11b1 d1bc 576d 793e
00000230: ced6 a2bd 16d7 09be 227e 8abd 3172 6bbe
00000240: b895 4a3e f9da 873c 9b8e 3abe 986a 3ebd
00000250: 52fa 803d 07b6 3cbe 978f 2d3b c0f9 f73d
00000260: 6fae be3d 68d5 433c eb3c 3a3e fe02 593e
00000270: 542b 5f3e 15c3 ae3d e6b1 203e 1429 39bb
00000280: 2362 11be b697 5cbe 7d2b 723e 326a 2fbe
00000290: 62bf 9bbd ae3f 363e afc3 94bd 4418 25be
000002a0: e5db a5bd e81a 073d 9d4d 583e c426 0d3d
000002b0: 8128 41be 77eb b3bd 2357 063e dde0 1abd
000002c0: 6ad7 39be 1ce2 e13d 30e3 c2bc 12e3 213e
000002d0: 68ec ed3d fc21 3c3e 7e21 adbd 3cd2 343e
000002e0: bdb1 a7bd a941 fe3d 382a 16bd 3aa6 2a3e
000002f0: cccc 10be c73b 8f3d 345f 04be 2b99 8a3c
00000300: 2a5e 843b 16ef 113e eac9 313d f9f4 1ebd
00000310: 8307 723e 79f9 36be 557e 2cbe 09b2 763d
00000320: b1d7 e4bd 74f2 dfbd 07cb a0bd 5c3b 3f3e
00000330: 4e38 75be 02d6 0cbe 5591 253e 1800 0bbe
00000340: bf85 d23a 80c2 9bbd c6f9 543e 4a3f 123d
00000350: 092c 3bbe 0336 f4bb 71ee 143d c392 08be
00000360: 753a c63c 59ef 33bd 75d0 1f3e ce02 6bbe
00000370: 18f3 5cbe 6e35 33be ecdc 2c3e 8aee b93c
00000380: 6d53 68be 869c 9dbd 7acb e93c 2fbb 28be
00000390: e6b6 5a3d 4393 e8bc ba64 8fbd 07f6 913d
000003a0: 7ab4 6bbe c1e3 62bd 2493 3fbe 9127 e6bd
000003b0: 9451 41bc 0e4d 5f3d df39 9ebd f1b9 3c3e
000003c0: 8cd6 633e c83d b03d 145c b53d d4f9 71be
000003d0: af54 aabd 89d7 7dbd 2dc3 78be 6b13 5dbd
000003e0: adf0 313e bc14 f53d 86fb ac3d fe56 1a3e
000003f0: 4439 3dbe e260 75bc 5c73 0fbd 1436 19be

fc4.bias f4 [16]
-0.09943799 0.1345084 0.08179981 -0.00881701 -0.16549364 -0.03476027 0.023525074 -0.20091897
0.0008193212 0.17196588 -0.12896083 0.19261786 -0.041817274 -0.102349594 -0.2247733 0.21023004
00000000: 25a6 cbbd 92bc 093e a986 a73d 3875 10bc
00000010: 2a77 29be c960 0ebd a8b7 c03c b4bd 4dbe
00000020: b7c7 563a d317 303e 4f0e 04be 9e3d 453e
00000030: 9748 2bbd aa9c d1bd f92a 66be 8b46 573e

fc5.weight f4 [16, 16]
-0.091662325 0.21173841 0.08737032 0.0386253 0.13665591 0.005897041 -0.106319845 0.11786693
0.010514472 -0.055830568 -0.1867333 0.061792515 0.011384514 0.09902253 0.12393481 -0.045760095
-0.21580265 -0.022548784 -0.03520555 0.0463078 0.07732374 -0.16859314 -0.07260472 -0.013954708
-0.18374322 -0.12678505 -0.016119316 0.12990049 0.088064805 -0.12603316 0.2092016 0.056045648
-0.09247046 -0.0738967 -0.232017 -0.090551816 -0.18735012 0.19879742 0.117752075 0.18028162
0.03352916 0.037287127 0.22846985 0.10039032 -0.2073201 0.14993376 -0.019301672 -0.19536677
0.006727528 0.016567105 0.10924371 0.1332163 0.18161888 -0.20441216 -0.20904334 -0.038837276
-0.15137939 -0.1162341 -0.047185414 0.01907009 0.18662892 0.14198008 -0.099659316 -0.038623363
-0.16004859 -0.05117767 0.029152658 -0.13549612 0.054850988 -0.13895458 -0.0131707145 -0.20377295
-0.008005095 -0.096991844 0.1146677 -0.13813825 0.1525669 0.07358461 -0.057940338 -0.06230034
0.046205286 0.10770313 -0.13451523 -0.21883306 -0.24382333 -0.077137314 -0.08796962 -0.121832244
-0.11484488 0.16925432 -0.23577616 0.14041886 -0.2272347 -0.16205266 -0.113766134 0.19665301
0.16332297 -0.19409028 -0.010458833 -0.19533804 0.0030090658 -0.050709452 -0.045708153 0.07228249
0.096621715 -0.20628089 0.18545598 -0.11022253 -0.0768138 0.047032733 -0.0041328296 -0.1994158
0.22984372 -0.19370227 0.11388982 0.21785906 0.14686361 0.14152692 -0.23090632 0.015549091
0.06890238 0.0740708 -0.06777567 -0.2327543 0.18180124 0.08417977 0.018073067 0.08379517
0.17860204 0.020053562 -0.08722707 0.17167118 0.1803726 -0.0037820686 -0.18175219 0.16022293
-0.22017139 -0.019997343 -0.21644278 -0.21428306 0.18221316 -0.04408904 -0.19509324 0.22158246
0.024818111 0.22790895 -0.04189421 0.2409218 0.12867536 -0.22524191 -0.085203186 -0.0005942014
-0.24020854 -0.14902812 -0.21541937 0.18444276 -0.022446753 0.12296001 0.06523622 -0.19336662
-0.08682153 0.17975187 -0.17334966 -0.1406415 -0.019204458 -0.01331537 -0.16586207 0.20522778
0.23082007 -0.09878675 0.08683488 -0.1448464 -0.04334062 -0.09497378 -0.035386544 0.1726035
0.06289353 -0.08023518 -0.02095777 0.07277064 -0.09151348 -0.05877723 -0.12274547 0.23327972
0.1322846 0.15899089 0.15681861 0.12650287 -0.07714384 0.036061097 0.01571508 0.07953833
0.12590827 -0.10051661 -0.2420728 -0.21178997 -0.16648003 -0.22074473 0.21730062 -0.03323748
0.14807127 0.091474645 0.037785217 -0.19185624 0.043444943 -0.11913777 -0.15478384 -0.19574843
-0.03710045 -0.16045146 0.018816799 -0.20345834 0.022369692 -0.17784129 -0.010169139 -0.045105606
0.1501881 0.17848781 0.22680032 0.17871377 -0.041095253 -0.1673564 -0.14307287 -0.029685771
-0.23431017 0.069790855 0.002185341 0.22490926 -0.20980807 0.18030062 0.014793641 -0.109894685
-0.17417744 0.14671269 0.0027812081 -0.20874284 0.14550494 -0.12842612 -0.112087585 0.047950454
0.0017578353 -0.1841803 0.20655988 0.13271216 -0.0019715154 -0.06081439 0.2016035 0.15416276
-0.19091941 -0.038888685 -0.08803003 -0.17252362 0.031632237 0.20814061 0.05821044 -0.08217076
00000000: 75b9 bbbd f4d1 583e 36ef b23d 9035 1e3d
00000010: 87ef 0b3e f73b c13b 38be d9bd 3864 f13d
00000020: e444 2c3c 98ae 64bd 0437 3fbe 261a 7d3d
00000030: 1d86 3a3c 53cc ca3d 89d1 fd3d f06e 3bbd
00000040: 5ffb 5cbe 3ab8 b8bc b233 10bd 3fad 3d3d
00000050: e95b 9e3d aea3 2cbe c9b1 94bd 4aa2 64bc
00000060: 2f27 3cbe f1d3 01be a80c 84bc a204 053e
00000070: 525b b43d d60e 01be f238 563e 1f90 653d
00000080: 2761 bdbd 2757 97bd dd95 6dbe 3b73 b9bd
00000090: b6d8 3fbe 8d91 4b3e 0028 f13d bf9b 383e
000000a0: df55 093d 63ba 183d 00f4 693e 7199 cd3d
000000b0: b84b 54be 3c88 193e 8a1e 9ebc 3a0e 48be
000000c0: 9872 dc3b bdb7 873c 2bbb df3d db69 083e
000000d0: 4dfa 393e 6c51 51be 750f 56be d613 1fbd
000000e0: 3303 1bbe 250c eebd 7e45 41bd e138 9c3c
000000f0: a71b 3f3e 3a63 113e 2f1a ccbd 8833 1ebd
00000100: c7e3 23be ad9f 51bd 8ed1 ee3c 7fbf 0abe
00000110: 6eab 603d 1c4a 0ebe fbc9 57bc dba9 50be
00000120: cd27 03bc a9a3 c6bd e6d6 ea3d 1d74 0dbe
00000130: 7f3a 1c3e 87b3 963d d952 6dbd a42e 7fbd
00000140: c141 3d3d 7593 dc3d 5cbe 09be c615 60be
00000150: d3ac 79be 2bfa 9dbd 6b29 b4bd 2f83 f9bd
00000160: cb33 ebbd 0151 2d3e 4e6f 71be f6c9 0f3e
00000170: 37b0 68be 22f1 25be 38fe e8bd 685f 493e
00000180: 233e 273e 9abf 46be 865b 2bbc b206 48be
00000190: bf33 453b b7b4 4fbd 7938 3bbd d808 943d
000001a0: 9be1 c53d 4c3b 53be 2ce8 3d3e 5abc e1bd
000001b0: 8e50 9dbd 65a5 403d b06c 87bb a833 4cbe
000001c0: 275c 6b3e e359 46be 113f e93d 7216 5f3e
000001d0: 6a63 163e 6fec 103e b572 6cbe 9dc1 7e3c
000001e0: b11c 8d3d 6eb2 973d f8cd 8abd 2557 6ebe
000001f0: 1b2a 3a3e 7166 ac3d f80d 943c cd9c ab3d
00000200: 74e3 363e 5e47 a43c 1ba4 b2bd 92ca 2f3e
00000210: 98b3 383e 95dc 77bb 3f1d 3abe 7b11 243e
00000220: 9c74 61be 78d1 a3bc 2da3 5dbe 056d 5bbe
00000230: 1696 3a3e b696 34bd 86c6 47be 83e6 623e
00000240: 5a4f cb3c f760 693e 4399 2bbd 34b4 763e
00000250: 79c3 033e d1a5 66be 027f aebd 2ec4 1bba
00000260: 3af9 75be d49a 18be e596 5cbe 90de 3c3e
00000270: 41e2 b7bc 75d2 fb3d 919a 853d e601 46be
00000280: 7ccf b1bd e010 383e 9382 31be 5304 10be
00000290: ab52 9dbc b628 5abc bfd7 29be 3b27 523e
000002a0: 195c 6c3e b550 cabd 7cd6 b13d 9d52 14be
000002b0: ef85 31bd 9d81 c2bd 7bf1 10bd f9be 303e
000002c0: 53ce 803d 5852 a4bd a1af abbc c608 953d
000002d0: 6b6b bbbd 65c0 70bd fa61 fbbd e1e0 6e3e
000002e0: 9d75 073e 82ce 223e 0f95 203e f889 013e
000002f0: 97fd 9dbd cdb4 133d e9bc 803c fee4 a23d
00000300: 19ee 003e a7db cdbd efe1 77be 78df 58be
00000310: be79 2abe e80a 62be 0e84 5e3e 0624 08bd
00000320: ff9f 173e 0f57 bb3d acc4 1a3d f675 44be
00000330: 53f3 313d 81fe f3bd a87f 1ebe 4772 48be
00000340: a4f6 17bd 634d 24be b025 9a3c 6257 50be
00000350: a540 b73c 071c 36be 769c 26bc a8c0 38bd
00000360: e9ca 193e 82c5 363e 583e 683e be00 373e
00000370: 7f53 28bd 7a5f 2bbe b281 12be 932f f3bc
00000380: 01ef 6fbe 82ee 8e3d f037 0f3b 9d4e 663e
00000390: edd7 56be baa0 383e 0761 723c 7710 e1bd
000003a0: 925b 32be da3b 163e ee44 363b afc0 55be
000003b0: 3fff 143e 2382 03be 2d8e e5bd b267 443d
000003c0: 2a67 e63a c399 3cbe 6f84 533e b2e5 073e
000003d0: 8a34 01bb 8318 79bd 2671 4e3e d8dc 1d3e
000003e0: 6180 43be be49 1fbd 1749 b4bd 08aa 30be
000003f0: ce90 013d d022 553e 126e 6e3d 2549 a8bd

fc5.bias f4 [16]
-0.0033641504 0.061238233 -0.1224793 0.05280262 -0.23768502 0.21760665 0.13483809 -0.12046008
-0.11745772 -0.10041094 0.018071424 -0.22125815 0.030660572 0.12622757 -0.145047 -0.033791836
00000000: 1479 5cbb f1d4 7a3d 6dd6 fabd 8f47 583d
00000010: b463 73be 47d4 5e3e ff12 0a3e c6b3 f6bd
00000020: ac8d f0bd 40a4 cdbd 860a 943c 7f91 62be
00000030: e12b fb3c cd41 013e 3387 14be 4f69 0abd

fc6.weight f4 [16, 16]
0.057016738 0.17022061 0.0021573845 -0.029081982 -0.0019701403 0.1793785 0.19476104 0.1041299
-0.1415761 -0.084258325 -0.07986699 0.045133565 -0.04970621 0.2398994 -0.0079950625 -0.022830686
-0.009986408 0.02497055 -0.23558605 -0.1476777 -0.13719422 0.14205426 -0.015173525 0.1634476
-0.23478782 -0.019837614 -0.055049557 0.24012202 0.0714061 0.15678284 0.1032081 -0.08973152
-0.18617319 -0.0051351157 0.21925125 0.24240616 -0.066921085 0.1839984 0.16332674 0.16202134
-0.17300652 -0.19970909 -0.01190483 -0.019429956 -0.029726196 0.1548552 0.07576226 -0.1798487
0.13699163 0.023566617 -0.080954626 -0.21930507 0.2079062 0.08461564 0.09615221 -0.15166897
0.24023609 -0.07860277 0.069537506 -0.1042636 0.095251255 0.23688154 0.088856 -0.19470961
-0.08676234 -0.00080323644 0.19737707 0.16798611 0.027680889 0.057046715 -0.1813859 0.23810285
0.014030381 -0.17197512 0.11196973 0.20769547 -0.007375204 0.042679794 -0.009896737 -0.19041842
0.07931498 0.08447601 0.022712281 -0.19799781 -0.018808242 0.23097509 0.24106674 -0.015925158
0.03531742 -0.083965085 -0.19042404 0.050670497 0.015367623 -0.051602237 -0.17950423 -0.20137665
-0.06940699 0.0038861802 -0.17196378 -0.068717614 0.17588629 0.18098706 0.1961423 -0.11008828
0.16759872 0.16379279 -0.23098652 -0.1391993 -0.042055584 -0.046803243 0.18346907 -0.19400585
-0.17839617 0.23536864 -0.057163935 0.14708692 -0.048143465 0.1860162 0.06649685 0.17038108
0.13882414 -0.12430067 -0.017430227 0.17885429 0.22580379 -0.15258497 0.15924405 0.24004605
-0.091388956 -0.22972307 -0.046127815 0.01766494 0.10290695 -0.2178678 -0.13395596 0.036138102
-0.021050679 -0.14075497 -0.13556337 -0.05449238 0.12360194 -0.053822417 -0.11396735 0.12422726
-0.0062203035 0.10715471 -0.03520641 -0.14500615 0.055335376 -0.21553099 -0.092192225 -0.053360227
0.13403983 -0.23481753 0.09722664 0.20899579 0.068840735 0.22314128 0.16160794 -0.1686586
0.22341396 0.015563928 0.16925238 -0.064497896 0.05844037 0.08973767 0.15601905 0.049046084
0.09902324 -0.046371948 -0.05281496 -0.18113598 -0.23186247 0.012813151 -0.22896099 0.07535695
0.19697523 0.0037402003 -0.18811621 0.183719 0.042097874 -0.102047175 -0.058947828 0.06281337
-0.2172525 0.035208993 -0.09647139 0.09913642 -0.15348853 0.18906227 0.17486393 0.047151435
-0.20961629 0.20089734 -0.059245102 -0.11228936 0.10523014 -0.06080972 -0.01581654 -0.035891235
-0.09302054 0.14078502 -0.10015349 0.036123198 -0.076951616 0.15257423 0.11503611 0.15514386
-0.11632466 0.1319154 -0.1367205 0.059589427 0.036499597 -0.07121422 0.20542434 -0.05773416
-0.021776658 0.15526739 -0.06674513 0.16960473 0.11518131 -0.12784769 0.15227135 0.0031257044
0.16058166 0.18497741 -0.16789436 0.05947301 -0.08097075 -0.014770685 -0.049905725 0.0086396495
0.1758016 0.0947029 0.016139023 0.15630506 0.07986037 -0.03570819 0.103938766 0.24176398
-0.041927025 -0.03473492 -0.1801626 -0.047049012 0.113372065 -0.21050893 0.23061277 -0.19767149
-0.15005527 0.14198224 -0.21553025 -0.16990538 -0.20024568 0.19535099 0.03168482 0.061086066
00000000: 628a 693d 504e 2e3e e862 0d3b 563d eebc
00000010: 781d 01bb ffae 373e 706f 473e 0f42 d53d
00000020: 53f9 10be a18f acbd 4e91 a3bd f9dd 383d
00000030: bd98 4bbd 30a8 753e b9fd 02bc 6b07 bbbc
00000040: 089e 23bc 0a8f cc3c 783d 71be d338 17be
00000050: a47c 0cbe ac76 113e 609a 78bc cf5e 273e
00000060: 386c 70be 7e82 a2bc a57b 61bd 8ce2 753e
00000070: 5d3d 923d ae8b 203e c55e d33d 29c5 b7bd
00000080: 2fa4 3ebe 7944 a8bb 6683 603e 5239 783e
00000090: ec0d 89bd 146a 3c3e 203f 273e ece8 253e
000000a0: 9f28 31be 8a80 4cbe 7a0c 43bc 922b 9fbc
000000b0: 5a84 f3bc 5d92 1e3e 3e29 9b3d 422a 38be
000000c0: 8947 0c3e c70e c13c 8acb a5bd 8291 60be
000000d0: 5de5 543e f74a ad3d 73eb c43d 1c4f 1bbe
000000e0: 7300 763e 7dfa a0bd ae69 8e3d 2888 d5bd
000000f0: 1713 c33d 1391 723e 22fa b53d f561 47be
00000100: 74b0 b1bd 4990 52ba 371d 4a3e 8d04 2c3e
00000110: 08c3 e23c d1a9 693d 3abd 39be 3cd1 733e
00000120: afdf 653c 3f1a 30be 6350 e53d 1fae 543e
00000130: b2ab f1bb 02d1 2e3d ec25 22bc 0cfd 42be
00000140: e46f a23d c201 ad3d 1b0f ba3c f0bf 4abe
00000150: be13 9abc bc84 6c3e 33da 763e 7a75 82bc
00000160: 00a9 103d e3f5 abbd 85fe 42be de8b 4f3d
00000170: 7cc8 7b3c de5c 53bd f5cf 37be ae35 4ebe
00000180: 4125 8ebd 49af 7e3b 4617 30be d2bb 8cbd
00000190: 891b 343e ac54 393e 87d9 483e f775 e1bd
000001a0: 009f 2b3e 4cb9 273e bb87 6cbe 438a 0ebe
000001b0: 7a42 2cbd c2b4 3fbd 51df 3b3e 78a9 46be
000001c0: 7cad 36be 7a04 713e bb24 6abd f49d 163e
000001d0: 1532 45bd 087b 3e3e 802f 883d 6178 2e3e
000001e0: ea27 0e3e 5a91 febd d6c9 8ebc 9425 373e
000001f0: 1c39 673e 3c3f 1cbe df10 233e a2ce 753e
00000200: 222a bbbd 863c 6bbe 85f0 3cbd 10b6 903c
00000210: e1c0 d23d bd18 5fbe c02b 09be 8c05 143d
00000220: 7972 acbc 1222 10be 20d1 0abe 6733 5fbd
00000230: 0423 fd3d e574 5cbd b767 e9bd dd6a fe3d
00000240: b0d3 cbbb ee73 db3d 9934 10bd 7e7c 14be
00000250: 59a7 623d 28b4 5cbe 47cf bcbd 4190 5abd
00000260: bd41 093e 0274 70be c31e c73d fe02 563e
00000270: 5ffc 8c3d 267f 643e 8d7c 253e d7b4 2cbe
00000280: a1c6 643e d8ff 7e3c 7f50 2d3e 7917 84bd
00000290: 2b5f 6f3d 62c8 b73d 75c3 1f3e 8ce4 483d
000002a0: b2cc ca3d 83f0 3dbd 8054 58bd b67b 39be
000002b0: 5b6d 6dbe 40ee 513c c074 6abe bf54 9a3d
000002c0: e0b3 493e 261e 753b 89a1 40be d520 3c3e
000002d0: d26e 2c3d 1cfe d0bd 4773 71bd 4ca4 803d
000002e0: 7077 5ebe 4e37 103d cb92 c5bd 0908 cb3d
000002f0: 192c 1dbe 8a99 413e 880f 333e dd21 413d
00000300: a7a5 56be 08b8 4d3e feaa 72bd f7f7 e5bd
00000310: e682 d73d 9d13 79bd b091 81bc b002 13bd
00000320: 8e81 bebd f329 103e 461d cdbd ebf5 133d
00000330: cf98 9dbd 6b3c 1c3e 0d98 eb3d 08de 1e3e
00000340: a03b eebd d514 073e 7500 0cbe 0b14 743d
00000350: 9a80 153d c3d8 91bd c25a 523e a87a 6cbd
00000360: f664 b2bc 6afe 1e3e acb1 88bd ddac 2d3e
00000370: 2ee4 eb3d 81ea 02be 05ed 1b3e 9ed8 4c3b
00000380: 856f 243e b86a 3d3e 80ec 2bbe f999 733d
00000390: fed3 a5bd be00 72bc f269 4cbd 518d 0d3c
000003a0: 5605 343e 98f3 c13d fc35 843c 6f0e 203e
000003b0: d58d a33d c042 12bd d9dd d43d fa90 773e
000003c0: acbb 2bbd 3446 0ebd 8b7c 38be 77b6 40bd
000003d0: 9d2f e83d a78f 57be c125 6c3e 656a 4abe
000003e0: 17a8 19be cb63 113e f6b3 5cbe adfb 2dbe
000003f0: 340d 4dbe 170a 483e f1c7 013d 6235 7a3d

fc6.bias f4 [16]
0.11773603 0.123598024 -0.1006558 -0.11080865 -0.015913943 0.040680937 0.080801785 -0.0896988
0.19312522 -0.19205554 -0.23527455 0.16250546 0.16827753 -0.15600465 0.06651268 -0.23061907
00000000: 961f f13d f620 fd3d a124 cebd a5ef e2bd
00000010: f55d 82bc 0ea1 263d 687b a53d 01b4 b7bd
00000020: 9ec2 453e 35aa 44be d0eb 70be d567 263e
00000030: f250 2c3e afbf 1fbe cd37 883d 6827 6cbe

fc_mu.weight f4 [3, 16]
-0.18374781 -0.23051883 -0.054514404 -0.0010945265 -0.17410424 0.0024661217 0.2229975 0.03702083
-0.22900249 0.20598707 -0.19000237 -0.047501385 -0.040471427 0.03427924 -0.22555144 -0.20061558
0.20661835 0.18867186 0.126719 -0.07309829 0.094881 -0.152542 0.19467087 -0.0054993313
0.045122497 0.11257226 0.14551033 -0.041427962 -0.17116317 0.114223935 -0.18132323 0.055093203
0.09103698 -0.15140282 0.06303617 -0.14206047 -0.061804626 0.07001362 0.11083067 0.034549825
-0.23231962 0.21447498 -0.04167067 -0.21580073 0.2166012 -0.15847048 0.00026691912 0.034146853
00000000: 6328 3cbe 210d 6cbe 7f4a 5fbd 3776 8fba
00000010: 6248 32be a89e 213b 7559 643e 27a3 173d
00000020: a17f 6abe 46ee 523e fb8f 42be d090 42bd
00000030: 5ec5 25bd 6368 0c3d f5f6 66be 2c6e 4dbe
00000040: c393 533e 3233 413e a0c2 013e 8eb4 95bd
00000050: f850 c23d f833 1cbe cd57 473e bc33 b4bb
00000060: 5ed2 383d 498c e63d a900 153e 5eb0 29bd
00000070: 6645 2fbe 3dee e93d ccac 39be 69a9 613d
00000080: 9971 ba3d 5709 1bbe 1c19 813d 4d78 11be
00000090: d926 7dbd 4d63 8f3d 31fb e23d 1e84 0d3d
000000a0: 32e5 6dbe 549f 5b3e ddae 2abd defa 5cbe
000000b0: b4cc 5d3e 1646 22be 47f1 8b39 92dd 0b3d

fc_mu.bias f4 [3]
-0.19478607 -0.18341182 0.045452844
00000000: 0076 47be 4fd0 3bbe c32c 3a3d

fc_std.weight f4 [3, 16]
0.07687483 -0.11008299 -0.17246449 -0.20512843 0.19642591 0.015434758 -0.02514725 -0.18635471
-0.05434385 -0.15447864 0.00778627 0.075662985 0.056456294 0.15363128 -0.20034587 -0.14666946
-0.12070778 0.21015817 0.09966094 -0.2229019 0.039336942 -0.12897208 -0.19097374 0.23241632
-0.1796426 0.13067348 -0.19450878 -0.20171699 -0.09114772 -0.1820848 -0.1835485 0.16494885
-0.04729955 0.043762427 0.18885636 0.18997344 0.033093993 -0.008198436 -0.08996092 -0.08490695
0.013312547 0.06102317 -0.021771483 0.11222311 -0.23435691 -0.14927438 -0.07948829 -0.07996461
00000000: 8d70 9d3d 3173 e1bd 889a 30be 300d 52be
00000010: e023 493e 11e2 7c3c 9b01 cebc c5d3 3ebe
00000020: a897 5ebd a62f 1ebe f823 ff3b 32f5 9a3d
00000030: b73e 673d 8551 1d3e 7827 4dbe 8530 16be
00000040: a435 f7bd b433 573e 091b cc3d 6540 64be
00000050: c61f 213d 4211 04be 9f8e 43be 8bfe 6d3e
00000060: 3bf4 37be 45cf 053e 4f2d 47be e68e 4ebe
00000070: a8ab babd 7074 3abe 23f4 3bbe 5ae8 283e
00000080: 2cbd 41bd 3b40 333d 9063 413e 6688 423e
00000090: 918d 073d bc52 06bc 6e3d b8bd b2e3 adbd
000000a0: de1c 5a3c 6ef3 793d 1c5a b2bc 3bd5 e53d
000000b0: 42fb 6fbe 62db 18be c2ca a2bd 7cc4 a3bd

fc_std.bias f4 [3]
-0.121879354 0.20950602 0.035457272
00000000: e29b f9bd bf88 563e a53b 113d

bn.weight f4 [16]
0.994025 0.9940192 0.9939914 0.9940252 0.994009 0.9940244 0.99398446 0.9939848
0.99401116 0.9940206 0.9940076 0.99403685 0.9940087 0.99401116 0.994028 0.99401516
00000000: 6c78 7e3f 0b78 7e3f 3876 7e3f 6f78 7e3f
00000010: 6077 7e3f 6278 7e3f c475 7e3f ca75 7e3f
00000020: 8477 7e3f 2278 7e3f 4877 7e3f 3379 7e3f
00000030: 5b77 7e3f 8477 7e3f 9e78 7e3f c777 7e3f

bn.bias f4 [16]
-0.0057018916 -0.0008710041 -0.0024393813 -0.005760935 0.0058839773 -0.0055923155 -0.0061133443 -0.0058371387
-0.0057239784 0.0014271283 -0.0058903517 -0.0025056857 -0.0060469816 -0.0052679135 -0.0060326597 -0.005836628
00000000: efd6 babb 1854 64ba 07de 1fbb 3ac6 bcbb
00000010: 61ce c03b be3f b7bb 7352 c8bb 7845 bfbb
00000020: 3690 bbbb 7b0e bb3a da03 c1bb 6e36 24bb
00000030: c225 c6bb 769e acbb 9ead c5bb 2f41 bfbb

bn.running_mean f4 [16]
-5.357615 2.629971 -1.5027164 -0.41060102 3.1275458 -5.3692036 -0.3944389 2.217551
-4.613935 -2.7868583 3.4652271 2.7752151 2.2348304 0.98479176 2.45645 -0.043859176
00000000: 9571 abc0 7251 2840 0359 c0bf 4c3a d2be
00000010: b629 4840 84d0 abc0 e5f3 c9be 5bec 0d40
00000020: 5ba5 93c0 e35b 32c0 48c6 5d40 209d 3140
00000030: 7607 0f40 501b 7c3f 7a36 1d40 aea5 33bd

bn.running_var f4 [16]
11.538863 1.2318926 1.2019721 0.33194456 5.0350556 16.144503 2.6756296 3.3941994
8.299475 4.938302 5.985607 11.375028 4.6944194 2.5484416 2.6734262 0.74701965
00000000: 2f9f 3841 a8ae 9d3f 39da 993f a3f4 a93e
00000010: 2d1f a140 f127 8141 843d 2b40 903a 5940
00000020: a6ca 0441 9206 9e40 188a bf40 1d00 3641
00000030: af38 9640 ab19 2340 6a19 2b40 ae3c 3f3f
