self_avoidance_gym/pth/target_critic.pth (torch, 61461 bytes, 11 tensors)

mean f4 [24]
000000 00 00 00 00 00 00 00 00 00 00 00 00 00 00 00 00
       0.0 0.0 0.0 0.0
000010 00 00 00 00 00 00 00 00 00 00 00 00 00 00 00 00
       0.0 0.0 0.0 0.0
000020 00 00 00 00 00 00 00 00 00 00 00 00 00 00 00 00
       0.0 0.0 0.0 0.0
000030 00 00 00 00 00 00 00 00 00 00 00 00 00 00 00 00
       0.0 0.0 0.0 0.0
000040 00 00 00 00 00 00 00 00 00 00 00 00 00 00 00 00
       0.0 0.0 0.0 0.0
000050 00 00 00 00 00 00 00 00 00 00 00 00 00 00 00 00
       0.0 0.0 0.0 0.0

std f4 [24]
000000 00 00 80 3f 00 00 80 3f 00 00 80 3f 00 00 80 3f
       1.0 1.0 1.0 1.0
000010 00 00 80 3f 00 00 80 3f 00 00 80 3f 00 00 80 3f
       1.0 1.0 1.0 1.0
000020 00 00 80 3f 00 00 80 3f 00 00 80 3f 00 00 80 3f
       1.0 1.0 1.0 1.0
000030 00 00 80 3f 00 00 80 3f 00 00 80 3f 00 00 80 3f
       1.0 1.0 1.0 1.0
000040 00 00 80 3f 00 00 80 3f 00 00 80 3f 00 00 80 3f
       1.0 1.0 1.0 1.0
000050 00 00 80 3f 00 00 80 3f 00 00 80 3f 00 00 80 3f
       1.0 1.0 1.0 1.0

fc1.weight f4 [64, 24]
000000 0d c8 82 bd 16 eb 51 3e 43 c1 fc bc 1b f9 8d 3e
       -0.06385813 0.20499834 -0.030853873 0.27729115
000010 ea d3 f6 3c 92 ea c9 3d 27 d2 50 bd f8 ac bc bc
       0.030130345 0.09859194 -0.050981667 -0.023031697
000020 f7 2e ea bd 04 21 12 bd 7e 02 41 3e be 5f ce 3c
       -0.11434739 -0.035676017 0.18848607 0.025192138
000030 ce 96 7a 3d 26 ba f2 3b 1f e5 36 3e 30 db 97 bc
       0.061178975 0.0074074445 0.1786084 -0.018537134
000040 33 71 b7 3d 5b 3b cf bd 84 2e 86 bd 0f 51 84 3e
       0.08957138 -0.10118743 -0.06551841 0.25843093
000050 8e 6c e2 bd a8 01 a4 3e 0b 07 95 bd 43 2c 6c 3e
       -0.110558614 0.32032514 -0.07276734 0.2306376
000060 c3 86 94 bc 86 a0 6d 3d 03 cb 71 3d 14 8e a1 be
       -0.018130666 0.058014415 0.059031498 -0.3155371
000070 4b e5 6e 3b 28 5b 2c bc 97 c4 5c be d3 06 e6 3d
       0.0036452587 -0.01051978 -0.21559368 0.1123177
000080 ec 03 1a be a3 1d cd 3c 5f 81 78 bd 33 40 3b bd
       -0.15040559 0.025038546 -0.060670253 -0.045715522
000090 4f af 06 3e 67 9c ee bd bf e8 bd 3d 9e f0 0f 3e
       0.13152812 -0.11650925 0.092729084 0.14056632
0000a0 5c 67 28 be 2f 4e 5e be 17 e7 c1 bd 73 1e ca bd
       -0.16445678 -0.21709512 -0.09467905 -0.09869089
0000b0 2f 69 25 3e d8 e7 1c be 73 08 ea bd 33 c7 c0 bc
       0.16153406 -0.15322816 -0.11427393 -0.023532486
0000c0 52 03 84 3d 58 ef 12 be 83 7a 90 3d 98 b0 20 3e
       0.06445946 -0.14349115 0.07054617 0.15692365
0000d0 cb 3e d4 3d 7c 4a 2a 3e 20 ed b8 bc 68 25 ca bd
       0.10363539 0.16629976 -0.022574008 -0.09870416
0000e0 fa 85 c1 3d 90 1c 9c bd 54 a5 9a 3e ba 3d 60 3d
       0.09449382 -0.07622635 0.3020426 0.054746367
0000f0 39 f9 84 bb 23 8c b1 3d 2b da 26 3c e2 5a e6 3d
       -0.00405803 0.08669307 0.010183851 0.11247803
000100 00 ab a0 3d 2f bc 2c 3e 90 7f a7 3d fa b7 46 be
       0.07845116 0.16868661 0.081786275 -0.19406119
000110 c8 e2 2a be b0 7f b9 3e 18 0e 07 3e 18 2b 35 3e
       -0.16688073 0.3623023 0.1318897 0.1769222
000120 5b ec e6 bd 6a 1b f8 3d 7e 8d 79 3d 10 93 1b 3e
       -0.1127555 0.12114604 0.060925953 0.15192819
000130 9f 3b 15 be b3 ef 24 be 32 7b d5 bd a3 53 88 bd
       -0.14573525 -0.16107063 -0.10423888 -0.066565774
000140 83 48 e5 3d 33 b3 59 be 6c 90 b0 3e 27 61 c4 3d
       0.11195471 -0.21259765 0.34485185 0.09588843
000150 5b 86 80 be f3 09 1b 3e 1b 70 4b be 2b c0 b6 3c
       -0.25102505 0.15140514 -0.19866984 0.02230843
000160 16 1d c3 bd c7 6a 98 3d 33 2f fe 3d d2 32 76 be
       -0.09527032 0.07442241 0.12411346 -0.24042824
000170 c7 7b 52 3d 9c 59 a3 3c 20 3e 24 3e b4 8d 89 3e
       0.051387575 0.01994019 0.16039324 0.26865923
000180 a8 0c 14 3e 58 a0 2f be eb 45 5a be 37 15 26 3e
       0.14457953 -0.1715101 -0.21315734 0.1621903
000190 e3 3c 16 3e d4 a8 a3 bd 8e 2c e6 3d e8 15 07 be
       0.14671664 -0.07991186 0.11238967 -0.1319195
0001a0 f6 7b f2 3d fa 5d da 3d 70 c9 1b be d3 b4 21 3e
       0.1184005 0.10662456 -0.15213561 0.15791635
0001b0 d4 e2 34 3e b0 ca 1b be 64 ab b6 bd 1b de 3c 3e
       0.17664653 -0.15214038 -0.08919409 0.18444102
0001c0 c3 5b fb bd fc 17 8a bd 88 70 9b bc 3f 7b 12 3e
       -0.122733615 -0.06742856 -0.018974558 0.14304827
0001d0 22 da 8b bd 2c a7 1d 3e 1b e7 47 3d 40 78 0b bd
       -0.06828715 0.15395802 0.048804384 -0.034050226
0001e0 d4 b0 20 3d ca 12 dd bd 5e ee db bc c4 2a 48 3d
       0.039231136 -0.10794599 -0.02684706 0.04886891
0001f0 d0 d1 ba 3d 64 5b 09 3e 5e af 7c be 1b 88 cc 3b
       0.0912205 0.13413769 -0.24676272 0.006241811
000200 b8 e3 0e 3e cf b3 9c 3d 73 6d 19 bd d0 d2 3e 3d
       0.13954055 0.07651483 -0.037457895 0.046587765
000210 7c 5c 31 be 73 00 a2 bd a7 09 08 be 23 21 2e be
       -0.17320436 -0.07910242 -0.13284932 -0.17004828
000220 07 ce 79 3d e3 08 27 be f4 bb 2c 3e bc 60 1f 3e
       0.0609875 -0.16311984 0.16868573 0.15564245
000230 f0 a9 a4 3d 9b 37 1d bc 8c a7 97 3d d7 5b 30 be
       0.080402255 -0.009595777 0.07405004 -0.17222534
000240 01 e2 03 3d 4e 6e 41 be 93 e2 ea bd 8c 94 be be
       0.032197956 -0.18889734 -0.11468997 -0.37222707
000250 47 52 bd 3d 00 dc 19 be 8c 10 31 be b0 00 18 be
       0.09244209 -0.1502533 -0.17291468 -0.14844012
000260 bf e3 56 bd 17 0a 38 be b7 69 e5 be 78 55 14 be
       -0.05246329 -0.17972599 -0.44807217 -0.14485729
000270 4f d1 cc 3d 47 39 29 3d 06 fd 40 be ae f1 ce bb
       0.1000086 0.04131439 -0.18846521 -0.0063154316
000280 42 2d c8 3d b0 56 17 be b6 2f 72 3b cf 9a 21 3e
       0.09774257 -0.14779162 0.0036954707 0.15781711
000290 73 3d 3f 3e 6b 84 69 be 8b 45 d1 bd b8 e1 a4 be
       0.18675785 -0.2280442 -0.102183424 -0.3220346
0002a0 16 1a c6 3d 9b 5d 7e bd 5e 03 02 3e 9e 08 48 3d
       0.09672944 -0.062100988 0.12696597 0.048836343
0002b0 c8 4e 2f be 6f e0 c5 bd 93 05 1b 3e c3 0e 3c 3e
       -0.17119896 -0.09661948 0.15138845 0.18365006
0002c0 f6 e5 53 3e 2a ba 81 3d aa 3f 5f 3e d2 34 6a 3d
       0.20693192 0.06334336 0.2180163 0.05717928
0002d0 d7 84 20 3e d2 8e 6f 3d a6 60 f4 3d 50 42 03 3e
       0.15675674 0.058485813 0.11932497 0.12818265
0002e0 0b 2a 3d 3e 8f 10 81 bb 48 92 39 be 2f 99 09 3e
       0.1847307 -0.0039387415 -0.18122208 0.13437341
0002f0 a3 f8 a1 3d 6c d9 b7 3e fc e8 3d 3d ab f0 6c 3c
       0.07908752 0.35908067 0.04636477 0.014461677
000300 7b 45 66 bd f4 ec 32 be ab 48 15 3e 28 5b 18 bd
       -0.056218605 -0.17473203 0.14578502 -0.03719631
000310 f0 92 d3 bd 2f 3f 8e bd 8c 12 b4 bd 94 69 0c bb
       -0.103307605 -0.06945645 -0.087926 -0.0021425234
000320 93 13 1c 3b 2c 1c 21 be d6 c9 dd 3d 92 65 56 3d
       0.0023815378 -0.15733403 0.10829513 0.05234296
000330 f4 b2 ba b9 64 e4 11 bd 5e e4 e0 3d eb eb 27 3c
       -0.00035610015 -0.0356182 0.109810576 0.010249118
000340 57 da 05 bd dc 6a 2c be 27 4f 56 3d ef 60 63 3e
       -0.03267893 -0.16837639 0.05232158 0.22204946
000350 83 51 1b be 47 25 60 3e 88 f9 b7 3d fa 92 48 bd
       -0.15167813 0.2188922 0.08983141 -0.048968293
000360 b2 dc 69 3d 9c 26 a4 3c 13 ca 6c be 70 7c bb 3e
       0.057095237 0.020037942 -0.2312396 0.36618376
000370 32 4b 44 bd 48 d2 b5 3d 92 48 06 bd 9c bd 6e 3d
       -0.047923274 0.088779986 -0.032784052 0.058286294
000380 fe d0 6f bd 26 70 49 3d db 46 d0 3e 2f 60 c7 3d
       -0.05854892 0.04917922 0.40679058 0.097351424
000390 c8 fc 3f be 17 a2 bb bc 38 ec a6 bd bc 26 0e be
       -0.18748772 -0.022904439 -0.08150524 -0.13881963
0003a0 88 47 d3 3d db 4f b3 bd be 1e 5d be c7 b5 ed 3d
       0.10316378 -0.087554656 -0.21593758 0.11606937
0003b0 8c 0b 36 3e 07 6d 76 3e bf b3 a2 bc d3 70 f4 3d
       0.17777842 0.24065028 -0.0198611 0.11935582
0003c0 c7 c4 89 3e 97 03 23 39 b0 10 a1 bd 7b 65 0f 3e
       0.26907942 0.00015546229 -0.07864511 0.14003555
0003d0 0f 68 a8 3c 4e f7 67 3c 9a 9f 73 3e 3f 51 b2 3d
       0.020557432 0.014158083 0.23791352 0.08706903
0003e0 87 e4 38 3e 6f 9b 30 3e 33 7b 3c 3e 64 45 80 3c
       0.18055926 0.17246793 0.18406372 0.015658088
0003f0 4b 77 bc 3d cc 54 a0 bd 08 e2 85 3e e6 3c 6c 3e
       0.09202441 -0.07828674 0.2614901 0.23070106

fc1.bias f4 [64]
000000 0b 5c 3d 3e a0 84 0d be 60 9c 21 bd 4b af 89 bc
       0.18492143 -0.13820124 -0.03945577 -0.016807219
000010 43 cd 1b 3e f7 88 e5 3d 52 94 44 3d a0 bb 08 bd
       0.1521502 0.112077646 0.04799301 -0.03338206
000020 0b b4 2b 3e 98 22 ee bc b3 1f 9d 3d d0 02 bc 3d
       0.167679 -0.02906923 0.07672062 0.09180224
000030 54 1e 3d 3e a3 d3 19 be cc 25 11 bb 87 ad 15 bd
       0.184686 -0.15022139 -0.0022147773 -0.03654244
000040 c2 01 23 3e ac ea 22 bd 04 d4 a7 3d 27 10 1d be
       0.1591864 -0.03977458 0.08194736 -0.15338193
000050 be 3c e2 3d 70 8f 94 3e e2 ca 6e 3e f7 64 43 3e
       0.11046742 0.29015684 0.23319581 0.19081484
000060 87 ff 36 b9 4e 0c 0d bc d0 1d 28 3e 5a a4 05 3e
       -0.00017452064 -0.008608891 0.16417623 0.13050976
000070 73 90 28 3e ca 10 a8 3c 57 1e 7a be e7 59 0e 3d
       0.16461353 0.020515818 -0.24425636 0.034753706
000080 13 8e 58 3d 7b 0f ea bd 53 3a 5d be 20 f1 be bd
       0.052869868 -0.11428734 -0.2160428 -0.09323335
000090 e3 74 f9 3c fb 5d 3c 3e 3b 85 7c be f6 e9 18 3e
       0.030451244 0.18395226 -0.24660198 0.14932999
0000a0 7e ed 7d bd f8 1b 3c be 4a b8 fd 3d fc 82 88 3c
       -0.06199407 -0.18370044 0.12388666 0.01666402
0000b0 83 27 0e 3e 47 e0 27 bc ca 43 5e be 08 14 34 be
       0.1388226 -0.010246343 -0.21705547 -0.17585766
0000c0 33 8e 56 3d 2f 6c 36 be f8 0b a4 bc 78 6a 18 be
       0.052381705 -0.17814706 -0.020025238 -0.14884365
0000d0 3b 54 24 3d 8c 70 3a 3e ee 37 81 ba 48 b2 0a be
       0.04011939 0.18206996 -0.0009858587 -0.13544571
0000e0 4b 25 c8 bc e3 73 f0 3d 66 35 76 3e 30 bb 37 3e
       -0.024431845 0.11740854 0.24043807 0.179425
0000f0 8b 77 cc bc b8 03 35 be e4 58 31 3e 43 96 f0 3d
       -0.024959346 -0.176772 0.17319065 0.1174741

fc2.weight f4 [64, 64]
000000 cf 38 10 be c2 c1 6a bd 02 46 ea bd 23 b7 f9 bd
       -0.14084171 -0.057313688 -0.11439134 -0.12193134
000010 6a 7c d8 bd e7 b3 13 3d cf 02 78 3c df 3a d3 39
       -0.10570605 0.03606024 0.015137388 0.00040288919
000020 87 fa ac bd e8 e0 22 bd ef ba de 3c 57 44 f7 bd
       -0.08446222 -0.03976527 0.027188746 -0.12073582
000030 f6 e4 c0 bc 2c 21 ab 3d 94 fc 14 be 77 fb c0 3d
       -0.023546677 0.083559364 -0.14549476 0.09422963
000040 e8 ea a2 3c df a7 54 3d e8 3b b1 3d ab 1f 03 bc
       0.019887403 0.051917907 0.08654004 -0.008003156
000050 f0 c9 0e bd b3 62 96 bd 5e 25 03 bd 0b c5 a9 bc
       -0.03486055 -0.07343044 -0.032018058 -0.02072384
000060 16 fe e1 3c a7 6e e6 bd 50 26 9b bd aa 63 ca 3d
       0.027586978 -0.11251574 -0.07575667 0.09882291
000070 bb e4 4a 3d ae 5c f5 bd 80 d6 92 bd 97 94 e9 3c
       0.04953454 -0.11980568 -0.07169819 0.028513236
000080 f8 9a b0 3d c7 0b fc 3d 12 be e9 bd 33 11 fe 3d
       0.08623308 0.12306934 -0.11413206 0.12405624
000090 56 27 84 3d 3d bf 03 3c ab bf fa bd af 5f 4a 3c
       0.06452815 0.0080412 -0.12243589 0.012351914
0000a0 5e 2f 83 3d e8 3e 90 bb a6 e9 13 ba 8e b0 f8 3c
       0.06405519 -0.0044020303 -0.00056424213 0.030357625
0000b0 3c 83 18 bd 0a c1 d5 3d 1f 38 f5 bd 5f 59 c6 bc
       -0.03723453 0.1043721 -0.11973595 -0.024212537
0000c0 da 8a f5 3a fb 90 fc 3d 23 49 a4 bd 43 b5 42 bd
       0.0018733398 0.1233234 -0.08021762 -0.047536146
0000d0 27 02 fb bd 51 ae 00 be 66 3a c9 3c e0 e7 a8 3c
       -0.1225627 -0.12566496 0.02456398 0.02061838
0000e0 24 60 12 be ab de a4 bd 7f ee 5e 3d d7 f3 db bd
       -0.14294487 -0.08050283 0.054426666 -0.10739868
0000f0 5a 8a d0 bd b3 05 37 3d 63 ea a9 bd 16 51 41 3d
       -0.101826385 0.04468317 -0.08296659 0.04719647
000100 cf ef bf bd 8b 24 85 3b 1e 56 7f bd c3 38 92 3c
       -0.09371912 0.004063194 -0.062337987 0.017849332
000110 8f d6 0c be 08 5b 0b be d0 db 12 3e a0 54 95 3d
       -0.13753723 -0.13608944 0.14341664 0.072915316
000120 fb 7c ca 3c cc 3d 14 be fa f8 da bd 4c 58 33 be
       0.024717798 -0.14476699 -0.1069202 -0.17514151
000130 33 ce e1 3c 1a f6 6a bd 47 f9 27 3a c2 cc 94 bd
       0.027564144 -0.057363607 0.00064076897 -0.07265617
000140 b3 44 d2 3c 2f d0 85 bd b3 86 15 be c4 5c a0 bd
       0.025667524 -0.065338485 -0.14602165 -0.07830194
000150 84 3e 0b be b3 d6 f4 bb 23 a2 d7 3d 0e 56 5d bd
       -0.13598067 -0.007471883 0.10528972 -0.054037146
000160 d7 29 12 3c 40 01 bc 3d 5f dc 18 3d a8 9c 33 bd
       0.008921108 0.09179926 0.037319537 -0.04385057
000170 2f d3 d1 3c 58 c4 33 3c 4f 83 f7 b8 48 e1 8d 3c
       0.025613395 0.010972105 -0.00011802336 0.017319337
000180 9e 2b 83 bd 48 8d 87 3d 37 f9 9e bd de 23 6f bd
       -0.06404804 0.06618744 -0.07762378 -0.058383815
000190 14 92 e8 bd 93 1a 47 3d f6 74 c7 3d bc 66 19 3d
       -0.11355987 0.048609328 0.097391054 0.03745149
0001a0 2c 57 8e bd c2 b1 eb 3c cf 4d 19 bd ec a6 35 be
       -0.069502205 0.028771285 -0.03742772 -0.17739457
0001b0 d4 d4 86 3c ff 21 6f 3d db 20 17 3d 97 e9 f8 bd
       0.016458906 0.05838203 0.036896568 -0.12153929
0001c0 e0 b6 b6 bd eb e9 9f bd 9c a0 a7 3d df b7 58 bd
       -0.089215994 -0.07808288 0.08184931 -0.05290973
0001d0 58 3d b3 bd d7 0c f0 bd 67 06 5a bd 96 98 e0 bd
       -0.08751935 -0.11721199 -0.053228762 -0.109666035
0001e0 53 be 29 bd 47 78 0d ba ff 18 bc bd e0 09 2f be
       -0.041441273 -0.0005396646 -0.09184455 -0.17093611
0001f0 ae 53 c2 bc b3 ff e4 bd bc 88 10 be e3 20 fd bd
       -0.023721542 -0.11181583 -0.1411466 -0.12359788
000200 be 0a 71 3d cf 41 1b bd 4b e5 23 3b 87 67 9f bd
       0.058848135 -0.037904557 0.0025008495 -0.07783418
000210 86 b7 4c 3d 9c 66 86 bc 2a 8f d3 bd 6b 41 be 3d
       0.04997971 -0.01640635 -0.10330041 0.09289821
000220 38 54 23 bd e4 41 34 bd fe 0d 56 3e a7 ad 59 3e
       -0.03987524 -0.04400815 0.20903775 0.2125765
000230 b0 43 20 3e 36 59 73 bd 0b 38 fa 3d 70 ec a0 bd
       0.1565082 -0.05941125 0.122177206 -0.07857597
000240 5a 1d d9 3d a7 94 9d bd 6a 1e 7a 3b 50 79 bb 3d
       0.106013015 -0.07694369 0.00381651 0.09153998
000250 ef c5 e2 bd 0c d1 0e 3c 37 cf 8c 3d ca 75 de 3d
       -0.11072909 0.008716833 0.068754606 0.1086231
000260 16 e7 50 bd 9b e5 0a be f6 d2 7a bd 4b af 0e be
       -0.05100163 -0.1356415 -0.061236344 -0.13934056
000270 b6 f9 e1 3d 1f 54 00 be b2 3a 5c bd ae 9c 26 3e
       0.11033957 -0.1253209 -0.053766914 0.16270706
000280 9e 78 c6 3d f4 cc 96 bd ac 37 12 3e c8 fd f0 bd
       0.09690975 -0.073633105 0.1427905 -0.11767155
000290 f7 c3 96 bc a1 dd 03 be a3 71 08 bd a3 79 b2 3c
       -0.01840399 -0.12877513 -0.033311497 0.021786517
0002a0 d0 f4 3f 3d ab a0 b5 bd c7 68 9a 3d 44 c0 19 3e
       0.04686433 -0.088685356 0.07539516 0.1501475
0002b0 03 cc e1 bd a3 51 f8 bd 38 67 bd 3d 62 e4 96 3d
       -0.1102524 -0.12124946 0.09248203 0.07367779
0002c0 ba 9f c4 bd 7f db d8 bd f0 7c 9f bd 3a ac c9 bd
       -0.09600778 -0.105887406 -0.07787502 -0.09847303
0002d0 87 17 2e bd c8 d1 24 3d dc 74 06 3d 56 6c d9 3c
       -0.042502906 0.040239125 0.03282629 0.026540916
0002e0 9b d5 db 3c 62 fd f5 3c 84 9d 29 bd 48 76 8f 3d
       0.026835253 0.030028049 -0.041409984 0.07004982
0002f0 12 d2 64 3d 97 ff 88 bd e7 21 41 3d d4 b8 09 bd
       0.0558644 -0.06689375 0.047151472 -0.03362353
000300 de fc 4f 3d 4f 70 e2 bc 20 ce 81 bd 0e 47 62 bc
       0.050778262 -0.027641444 -0.06338143 -0.013810886
000310 1c c9 9a bd 92 be 43 bc 40 23 3d be 7e a1 db bc
       -0.0755789 -0.011947291 -0.18470478 -0.026810404
000320 f7 86 3a 3d 40 68 16 3d 67 0c de bd 4f 27 1a bc
       0.04553887 0.036720514 -0.10842209 -0.009408786
000330 88 9f 9e 3d b0 e2 0d be ac 9f ac 3d 83 84 8b 3c
       0.07745272 -0.13856006 0.084288925 0.01703096
000340 fb 38 c8 bd 3f 82 6a bc a3 f6 8f bd 0e d1 fd ba
       -0.09776493 -0.01431328 -0.07029464 -0.0019364671
000350 4f 85 fa bd ab f7 c2 bd 0f f0 63 bd 48 e6 f1 bd
       -0.12232458 -0.09519895 -0.05564886 -0.11811501
000360 36 dc 3b bd 7a 3a 58 ba a3 f0 e5 3d 9f 97 ac bd
       -0.045864306 -0.000824846 0.112275384 -0.08427357
000370 77 db ae 3d 9c 29 b5 3c f3 cc b9 bc b6 28 02 3e
       0.08537953 0.022114567 -0.022680735 0.12710842
000380 57 4d 55 bc ec 00 a7 bd 50 21 a0 bd c7 3b b3 3d
       -0.013018928 -0.08154473 -0.07818854 0.08751636
000390 1f e6 ec 3d 90 b2 ba bd 03 84 93 bd 32 61 c7 bd
       0.115673296 -0.09116089 -0.072029136 -0.097353354
0003a0 e4 f5 a5 3d 2c c4 8a 3d 7c c1 08 be ca 91 65 bd
       0.081035405 0.06775698 -0.13355058 -0.05604724
0003b0 ac da f9 3c b6 73 e5 bc 7f 2a 41 3d d1 86 02 3e
       0.030499779 -0.028009277 0.047159668 0.12746741
0003c0 6c 75 1e 3e bf 90 4f bd 3c 54 10 be f7 b9 b4 3d
       0.1547448 -0.05067515 -0.14094633 0.088245325
0003d0 9c 47 3f 3d cc 1e 2e 3e 56 ba cc bc 83 eb ab 3d
       0.04669915 0.17003936 -0.024991196 0.0839453
0003e0 a4 3f 3f bd 23 57 5c bd 7c 75 98 bc 77 ce c5 3d
       -0.04669155 -0.053794038 -0.018610708 0.09658521
0003f0 a6 bd 7b 3d e3 e4 c0 3d 3a fd cd 3c df ae 75 3d
       0.06146016 0.09418657 0.025145162 0.059981223

fc2.bias f4 [64]
000000 8f 2b f6 bd 02 f6 da bd c6 66 6c 3c e7 86 7c 3d
       -0.12020027 -0.106914535 0.0144288 0.06165209
000010 8f cb 53 bc 37 13 d0 3d db 1d 33 3c 6f 6e 76 3c
       -0.01292695 0.10159915 0.010932411 0.015040978
000020 2e f7 df 3d 78 0c 8d bb 47 47 be b7 bc df 5d 3d
       0.10935818 -0.004304465 -2.2682956e-05 0.054168448
000030 72 eb 7c bc 03 5d 1c be 62 00 df 3d 10 98 25 3e
       -0.015436994 -0.15269856 0.10888745 0.16171288
000040 6b 74 0b 3d 23 73 0e bd 3f 9e c4 bd 94 ec 95 3b
       0.03404657 -0.03477777 -0.096004955 0.0045753215
000050 d9 02 06 3d 92 32 f4 3d 22 26 d1 bb 88 2e 8d 3d
       0.03271756 0.11923708 -0.0063827196 0.06893641
000060 33 2a 9a bd 2e 1c de 3d 7b f6 a8 bd 8e f7 6d 3d
       -0.0752758 0.108452186 -0.082501374 0.058097415
000070 6a 72 88 3d 53 dc 15 3e ff f2 a0 3d 37 84 8c 3d
       0.06662448 0.14634828 0.07858848 0.068611555
000080 e4 af 16 3e d4 95 22 3d d8 32 bb 3d ee a2 62 3d
       0.14715534 0.03969367 0.09140557 0.055331163
000090 af 38 e7 bd fa 85 da bc f2 72 70 bc ca 6d c3 bd
       -0.112901084 -0.026675213 -0.014675843 -0.09542425
0000a0 72 32 c5 bd e6 e5 59 3d ee 22 74 3d 5b 37 76 bd
       -0.09628762 0.053197764 0.059603624 -0.060111385
0000b0 1e e6 08 3d 1b 34 0f be 4f 20 c4 bc 34 a5 0d 3d
       0.03342258 -0.1398472 -0.023941187 0.034581378
0000c0 bf c8 ab 3d 13 1e a8 3d d2 91 5d bd 4c 6e b6 bc
       0.08387899 0.08208861 -0.054094143 -0.02226939
0000d0 86 24 53 3c 3b 92 18 3d 0f af 9d bd da fa 6e 3d
       0.012887126 0.03724883 -0.076994054 0.0583447
0000e0 1c 31 30 3c 9a 6f 3d 3d 3b aa bc bd 2b 40 aa 3c
       0.010753896 0.04624901 -0.092121564 0.02078255
0000f0 9a 66 1d 3d eb 75 34 3d 5c 83 34 be 50 fb 36 3d
       0.038427927 0.044057768 -0.17628235 0.044673264

fc3.weight f4 [64, 64]
000000 00 e1 32 bc bb cb 9d 3c 3c 62 01 be c0 e4 ad 3d
       -0.010917902 0.019262185 -0.1263513 0.08490896
000010 b4 16 ab bd 38 ab a1 3d 47 4b ba 3d 00 fb 93 bd
       -0.0835394 0.078939855 0.09096389 -0.07225609
000020 52 8b 6b 3d 08 a4 08 3e e8 bb 0b 3d 5f 7d 22 bc
       0.057505913 0.13343823 0.03411475 -0.009917586
000030 23 8f 5b 3d 2f 1b fd bd 80 39 a3 bd b6 48 ca bc
       0.053603303 -0.123587005 -0.07969952 -0.024692874
000040 4f 69 a3 3b 80 bc 8e 3d 2f ed df 3d 36 53 74 bd
       0.004986919 0.06969547 0.10933911 -0.05964967
000050 93 d7 ff 3d 30 42 a4 3d 97 6e 97 bd 48 bc 04 3e
       0.124922894 0.08020437 -0.0739414 0.12962449
000060 0b 25 65 3d 20 7d ab 3c c8 3a 2f 3d ec 8f 09 3d
       0.05594353 0.020933688 0.042780668 0.03358452
000070 2f 07 4b bd 83 53 99 b9 2f d2 fa bd 1f a6 e1 bd
       -0.049567398 -0.00029244655 -0.122471206 -0.11018013
000080 82 28 53 bd 4b e9 f9 3d 14 b1 08 3e 7b 5e c3 3c
       -0.051552303 0.122027 0.133488 0.023848763
000090 b3 23 a3 3c 9b 84 c3 3d 78 dd b1 bc 0b bd 54 3c
       0.019914484 0.09546777 -0.02171205 0.0129845245
0000a0 28 9e 11 3e 7f 5b 4c bd f7 8e bc bd 83 66 1a 3b
       0.14220488 -0.049891945 -0.09206956 0.0023559637
0000b0 e7 cf 10 bd 0b 67 f8 3d ac 28 b5 3d e1 fc 03 bd
       -0.03535452 0.12129029 0.08845648 -0.032223586
0000c0 a0 53 b4 3d 8e 14 5b 3c 78 78 28 bd 16 1c d3 bc
       0.08805013 0.0133716 -0.041130513 -0.025770228
0000d0 9e d9 84 3d e7 30 14 3a 38 67 33 3c 6b fe b5 bd
       0.0648682 0.0005653039 0.010949902 -0.08886417
0000e0 20 72 2c be 64 54 ae bd 57 32 6b bc ca 81 61 bd
       -0.1684041 -0.0851219 -0.014355264 -0.055055417
0000f0 bb 98 b7 3c 54 e6 0b bc 3a 74 cf 3d 72 57 48 3d
       0.022411695 -0.008538801 0.1012959 0.04891152
000100 cb 29 cb ba 82 cf ef 3c df 26 e2 3d 61 7f 81 3d
       -0.0015500126 0.029273752 0.1104257 0.06323124
000110 fe 5b 71 bd c7 5c 08 bb 2a 73 d6 3d 5b 5b 25 3d
       -0.05892562 -0.0020807253 0.104711846 0.040370326
000120 af 06 c4 bd ea b7 7e 3b 5b ce dc 3c 64 b1 08 bd
       -0.09571587 0.0038866946 0.026953867 -0.033372298
000130 98 cb 37 3d af ca b9 3d 40 21 30 bd 12 2e e3 bc
       0.044871897 0.09071862 -0.04300046 -0.027731929
000140 3f ac 00 be 9c 4a a3 3d f7 b1 64 3d 7f 20 ad bd
       -0.12565707 0.07973215 0.055833783 -0.08453464
000150 46 e3 79 bd fc 56 ff bd ef be 78 bd d7 51 a1 3d
       -0.06100776 -0.12467763 -0.060728963 0.07876938
000160 33 94 7d 3d 6e 82 ce bd b8 08 08 3b 27 71 d2 bc
       0.061908912 -0.10083471 0.002075715 -0.02568872
000170 eb 51 ab 3c c3 b7 9a bd 96 b7 78 bc 03 b8 6b bd
       0.020913085 -0.07554581 -0.015180489 -0.057548534
000180 ef 14 06 3d 9b 63 78 3c 7b c1 c9 3c fa 1a d7 bd
       0.032734808 0.015160467 0.024628391 -0.10503192
000190 f6 6c c5 3b b7 49 b5 bd cc c9 9e bd a3 91 29 bc
       0.006024952 -0.088519506 -0.077533334 -0.010349664
0001a0 e4 24 a9 3d f8 c6 18 bd f7 d4 d5 bd 0a ff fb 3c
       0.082589895 -0.037299126 -0.104410104 0.03076126
0001b0 d4 a2 38 3d 13 62 75 3d 76 e0 4c bd 77 da 9b 3d
       0.04507716 0.059907984 -0.05001875 0.07610028
0001c0 03 91 c7 3a 54 0f 1f be 7c 4d 13 be 43 6b 8f bd
       0.0015225712 -0.15533191 -0.14385027 -0.070028804
0001d0 0f c7 b2 3a c4 e4 ae bd 6c e3 bc 3d 2a 7e cb 3b
       0.0013639646 -0.08539727 0.09223065 0.0062101083
0001e0 db c1 be 3d 26 1c 7a 3d 97 99 e4 bd f3 e2 94 bd
       0.09314319 0.061062 -0.111621074 -0.0726985
0001f0 40 e0 96 bd d2 91 76 3c d4 6b 0b be f0 ae 00 3e
       -0.07366991 0.015049415 -0.13615352 0.12566733
000200 3e 13 c3 3d b1 5b 82 bc 16 c8 a4 3d ef a8 eb 3d
       0.095251545 -0.015912862 0.08045976 0.11506831
000210 9e 93 ab bd fc 42 91 3d fa ce e6 3d 30 31 b5 bd
       -0.08377765 0.070928544 0.112699464 -0.088472724
000220 b2 18 65 3c fb a3 0a 3e 1e fd da bd 20 5d 37 bd
       0.013982939 0.13539116 -0.106928095 -0.044766545
000230 8a fe 3d bc 63 af a8 3d af 6f b5 3d e8 74 07 3e
       -0.011596331 0.08236577 0.088591926 0.1322819
000240 f0 40 4c bd 8f 8b fa 3d 86 cd 63 bb 37 ff c0 3d
       -0.049866617 0.1223365 -0.0034759953 0.09423678
000250 88 a6 bf 3d 6b 07 c6 bc f7 77 ec bc 94 df 36 ba
       0.09357935 -0.024173459 -0.028865797 -0.0006976065
000260 67 18 48 3d 67 d9 f2 3d 6c b9 a5 3d d4 91 8d bd
       0.048851397 0.118578725 0.08092007 -0.0691258
000270 0c 77 89 bd 2a 20 63 bd c4 3a 90 bb e4 d4 14 bc
       -0.067121595 -0.055450596 -0.0044015367 -0.00908396
000280 2f f5 1b bd 2f 4b d7 39 64 10 09 3e aa c8 44 bd
       -0.038075622 0.00041064012 0.13385159 -0.04804293
000290 22 a1 e7 3d b3 1d cc 3b 6a 5d 00 3e 4b f6 88 bd
       0.113100305 0.0062291264 0.12535635 -0.06687602
0002a0 17 e8 9d bc bb 1a fe bc 08 0c b7 bd 77 49 af 3d
       -0.019275708 -0.031018605 -0.08937842 0.08558934
0002b0 bc d7 39 3d 10 52 91 3c 5f a9 8f 3c 08 61 99 bd
       0.045371756 0.017739326 0.017536817 -0.0748921
0002c0 b5 33 83 3d fb 1f dc bd 0a 56 43 3d 66 67 e2 bd
       0.06406347 -0.10748287 0.047689475 -0.11054878
0002d0 9f 92 2c 3b 1a 3d cc 3c 44 63 88 3d 76 ce 05 3d
       0.002633251 0.02493148 0.066595584 0.0326676
0002e0 ef e4 af 3d 46 3b cf 3d 0c 61 a9 bc db 1d 3d 3c
       0.085885875 0.101187274 -0.020676158 0.011542763
0002f0 e2 21 63 3d 07 2c 84 bd 17 09 96 3d 14 08 25 3d
       0.055452235 -0.0645371 0.073259525 0.040290907
000300 80 1d bf 3d e9 6a 86 3d 5f 69 ed 39 2b 32 4c bd
       0.093317986 0.0656336 0.0004528267 -0.04985253
000310 88 9a b2 bd 2c ae 16 bd 83 09 a2 bd dc 95 33 3e
       -0.08720881 -0.036787197 -0.079119705 0.17537636
000320 bf 2c 05 3e 5c bf a5 3b b3 e5 82 bd f2 a5 e0 bc
       0.1300535 0.005058212 -0.06391468 -0.027422879
000330 2f fa 0c 3d 1c 32 96 3c b3 75 2b bb 1f 54 00 bd
       0.03441828 0.01833444 -0.0026162683 -0.031330224
000340 58 67 2c 3d 47 69 7b bb 83 f1 8c bd c2 3b 64 bd
       0.042090744 -0.003836231 -0.06882002 -0.055721052
000350 f7 46 cd bd 5f 4a 94 bc 7f 73 e1 3d 37 85 9a bd
       -0.10023301 -0.01810187 0.11008357 -0.0754494
000360 48 1b 10 bd d8 a3 bd bd 1e 19 7b 3d b3 0e c2 3d
       -0.035182267 -0.09259766 0.06130325 0.0947546
000370 08 9b 16 3d df cb 12 be 07 ac ad bd 68 08 82 bd
       0.036768943 -0.14335583 -0.08480077 -0.063492596
000380 94 58 b6 bb 0f 4c 92 3d 29 39 02 be 67 bf 14 3d
       -0.0055647586 0.07143413 -0.12717117 0.036315348
000390 e8 3b 0e 3e 30 3f 9d 3d 94 46 96 3c 87 44 82 bb
       0.1389004 0.07678068 0.018344201 -0.0039754543
0003a0 72 93 70 3d a3 d4 05 3e d2 24 dc bc 67 59 25 bc
       0.058734365 0.13069396 -0.026873026 -0.010092116
0003b0 9c 72 0a be f8 5c bc bd fc 0b 86 bc 1e 91 35 bc
       -0.13520283 -0.0919742 -0.016363136 -0.011081962
0003c0 87 19 05 be cf c4 95 bd e3 a7 f3 3c 00 83 27 3d
       -0.12998019 -0.07312929 0.02974314 0.040896416
0003d0 23 83 dd 3d 68 1a 14 3d 2f 31 2b 3d db de a1 bd
       0.10816028 0.036157995 0.041794952 -0.079038344
0003e0 7d 0a 05 3e 97 4b 7b 3d 38 35 bd 3d c2 b0 f1 bc
       0.12992282 0.061351385 0.09238666 -0.02950323
0003f0 53 f6 5a 3d 66 dd f3 3c be db 85 bb f3 d3 46 bc
       0.05345757 0.029768657 -0.004085033 -0.012135494

fc3.bias f4 [64]
000000 18 9b 1a 3d 08 ca b2 3c db dc f3 3d 6c 07 a8 3c
       0.037745565 0.021824852 0.11907359 0.020511352
000010 f7 ba 5b bc 96 ea e3 3d 8c 2e 1d 3e 0b fb 83 3d
       -0.013411275 0.11128728 0.15349787 0.06444367
000020 7f 3e 81 bd cf d6 ba bd a7 6f 1a 3d 53 2e cb 3d
       -0.06310748 -0.09123003 0.037704136 0.09920945
000030 0f 06 8d 3d 12 70 4e bc 9f 69 b2 3c 2f 85 77 bd
       0.06885921 -0.012599962 0.02177888 -0.06042975
000040 52 13 d7 bb 18 bd aa bd aa 3a c6 3b 90 04 3e 3e
       -0.0065635825 -0.08336848 0.006049474 0.18556428
000050 83 e6 76 bd fb b3 40 3e 5c f0 08 be 06 35 e8 3d
       -0.060278427 0.18818657 -0.1337294 0.113382384
000060 d8 df 0b be a6 24 ef 3c 74 84 aa 3d 1d 3d 85 3d
       -0.13659608 0.02919228 0.08326045 0.06505797
000070 28 fe a2 3c a9 73 01 3e f7 34 99 3d d0 7b b6 bd
       0.019896582 0.12641777 0.07480805 -0.08910334
000080 5c d6 1d bd 5c 7d 2b be a7 bf 42 be 04 54 96 3d
       -0.038534507 -0.1674704 -0.19018422 0.073402435
000090 d8 a8 24 3d aa 81 5e bd e4 5c 0a 3e 62 bc e6 bc
       0.040200084 -0.054322876 0.13511997 -0.028166
0000a0 ca 42 ee 3d 5f 5c 43 bd b9 78 05 3e 34 e6 92 3d
       0.11633833 -0.047695514 0.13034333 0.07172814
0000b0 20 64 a6 bd 34 dd 1b bd b7 c8 9f 3c 47 06 c8 bd
       -0.08124566 -0.038052753 0.019504888 -0.09766822
0000c0 cf 9f 6c bd d3 f3 5f bd fc 7c b1 3d 2c ec 1e 3d
       -0.057769593 -0.05467589 0.08666417 0.03879945
0000d0 56 e3 e9 3d 54 88 6f bd 27 60 d4 bd 23 73 98 3d
       0.11420314 -0.058479622 -0.10369902 0.074438356
0000e0 6f 8e c7 3d a8 73 be bc 1a 76 c5 3d db e4 8c b9
       0.09743964 -0.023248509 0.09641667 -0.00026873391
0000f0 5f 30 9a 3c 16 bc f6 3d 66 95 72 bd 88 b1 25 3d
       0.018821893 0.12047593 -0.05922451 0.04045251

fc4.weight f4 [64, 64]
000000 38 d8 a1 bd c3 2e 88 3c 37 6c 7e bd af 77 19 bd
       -0.079025686 0.01662386 -0.06211492 -0.037467655
000010 67 f1 a8 bd 38 25 b4 bd 7b 0a 95 3c 3b 12 5c bd
       -0.08249169 -0.087961614 0.018193474 -0.053728323
000020 2e 77 67 bd 1e 32 e7 b9 e7 6e 84 bd cb 26 6c 3d
       -0.056510143 -0.00044097094 -0.064664654 0.057654183
000030 2c bf 81 3c 87 66 be 3d 25 76 00 3d f7 b6 99 bb
       0.015838228 0.09296899 0.03136267 -0.0046910006
000040 5b 45 98 bc 10 c1 3d 3c 42 e8 e4 bc 38 4e 15 be
       -0.018587759 0.011581674 -0.02794278 -0.1458062
000050 97 1b db 3d 72 f2 6b bd 88 13 0a 3e 52 34 cf bd
       0.10698622 -0.05760426 0.13484013 -0.10117401
000060 0f 7d c5 3d e8 d9 29 3d 60 07 11 be 2c ae be bd
       0.09642994 0.041467577 -0.1416297 -0.093105644
000070 6c cb 36 3d 03 a2 b6 bd 6b 4f bf 3d 07 45 04 3e
       0.044627592 -0.0891762 0.0934132 0.12916957
000080 af e7 67 3d bb b3 76 3d bc 4a a6 3d 7a 13 75 3d
       0.056617435 0.060229998 0.08119723 0.059833027
000090 2e 9c e5 bd 38 7c b2 3d 9f fe 86 3c ba fc 5f 3d
       -0.112114295 0.08715099 0.016478835 0.05468438
0000a0 0a 6a 52 bd 50 42 09 3e 56 50 57 bd 84 39 51 bd
       -0.051370658 0.13404202 -0.05256685 -0.05108024
0000b0 4c cd 27 3d 34 26 14 3e 18 35 35 bc 0f 09 a3 bd
       0.04096727 0.14467698 -0.011060022 -0.07960712
0000c0 7e f0 7f bd aa 29 eb bd 77 ee 03 bb 50 86 80 3d
       -0.06248521 -0.11482556 -0.002013115 0.06275618
0000d0 c3 2a 20 bd f8 2e b3 3c 67 8f c4 3d ba c3 ff bd
       -0.03910328 0.021872982 0.09597664 -0.12488504
0000e0 9c 14 8e bd 08 48 28 3d 67 0c f7 bd 18 fd ba bd
       -0.06937525 0.04108432 -0.120629124 -0.09130305
0000f0 24 a2 1b 3e 59 91 01 be 40 6c 0d 3e ff 1f 53 bd
       0.1519857 -0.12653102 0.13810825 -0.051544186
000100 44 88 b8 bd b7 71 bf 3d 58 d4 9e bd 3c ea 1a 3e
       -0.090103656 0.09347861 -0.07755345 0.15128416
000110 5b aa ec 3c 10 26 1f 3d 8b a2 a6 3b 0c 58 37 bd
       0.028889826 0.03885466 0.0050852946 -0.044761702
000120 20 83 1b 3d 6c 21 9d 3d 27 f8 d2 bd fb d4 b8 bd
       0.037966847 0.0767239 -0.103012376 -0.09024998
000130 d3 8f 0f bc 22 86 50 3d 73 dd d8 3d cf 9b 03 3e
       -0.008762318 0.05090917 0.10589113 0.12852405
000140 ea 31 14 3e 3f b4 c7 3d 54 c3 24 3e 32 29 52 3b
       0.14472166 0.09751176 0.16090137 0.0032068011
000150 37 3e f0 3d 77 4c b1 bd 57 c4 5b 3d e8 a7 15 3c
       0.117306165 -0.08657163 0.05365404 0.00913427
000160 ea 2f 61 3d d4 fa 2b 3d bb 26 c5 bd d3 e1 3f 3d
       0.054977335 0.041987255 -0.09626528 0.046846222
000170 2f a0 b4 bd 98 38 91 3d 60 fb 92 bd 5f b2 e0 3c
       -0.08819615 0.070908725 -0.07176852 0.027428804
000180 3e 25 05 bc 67 99 bf bd 47 e7 d2 3d 53 cc 96 3c
       -0.008126555 -0.09355431 0.10298019 0.018407976
000190 8b 9a 82 3c 04 92 0a 3e 17 72 83 bd 33 be b0 3d
       0.015942832 0.13532263 -0.06418245 0.086300276
0001a0 80 c9 bd 3d 33 d6 f2 3c 72 7c 86 bc ce 34 78 3d
       0.09266949 0.029643154 -0.016416762 0.060597233
0001b0 10 28 a7 3d bf 27 c5 3c de 7d d6 3b c4 55 22 3c
       0.08161938 0.024066804 0.0065457663 0.009908143
0001c0 0a c9 d2 bd be 18 45 bd 2e 77 f6 bc 18 ee 12 bb
       -0.102922514 -0.0481193 -0.030086126 -0.0022419747
0001d0 21 a5 02 3d 17 21 e2 3c 3b 37 99 bd 56 dc 70 bd
       0.03189576 0.02760367 -0.074812375 -0.05880388
0001e0 d7 55 9d 3c b8 4e 1c 3e 46 85 e4 3d f3 7a c5 bd
       0.01920597 0.15264404 0.111582324 -0.09642591
0001f0 8b 1f 80 3d 20 65 20 bd d4 7a ef 3d 34 50 3f bd
       0.06256016 -0.03915894 0.116933495 -0.046707347
000200 70 54 9d bd 6b fa e1 bd 63 d7 5f bd db 1f a7 bd
       -0.07682121 -0.110340916 -0.05464877 -0.08160373
000210 b7 72 87 bc 7c a5 a9 bd 03 05 fe bd 7c 3f ab bd
       -0.016534192 -0.08283517 -0.124033 -0.08361718
000220 41 04 06 3e 5f 06 f6 3d 8a 51 7c 3c 50 b5 18 3d
       0.1308756 0.12012934 0.0154003 0.037282288
000230 1a 4d f3 bc 8e db eb 3c e2 c3 e6 bd 32 93 6f bd
       -0.02969985 0.028791215 -0.112678304 -0.058489986
000240 6e 9b ce 3d ef 68 c2 3c 97 63 d4 3d 06 2d 5c 3c
       0.100882396 0.023731677 0.10370558 0.013438469
000250 c7 d7 37 bd c7 de 71 3d 3c c9 b6 3d 04 a9 b9 3d
       -0.044883516 0.059050348 0.08925101 0.0906544
000260 dd b8 05 3a 08 c6 b6 3c d3 b8 e8 bd 9f 47 f2 bd
       0.0005101094 0.022311226 -0.113633774 -0.11830067
000270 72 e3 70 bb 08 41 20 3d d3 17 55 bd 36 f5 c0 bd
       -0.0036756662 0.03912452 -0.052024674 -0.0942177
000280 93 e7 e5 3c a4 4b 38 3c 33 a8 fd 3d e6 62 cb 3d
       0.028064525 0.011248503 0.12385597 0.09930973
000290 f3 99 49 3c 00 05 37 3d 03 65 7d bd 84 88 1b be
       0.012304771 0.044682503 -0.06186391 -0.15188795
0002a0 c5 c6 80 3d 1e 89 79 bd 10 74 9c 3c 2f 0a eb bc
       0.06287912 -0.06092178 0.019098312 -0.02869138
0002b0 bf 91 dd 3d 0a f7 c7 bc 44 1e b9 bd 7d e6 80 3d
       0.108188145 -0.02440979 -0.09038976 0.06293962
0002c0 9a c2 cb bd 8f 7a 54 3d e4 75 0f be 5f 95 50 bd
       -0.09949227 0.051874693 -0.14009815 -0.0509237
0002d0 a6 39 d0 bd b3 57 71 3d 58 76 09 3e fe 00 4f bb
       -0.101672456 0.058921527 0.13424051 -0.0031586285
0002e0 8e 99 04 3d f2 bc 4e bc 22 6d fd 3d 2c f2 2c bd
       0.032373004 -0.01261829 0.12374331 -0.04222314
0002f0 34 54 0e 3d 90 f2 bb bc 50 c4 2c 3e 97 5d a8 3d
       0.03474827 -0.022942811 0.16871762 0.08220976
000300 23 af 54 3d e1 4e 82 3c 73 69 d9 3d d0 09 a6 bd
       0.051924836 0.015906753 0.10615816 -0.0810734
000310 73 eb 13 3c 83 5d 8f 3d 4f 5b ed 3c 14 d9 9c 3d
       0.009028303 0.07000258 0.028974203 0.07658592
000320 64 d4 a6 bd 47 61 d6 bd 48 d6 1d 3d af c4 b5 3d
       -0.08145979 -0.10467773 0.038534433 0.08875405
000330 bc 31 1c bd fe 59 e9 bc 8f 11 d4 bd 83 94 86 bd
       -0.038133368 -0.028485294 -0.103549115 -0.06571295
000340 2c 11 b1 bc 84 ba 06 3c d4 91 1c bb 38 ea b2 bc
       -0.021614634 0.00822318 -0.0023890631 -0.0218402
000350 e6 7c 6d 3b 7c bc a6 bd 53 e3 4a bd d3 09 80 bd
       0.0036237775 -0.08141419 -0.0495332 -0.06251874
000360 f2 a6 41 bd b0 7b 10 bd 6b 02 1e bc 5f e7 7b 3c
       -0.047278352 -0.035274208 -0.009644131 0.015374987
000370 27 21 dc bd 2e d5 c0 3c 3a d9 e7 3d d8 f8 06 be
       -0.10748511 0.023539152 0.113207296 -0.13180864
000380 1c 51 a4 bb 3b 40 95 3d 0c 01 af bd 5b 6f aa bd
       -0.005014552 0.072876416 -0.085451216 -0.083220206
000390 08 48 99 bd df 01 50 bd 2f 54 08 bd f7 21 f7 3d
       -0.07484442 -0.050783034 -0.03328341 0.12067025
0003a0 97 53 8a 3d b7 4b e5 bd 3a 59 79 3c ae 44 42 bd
       0.06754225 -0.11196082 0.015219027 -0.04742878
0003b0 93 11 5f bb fa 3b a2 3d 83 0d 14 bc b7 cd 4c bd
       -0.0034037575 0.07921596 -0.009036425 -0.050000872
0003c0 7b 99 d8 bd a3 ce 14 3d 0f e7 04 3e a7 bc e8 3d
       -0.10576149 0.036329877 0.12978767 0.113641076
0003d0 c6 bd f4 3d 3f 7d 47 bd b5 e5 05 be 3a f2 04 3e
       0.11950259 -0.04870343 -0.13075908 0.12983027
0003e0 6b 2c 17 bc 0c 5b 0c be 17 91 1f bc 86 90 7d bc
       -0.009226899 -0.13706607 -0.009739182 -0.015476352
0003f0 4a f2 66 3d 16 a4 d7 bb e8 ed 10 be fb c7 93 bb
       0.05638341 -0.00658084 -0.14153254 -0.0045099235

fc4.bias f4 [64]
000000 bf 18 cf bd 34 96 21 be 6c 27 35 bd 48 f2 a4 3d
       -0.10112142 -0.15779954 -0.04422705 0.08054024
000010 cb 71 53 3e 2f f0 5c 3d 17 19 47 3e cf 33 47 3e
       0.20648877 0.053939994 0.19443165 0.19453357
000020 70 41 a5 bc 0f e8 a0 3c eb 29 4e 3e 96 9d db bc
       -0.020172805 0.019641904 0.20133178 -0.026808541
000030 4c 35 10 3e c4 e0 99 3d 4f d1 db 3d c7 70 d8 bd
       0.14082831 0.07513574 0.10733282 -0.105683856
000040 18 e8 09 3e 63 fa ee 3d 24 c1 38 3e ec 4d 3e bd
       0.13467443 0.11668851 0.18042427 -0.04646103
000050 b7 c5 8e bd 6f 78 3a 3d e0 b9 1f 3d be 0e 45 3d
       -0.06971305 0.04552501 0.038995624 0.048109762
000060 21 51 01 bd 1c f7 ad 3d 06 0e fb 3d 90 7b e7 3d
       -0.03157151 0.08494398 0.12258534 0.113028646
000070 c4 b2 b8 3c 92 98 4b ba b0 ec 8d bd 28 e2 09 bc
       0.02254618 -0.000776657 -0.0692991 -0.008415736
000080 52 a4 d0 bc cc b6 31 3d db 77 65 3e 38 7f 34 3e
       -0.025468979 0.04338722 0.22409002 0.17626655
000090 43 6c f7 bd 97 a0 12 bd e3 45 b5 bc 24 89 2f 3d
       -0.12081196 -0.03579768 -0.022128051 0.042855397
0000a0 03 08 67 3e f7 4e 18 bc e0 02 b1 3d 24 2a 25 3d
       0.2256165 -0.00929617 0.086431265 0.04032339
0000b0 58 0f 0c 3e aa ad c6 bc 24 8a d6 3d c4 5d 1a bd
       0.13677728 -0.024252731 0.10475567 -0.037687078
0000c0 c8 bf bb 3d 27 59 38 bd 4f 2b 43 3e ef 8d 22 bd
       0.09167439 -0.045006897 0.1905949 -0.03968614
0000d0 cc f3 0d be 36 8d 4f 3d 2c 5d 1c be 2c bc 17 bb
       -0.13862532 0.05067178 -0.15269917 -0.002315293
0000e0 43 3d 1a be 43 42 c7 3d 1f 39 42 be 3b ac ab bc
       -0.15062432 0.09729435 -0.18967102 -0.02095615
0000f0 ef e4 b4 3c 42 91 fa bb 10 af 36 be 58 3f 13 3c
       0.02208182 -0.0076467106 -0.17840219 0.00898727

fc5.weight f4 [1, 64]
000000 43 24 fe 3c f7 c2 f1 3d 8f f2 c0 3d e4 5e 1c bd
       0.03102315 0.11804765 0.094212644 -0.038176432
000010 ff 83 5d bd e7 8e 4c bd 6f 6f af bd 9a a6 62 bd
       -0.05408096 -0.04994097 -0.08566176 -0.055334665
000020 df 4d 59 bd 03 26 f1 3d cc c8 33 bd 0c 2a 0b bc
       -0.05305278 0.11774828 -0.043892667 -0.0084939115
000030 72 86 e9 bd 2a 08 f1 bd cf b3 dd bd ec a7 25 3a
       -0.114025965 -0.11769135 -0.108253114 0.0006319273
000040 2c 09 af bd 67 c1 d3 bc 37 9e ae bd e4 34 df bd
       -0.08546671 -0.025849057 -0.08526271 -0.1089876
000050 ff ab ce bc 7c cd 62 bd f4 9e b0 bc 1b 30 68 3c
       -0.025228499 -0.055371746 -0.02156017 0.0141716255
000060 8c 8a af 3d 24 92 b0 bd 16 e5 f0 bd 33 5e 40 bd
       0.085713476 -0.08621624 -0.11762445 -0.046964835
000070 6f dc ce 3d e4 47 00 be 68 05 2e 3d dc 6a 9d 3d
       0.10100638 -0.12527424 0.042485625 0.076863974
000080 1c 32 87 bd 4f dd 13 bd cb 5e ff bc a0 6f 98 bd
       -0.066013545 -0.03609973 -0.03117313 -0.07443166
000090 7c ca a7 3d 3c a1 9d bd 08 1b bc bc bf d1 c0 3d
       0.08192918 -0.07696769 -0.022962108 0.09415006
0000a0 b8 17 21 bd 70 af 1c bd f4 fc b1 bd 53 1c e7 bc
       -0.03932926 -0.038253248 -0.08690825 -0.028211748
0000b0 57 73 66 bc f0 4a 8e bd a8 8e 4b bd fc 63 8e 3d
       -0.014065585 -0.06947887 -0.049696594 0.06952664
0000c0 fa 02 e0 bc 1c 93 9e bd 50 22 9a bd a8 ed 94 bc
       -0.02734517 -0.07742903 -0.07526076 -0.01817973
0000d0 70 41 08 3d de 46 d6 bd 28 9a 29 3d 73 a5 f7 3d
       0.03326553 -0.104627356 0.04140678 0.12092104
0000e0 e0 0c 3b bc d5 ee fc bc 7f 8c cd 3d 9b fb d3 bd
       -0.011416644 -0.030875603 0.10036563 -0.10350724
0000f0 83 00 dd 3d a0 1e 9e bd 4f df c8 3d 96 bc 64 bd
       0.10791113 -0.07720685 0.09808218 -0.055843912
