self_avoidance_gym/pth/target_critic_2.pth (torch, 17892 bytes, 19 tensors)

value_mean f4 [66]
00000000: 0000 0000 0000 0000 0000 0000 0000 0000
00000010: 0000 0000 0000 0000 0000 0000 0000 0000
00000020: 0000 0000 0000 0000 0000 0000 0000 0000
00000030: 0000 0000 0000 0000 0000 0000 0000 0000
00000040: 0000 0000 0000 0000 0000 0000 0000 0000
00000050: 0000 0000 0000 0000 0000 0000 0000 0000
00000060: 0000 0000 0000 0000 0000 0000 0000 0000
00000070: 0000 0000 0000 0000 0000 0000 0000 0000
00000080: 0000 0000 0000 0000 0000 0000 0000 0000
00000090: 0000 0000 0000 0000 0000 0000 0000 0000
000000a0: 0000 0000 0000 0000 0000 0000 0000 0000
000000b0: 0000 0000 0000 0000 0000 0000 0000 0000
000000c0: 0000 0000 0000 0000 0000 0000 0000 0000
000000d0: 0000 0000 0000 0000 0000 0000 0000 0000
000000e0: 0000 0000 0000 0000 0000 0000 0000 0000
000000f0: 0000 0000 0000 0000 0000 0000 0000 0000
00000100: 0000 0000 0000 0000
0.0 0.0 0.0 0.0 0.0 0.0 0.0 0.0
0.0 0.0 0.0 0.0 0.0 0.0 0.0 0.0
0.0 0.0 0.0 0.0 0.0 0.0 0.0 0.0
0.0 0.0 0.0 0.0 0.0 0.0 0.0 0.0
0.0 0.0 0.0 0.0 0.0 0.0 0.0 0.0
0.0 0.0 0.0 0.0 0.0 0.0 0.0 0.0
0.0 0.0 0.0 0.0 0.0 0.0 0.0 0.0
0.0 0.0 0.0 0.0 0.0 0.0 0.0 0.0
0.0 0.0

value_std f4 [66]
00000000: 0000 803f 0000 803f 0000 803f 0000 803f
00000010: 0000 803f 0000 803f 0000 803f 0000 803f
00000020: 0000 803f 0000 803f 0000 803f 0000 803f
00000030: 0000 803f 0000 803f 0000 803f 0000 803f
00000040: 0000 803f 0000 803f 0000 803f 0000 803f
00000050: 0000 803f 0000 803f 0000 803f 0000 803f
00000060: 0000 803f 0000 803f 0000 803f 0000 803f
00000070: 0000 803f 0000 803f 0000 803f 0000 803f
00000080: 0000 803f 0000 803f 0000 803f 0000 803f
00000090: 0000 803f 0000 803f 0000 803f 0000 803f
000000a0: 0000 803f 0000 803f 0000 803f 0000 803f
000000b0: 0000 803f 0000 803f 0000 803f 0000 803f
000000c0: 0000 803f 0000 803f 0000 803f 0000 803f
000000d0: 0000 803f 0000 803f 0000 803f 0000 803f
000000e0: 0000 803f 0000 803f 0000 803f 0000 803f
000000f0: 0000 803f 0000 803f 0000 803f 0000 803f
00000100: 0000 803f 0000 803f
1.0 1.0 1.0 1.0 1.0 1.0 1.0 1.0
1.0 1.0 1.0 1.0 1.0 1.0 1.0 1.0
1.0 1.0 1.0 1.0 1.0 1.0 1.0 1.0
1.0 1.0 1.0 1.0 1.0 1.0 1.0 1.0
1.0 1.0 1.0 1.0 1.0 1.0 1.0 1.0
1.0 1.0 1.0 1.0 1.0 1.0 1.0 1.0
1.0 1.0 1.0 1.0 1.0 1.0 1.0 1.0
1.0 1.0 1.0 1.0 1.0 1.0 1.0 1.0
1.0 1.0

fc1.weight f4 [16, 66]
00000000: 2c4b 0dbd 4133 803d 8625 82bb ef1e 143d
00000010: ecb6 643d 57e2 a9bd 4a8d 3bbd 2ff7 e23d
00000020: 7747 ef3d 43fb a33d fff3 f93d f34d dd3b
00000030: f849 babd f387 f9bd 9332 aa3d e599 8ebb
00000040: db48 e3bd 696b e2bd 8cde 9e3d 9862 853d
00000050: b841 b2bd 43e7 cb3d 9c8e 92bd 64d8 d93c
00000060: 5898 ce3c 7b6d 9d3b fe24 f8bc bbb4 20bd
00000070: 0891 a33d 4131 f6bd fbb5 8c3a 44a6 76bd
00000080: 402c c9bd 230e 05bc 2594 7dbd 523a e4bd
00000090: d4f0 0ebd b425 5fbc 2cd1 a03d 1617 8cbd
000000a0: ca69 033d a64b f63d d702 213c e6b8 23bd
000000b0: a6ae ab39 fe7d 3b3d 802e 193d 78cd 17bd
000000c0: 6e31 d53d ce53 3f3d 535f efbd 87a2 eb3b
000000d0: 9ef5 743d a6ed b33c 3e83 bc3c 98d2 423d
000000e0: c401 46bd d369 c73d e9c5 a83d 3407 a43d
000000f0: 6888 d3bd ea44 cb3d 3775 f93d 1347 36bd
00000100: 8296 6fbd 577a 0f3d f585 df3d 576f b43d
00000110: 15bb 9f3c 7e8c 2a3d aae0 3fbd 8a95 f0bb
00000120: c74c edbc 47d6 e0bc d2cb f4bb c10b 403d
00000130: dd29 55bd 194a 9abd 5d2c 9abc 7f03 afbd
00000140: 37dd 01bd 25de 343c d91f a63c 4b92 463d
00000150: 7efb bc3d b991 f4bd 9f87 a9bd 9e74 4ebd
00000160: 0c1f 433d b27d df3d 9e98 ad3b f0f6 b13c
00000170: bb0d cb3d 5ad6 e3bd 042d 623d 7555 a9bd
00000180: 75d8 f8bd 95de c3bd f06f 813d 218a d63d
00000190: c354 d33d 572d 37bd 4c99 953d 06db e23a
000001a0: b450 afbd d45d ccbc 80a6 113d 741f ff3b
000001b0: d5c3 92bc 5e0a 32bd c50b a73d b091 dcbd
000001c0: 3d82 01bd 63db 33bb a7e0 a7bd c90b 8d3d
000001d0: 26ce e33d 854b 3a3d 3db7 dc3b a704 ccbb
000001e0: d3d8 863d 53a8 d9bd c529 0ebd 5aab b0bb
000001f0: 0125 e23d 84d8 b73d 30c4 aabd 0ccf c9bd
00000200: 5c51 efbc 3bea bfbd 4bfe 363d e4d4 c13b
00000210: 965e b8bc ee25 c73d f1d2 f6bc 0aa8 af3d
00000220: c4f6 9dbc 2fcf 21bd 8518 6c3d 0d3c c8bd
00000230: 0aae 54bc 46fc 68bd e8d5 763d 5d19 9fbd
00000240: 6ae1 efbd fc26 9a3d f8fa e8bc 4f60 ad3d
00000250: 7d43 91bd 4ba8 6fbd 9e4d dc3d e392 8c3d
00000260: 4128 b23d 775b 1fbd 4a43 9fbc cea5 8dbc
00000270: 4985 a73d 6179 cfbd e26d 543d 6d85 e33d
00000280: 5d88 ae3d 6184 47bc 5377 64bd 6255 d33d
00000290: 26f5 d4bd 6d6e 773d 29ce ea3d 18a0 0a3d
000002a0: a935 dfbd 69c8 8d3d de54 c73a b290 f63d
000002b0: 2237 ea3d 4692 d83c 80be efbd a9c7 08bd
000002c0: 049d 9bbd 23eb 79bd a40c 38bd 56ed e5bd
000002d0: 851f fd3c 47bd b2bd 2f7f 8f3c df07 ee3d
000002e0: 32ef d83b 64ee f7bd ea10 1f3d ab23 4abd
000002f0: 9417 a13d 18c8 cf3d 8449 a9bd d510 5c3d
00000300: cc16 bebd bb58 ae3d cf25 3aba acc0 b5bd
00000310: 7ac1 183d f91b da3c 3ced 873d fe45 183d
00000320: 15a9 b8bc 6bf7 0e3d f6d2 0ebd 0067 f23d
00000330: b616 fabd f3ec 97bd 97fa ddbd c2c3 e83d
00000340: c97f a93c d99f 373d 8375 ddbc 098c 253d
00000350: 9ffa de3d b467 403d bbfb c13d 0d42 59bd
00000360: 317f fcbd 8a41 86bd 9664 8cbd 3fbe b7bc
00000370: 0818 6cbc 3ff2 84bd 073b 503d 3e20 95bd
00000380: 1bb8 1dbd d446 ee3c 262f d3bd 3928 ef3c
00000390: b16c aa3d f6a7 093a 8621 aa3d 38a9 e1ba
000003a0: 5f54 b7bb 983d c73d 1786 77bd c673 a33d
000003b0: ad7a 563d 1b31 91bc c791 f23d 4954 8b3c
000003c0: 773d a53d 7177 18ba 3dd5 883d 65ca c63d
000003d0: e241 a3bd 690a de3d 3d07 f03c 581e 7dbd
000003e0: d211 bf3c 82e3 57bd f322 143d 0912 9fbc
000003f0: d537 ac3c af40 7abd d294 b3bd 2aff bcbc
-0.034495518 0.06259776 -0.0039717583 0.036162313 0.05583851 -0.08295124 -0.04578904 0.11082303
0.11683553 0.08006909 0.12204742 0.006753677 -0.0909614 -0.121841334 0.083104275 -0.0043518418
-0.110978805 -0.11055643 0.07757291 0.06512946 -0.08703941 0.09956219 -0.07156107 0.02659244
0.025219128 0.004804311 -0.030291077 -0.039234858 0.07986647 -0.12021113 0.0010735387 -0.060217157
-0.09822893 -0.008121046 -0.06190886 -0.11143936 -0.03489764 -0.013619829 0.07852396 -0.06840341
0.03208331 0.120261475 0.009827337 -0.039971255 0.00032745785 0.045774452 0.03739786 -0.037061185
0.104098186 0.04671078 -0.116881035 0.0071910056 0.05980455 0.021963906 0.0230118 0.04756412
-0.048341528 0.09736981 0.08240873 0.080091864 -0.10328752 0.09925254 0.1218056 -0.044501375
-0.058493145 0.03502878 0.10914222 0.08810299 0.019498387 0.04163789 -0.046845116 -0.007342045
-0.028967274 -0.027445925 -0.0074705863 0.04688621 -0.052041877 -0.07533664 -0.018819982 -0.08545589
-0.031705108 0.0110392915 0.020278858 0.04847936 0.09227656 -0.11941857 -0.08277821 -0.050404184
0.04763703 0.10912646 0.0052977344 0.021724194 0.09914728 -0.11124869 0.05521871 -0.08268253
-0.12150661 -0.095639385 0.063201785 0.10475565 0.103189014 -0.044720974 0.0730463 0.0017307706
-0.08560315 -0.024947084 0.035559177 0.007785732 -0.017915646 -0.04346692 0.08156542 -0.10769975
-0.031618346 -0.0027443997 -0.08197146 0.068870135 0.11123304 0.045482177 0.006735711 -0.0062261405
0.06584325 -0.106278084 -0.034707803 -0.0053915204 0.11042214 0.08976844 -0.08338201 -0.09853944
-0.0292136 -0.09370848 0.044676106 0.005915271 -0.02250604 0.097240314 -0.030129882 0.08576973
-0.019282706 -0.039504226 0.05764057 -0.09777079 -0.012980947 -0.05688121 0.06026259 -0.077685095
-0.11712916 0.07526967 -0.028439984 0.08465635 -0.070929505 -0.058510106 0.10756992 0.06863954
0.08699084 -0.038905587 -0.019441266 -0.017290976 0.08179719 -0.10130573 0.051862605 0.11109433
0.08522103 -0.012177558 -0.05577786 0.1031902 -0.10398321 0.060408045 0.11465103 0.033844084
-0.10898907 0.06922991 0.0015207788 0.12039317 0.11436297 0.026436936 -0.11706257 -0.033393536
-0.07598308 -0.06101526 -0.04493393 -0.11226909 0.030898819 -0.08727508 0.0175167 0.11622595
0.006620311 -0.12106016 0.03883449 -0.049350422 0.07865825 0.10145587 -0.08265975 0.05372699
-0.09281692 0.08513018 -0.0007100971 -0.0887464 0.03729389 0.026624667 0.06637046 0.037176125
-0.022541562 0.034903925 -0.034869157 0.11836052 -0.12211363 -0.07418241 -0.10838812 0.11365463
0.020690816 0.044830177 -0.027033573 0.04041675 0.10887646 0.0469739 0.09471842 -0.053041507
-0.12328947 -0.06555469 -0.06855123 -0.022429584 -0.014410026 -0.06491517 0.050837543 -0.0728154
-0.038505655 0.029086508 -0.10311727 0.029193984 0.083215125 0.00052511634 0.08307175 -0.0017216569
-0.0055947746 0.09728545 -0.060430612 0.079810664 0.052363086 -0.01772361 0.11844211 0.017007964
0.08068364 -0.0005816138 0.06681297 0.097065724 -0.079715505 0.10841829 0.029300326 -0.061796516
0.023323927 -0.052707203 0.036166143 -0.01941778 0.021022717 -0.061096843 -0.087686196 -0.02307089

fc1.bias f4 [16]
00000000: 0242 0cbc 91fc aabd bd9e 4e3d e027 133a
00000010: fa81 e1bd ed16 09bb 821b b73c 0ade 873d
00000020: bb46 843d c547 b43d 4987 4d3c 6f5b 19bd
00000030: c4a7 1ebd 6bec 4fbd dc28 33bd 8882 19bc
-0.008560659 -0.083489545 0.050444353 0.0005613547 -0.11011119 -0.0020918206 0.022351984 0.066341475
0.06458803 0.088027515 0.0125444615 -0.037440713 -0.038734213 -0.050762575 -0.04374014 -0.0093695

fc2.weight f4 [16, 16]
00000000: d350 81bd 6f2b 803d 6c10 333d d54c 5b3e
00000010: 8257 483e 001f 243e 4a24 3d3d 5d90 1b3e
00000020: a5bd 873c 4675 4d3e e8ec 973d a856 673c
00000030: b85b 043e 9bce 753e c396 513e 6541 e9bd
00000040: 109d 6abd 4efb 6e3e b477 1b3e 8f96 93bc
00000050: af69 763e 5135 7d3e b2cd 3ebe d632 2f3e
00000060: 1ddd 1cbe 08c5 3cbe 16ba efbd 9dc1 373e
00000070: 64ba 853d cfcd 763e 0587 a2bd 34c7 47bd
00000080: 7ae5 08be fd1d fe3d f525 20be fd07 99bb
00000090: b596 803d 734e 54be bc4f 7dbe 4639 08bd
000000a0: cde9 49be 4dac f13d 1b34 7fbe 7a6b 47be
000000b0: ac00 1fbe 8f39 55be a95c ad3d 617f 0d3e
000000c0: 22d3 5f3e e8ef 47be bace 4d3e 4945 2c3e
000000d0: 18d0 dd3b 7595 2b3d 7250 a93d 08ac 33bd
000000e0: 856f 21be 7c19 133d ca07 5b3e 199c 68be
000000f0: 362d 733e 4adb 45be 9264 1b3d b95e 643d
00000100: 2595 3abd 19c1 10be 8d5b ce3b aded 6f3e
00000110: 24b7 6f3e 0940 a8bc 6754 043c 53b3 8abd
00000120: fc85 743e 3b69 6ebe 1909 4cbe d981 24be
00000130: 44c6 13be 258e 17be f7a1 55bd ba50 c7bb
00000140: 9caa 84bb b1eb 243d a678 363d d962 2f3e
00000150: dcaa 67be ce37 3d3e f449 17be 29e7 043e
00000160: e1b4 61be 8f7c 1cbd b682 453e c05d 01be
00000170: 93f2 d63d dcdc 533e 8288 123e 6cb1 f1bd
00000180: a12f 043e 880b 7d3e 1aca d6bc 067d 46be
00000190: 9830 073c c668 b3bc 2852 3d3c bc0f 413e
000001a0: 8867 fc3d 758f 5dbe ace5 723e 4c3f cc3d
000001b0: 6ac2 b5bd f0ae 77bd c17c 6c3c 3187 67be
000001c0: 8152 b73c 0590 473e 2938 5d3e 9e91 b0bd
000001d0: 3803 cabd f36c 49be d493 1b3e f28a bc3d
000001e0: 1667 9f3d a37b 8dbd e402 10be 1bb7 8cbc
000001f0: 9ad9 5d3e e966 263d e1b5 003e d88d 503e
00000200: 73f8 21be 4d2b 593e c578 4f3d 91f3 643e
00000210: 95d3 75bd b1de 04be ca0d 4ebd 9733 e03d
00000220: f8e4 7a3e ba90 913c da2d e4bb e023 4fbd
00000230: 8130 793e 44ef 26be 6739 a7bd 77b9 06be
00000240: c5a1 e03d 2269 5e3e c465 bfbd bfc3 58be
00000250: 27d4 4cbe 866f 353e f45a 003c 55ef d0bd
00000260: 6a23 3ebd 62dc 44be 1468 4e3e 9801 d53d
00000270: b7d1 02be 178d 7fbe ed5b e7bd 3dcd 7bbe
00000280: 64fb 323e 0108 903d d2d1 c8ba 906b 59be
00000290: 650d 12be 42dc 36be e074 7cbe 067a 173e
000002a0: adaa dc3d 3cea 8c3d 30ad 473e e80c c4bc
000002b0: 36ae 5c3e b14a d1bd 7798 02be 76d7 a5bd
000002c0: 39f0 593c 13bc 143d 84ce f33d c2cf 573e
000002d0: 63d4 ca3d d670 b93c 6b5a a03d daaa 4bbe
000002e0: e79c 523e ca43 b9bc 7692 cabd 09f6 c739
000002f0: 32fe 5abe 5a78 7cbe 4f6a 01be 4e52 79be
00000300: 2eb9 d63d c66a 463d fe95 fcbc 8681 233e
00000310: 51a5 bbbd cfc4 8d3d 287f febb 0596 4dbd
00000320: cc76 233e e900 703e aec4 623e 933c eabd
00000330: 664b 5d3e 6a54 3c3c 3e4a 6f3e 2b34 77be
00000340: 192b 73be df38 eb3d 21ea c33d 2799 1abe
00000350: 61ab fdbd 14cf b3bd d678 6cbb d08d 9e3d
00000360: a3b4 d63c 4b3c 78be faa3 49be 4e29 313d
00000370: 7672 db3d 1b62 2d3e 6ef3 ecbd f7a4 18be
00000380: a3c0 323e e9ae 6d3c ae3d a33d 2a1f 31bc
00000390: 6e8b 8bbc f6a0 27bd f535 aabd d322 653e
000003a0: df58 fd3d 5a5c 63be 4603 afbd 8f81 8c3d
000003b0: 5020 7cbd afeb 1e3e e461 12be 0738 25be
000003c0: c856 573e c47b 6f3e 674d 92bd f1bd 793e
000003d0: 74e2 693e 3215 683e 9610 173e 5677 43bc
000003e0: 6b9e a1bd a7c2 95bd b938 61be 5b0b 4f3e
000003f0: 6804 babc b156 053e 2601 893d e06f 96bd
-0.06314244 0.06258284 0.043716833 0.21416028 0.19564632 0.1602745 0.046177186 0.15191789
0.016569922 0.20064268 0.07418233 0.014119782 0.12925613 0.24004595 0.20467667 -0.11389426
-0.057278693 0.23338053 0.15182382 -0.018016128 0.24063753 0.2472737 -0.18633154 0.17109236
-0.15318723 -0.18434536 -0.11705415 0.17944951 0.06529692 0.24101947 -0.07935909 -0.04877396
-0.13368788 0.124080636 -0.1563948 -0.0046701417 0.06278745 -0.20733051 -0.24737448 -0.033257745
-0.19718094 0.11800442 -0.2492222 -0.19474593 -0.155276 -0.20822738 0.08464939 0.13818122
0.21857885 -0.1952511 0.20098391 0.16823305 0.0067691915 0.04189058 0.08267297 -0.043865234
-0.15765198 0.035912976 0.2138969 -0.22715797 0.23747715 -0.19321933 0.03793771 0.055754397
-0.04555239 -0.14136161 0.006297535 0.2343051 0.23409706 -0.020538347 0.008076764 -0.06772485
0.23879236 -0.2328233 -0.19925345 -0.16065158 -0.14431101 -0.14800318 -0.052156415 -0.0060826214
-0.0040486585 0.040263835 0.044548653 0.17127551 -0.22623771 0.18478319 -0.14774305 0.12978806
-0.22041656 -0.038204726 0.19288144 -0.12633419 0.10495486 0.2068972 0.14309886 -0.11801419
0.12908794 0.2471143 -0.026219416 -0.1938363 0.008251332 -0.021900546 0.011555232 0.18853658
0.123244345 -0.21636756 0.23720425 0.099730104 -0.08874972 -0.060469568 0.0144340405 -0.22610165
0.022378208 0.19488533 0.21603455 -0.08621524 -0.09863895 -0.19670467 0.1519311 0.09206189
0.07783334 -0.069083475 -0.14063603 -0.017177155 0.2166504 0.040625487 0.12569381 0.20366609
-0.15817432 0.21207924 0.050652284 0.22358538 -0.060016233 -0.12975575 -0.05030612 0.1094734
0.24501407 0.017769206 -0.0069634737 -0.050571322 0.24334909 -0.1630221 -0.081652455 -0.13156687
0.10968355 0.21719792 -0.09345582 -0.21168421 -0.20002805 0.17718324 0.007834185 -0.10201899
-0.046420492 -0.19224694 0.2015689 0.104006946 -0.12775312 -0.24956165 -0.1129683 -0.24590011
0.1747871 0.070327766 -0.001532132 -0.21232438 -0.14262922 -0.17857459 -0.2465396 0.14792642
0.10774741 0.06880614 0.1949966 -0.023931935 0.21550831 -0.102193244 -0.12753473 -0.080977365
0.013301902 0.036312174 0.11904624 0.21075347 0.09903791 0.022636812 0.07829746 -0.19889393
0.20567666 -0.022615332 -0.098912165 0.00038139548 -0.2138603 -0.24655285 -0.1263821 -0.24347803
0.10484539 0.04844167 -0.03083324 0.15967378 -0.09162391 0.06922304 -0.007766623 -0.050191898
0.15963286 0.23437847 0.2214534 -0.11437335 0.21610793 0.011494735 0.23368165 -0.24140994
-0.23746909 0.11485457 0.09566141 -0.15097485 -0.123862036 -0.087797314 -0.0036082766 0.07741892
0.026209181 -0.2424175 -0.19691458 0.04325228 0.10715191 0.16931956 -0.11569868 -0.14906679
0.17456298 0.014507034 0.07970749 -0.010810653 -0.017034259 -0.04092499 -0.08311073 0.22376566
0.123704664 -0.22203198 -0.08545546 0.06860649 -0.061554253 0.15519594 -0.14295155 -0.16134654
0.21029198 0.23387057 -0.071436696 0.24388863 0.22840291 0.22664335 0.14752421 -0.011930307
-0.07891544 -0.073125176 -0.21994294 0.20219176 -0.02270718 0.13021351 0.06689672 -0.07345557

fc2.bias f4 [16]
00000000: 629b a1bd 6c2c bc3d bc62 b23c e12a 193e
00000010: d438 663d 2a0f 3ebe e906 74be 0747 013c
00000020: 79b8 393e 0c61 c73d 303c f73d d21b 3dbe
00000030: 1059 4d3e b238 6b3d 673c 07be 927a 183e
-0.07890965 0.0918816 0.021775596 0.14957763 0.05620654 -0.18560472 -0.23830761 0.007890469
0.18136777 0.09735307 0.12072027 -0.18467644 0.20053506 0.057427116 -0.13206635 0.14890507

fc3.weight f4 [16, 16]
00000000: 7e22 35be 85d8 373e 5253 e7bd f314 34be
00000010: a747 79be bc0e dbbd de25 903d e266 4c3e
00000020: fc1c 85bd ab3d 35bc 77b9 c8bd edf2 b7bd
00000030: 1530 4dbd 392c 9b3d 2287 db3c a880 37bd
00000040: d9ee 28be 1f5c 023d b7da cebd 9f1d d13c
00000050: cb96 2dbb e624 fa3d df9f 623e 871e 2e3e
00000060: c993 033d a086 1ebe 9509 ecbd e8d1 bc3d
00000070: 7b97 193e 74cb a8b9 c259 28bd 2642 5b3d
00000080: 27dd 39be d480 263e 863d 713e c06b 3dbe
00000090: 5fa5 3d3e ad47 60be d849 aabd 3f5b f23c
000000a0: 2cb9 7d3e 0930 2bbe 9d58 5e3e 094d 013e
000000b0: 3942 71be 9558 533d 0fa7 78be 1127 46be
000000c0: 8ccd 6bbe 4a5a 9b3d a17b 86bd 1134 ec3c
000000d0: c81a 28bc b4b1 793e a42a 0b3e 8d5e 47be
000000e0: 1a1a aabd bb44 36bd 32bd bcbd e2cc d6bd
000000f0: 00bc 6a3d f269 893d 5fb1 3e3d a803 a2bd
00000100: cf68 3d3e dc16 50be 977b d83d 3112 27bb
00000110: 9b36 873d 20af e53d aef1 443e d9c6 183b
00000120: fbbd f9bd b12b 433e e3ca a6bd 0543 663d
00000130: 3a1d e6bc a812 623e e789 43bd f7f3 1a3e
00000140: e7e0 b33b e14e 30be 5425 7dbd 534b 85bc
00000150: 2b13 063e ce86 523e be87 623e 358b 27be
00000160: 66e5 543e ae95 773e c156 37bc dfcd 6d3b
00000170: 8e0b 47be 1505 38be 34c9 5d3d 52ac e03d
00000180: 4a20 8e3a 25c0 0a3e 065c 6fbe 5f70 ff3d
00000190: 339c 3f3d 142d 9fbc aa8c 20be c367 653e
000001a0: 7e3c 62be f65f 00be 3dfc 7fbe 9475 80bd
000001b0: e22e 743e 7636 15be b6eb 3bbe 4b30 f53c
000001c0: f283 723d 4908 553e af2d dbbd e193 1fbd
000001d0: c92d 6f3e ac4e 2f3e 4e5e 3a3e 9f66 21be
000001e0: 5271 6dbe fa4b bebd 4976 693e 19b5 09bd
000001f0: dcc4 26be 5f36 563e 05df 94bd 9a69 8e3d
00000200: cd3d 333d a744 fe3c 92a1 273e 9a0a a9bd
00000210: cd54 11be b673 64be 39ca 983c 967a e5bd
00000220: 1509 02be e6a9 563e f85e 043e d08a ca3d
00000230: 9713 2f3e 2289 053e d02a 27bd 0ac4 173d
00000240: 2df9 80bc b519 b33d 0c07 c6bd d120 213e
00000250: 60b8 673e 4623 6fbe 18aa fabd 130c 133e
00000260: 4b8d 55ba 43eb a1bd 0786 30be 0105 0c3e
00000270: f2a3 4fbe 67df b43d ff0f c63c ed86 08bc
00000280: 0128 7fbe b67c 833d d1a0 693d 5dd4 723e
00000290: 3f6d 53be e50b 0ebb 0ea6 c7bd 15f7 70bd
000002a0: 33df 8abb bf90 293e 692d 62be f354 b1bd
000002b0: 25d8 3fbe 5613 a33d ed95 b0bd 09c8 673e
000002c0: 4c17 df3d 2c9c 863d adf5 463e 66ed 71be
000002d0: 2fde 08be 9ae4 d33d d316 6b3e 604f 64be
000002e0: 0176 503e ab9d 75be 91cc 2fbd d217 793d
000002f0: 6b81 92bd be6b 033e deb6 eabc 9432 60be
00000300: 725b 1a3e d791 4ebe 9efb 303e 7510 85bd
00000310: 180d 6bbe 1897 58be 851c 723e 94f0 8ebd
00000320: 82c5 67be 7649 80be 524d 4b3e efdf b63c
00000330: 5849 203e 044d 27bd 8389 5a3e 5cf0 32bd
00000340: 05b8 3f3e b406 25be 4061 6d3e 052d 043d
00000350: acba 66bd 088c cebc ba23 1c3e 7642 013d
00000360: 413f 5bbd 7cc7 5fbd dc4f db3d dddc 09be
00000370: 6896 40be 84bb 7b3e 305b b7bd b2e9 3a3e
00000380: df2d 363e e544 663d aeb9 e2bc b59a 15bd
00000390: ca25 7dbe 7e7c 11be bf0f ad3d 91dc d9bd
000003a0: 26e9 d7bd d122 803e 1cc0 05be 7c4a 20be
000003b0: daf1 44bd ca0d f2bd 58a8 1f3e 5ec4 23be
000003c0: 2333 383e af0e 333e efed a7bc 92aa 7e3e
000003d0: fa46 2abe 2483 aa3d 746b 743e c6d5 8e3c
000003e0: 549d 373e 7e7d 9a3d 9c61 a2bd be0e efbd
000003f0: b502 573e a9c7 febd b9ce 68be 4895 513e
-0.17688939 0.1795369 -0.11295189 -0.17586116 -0.2434374 -0.1069617 0.070384726 0.19961122
-0.06499669 -0.011062066 -0.098009996 -0.08981881 -0.050094683 0.07576794 0.026797835 -0.04480043
-0.16497363 0.031826135 -0.1010031 0.02552682 -0.0026487585 0.12214069 0.22131298 0.17003833
0.03212336 -0.15481043 -0.11525265 0.09219724 0.14999191 -0.0003219504 -0.041101225 0.05352988
-0.18150769 0.16260082 0.23558626 -0.18498135 0.18520115 -0.21902342 -0.08314866 0.029584525
0.24777669 -0.16717543 0.21713491 0.12627043 -0.23560418 0.05159815 -0.24282478 -0.1935084
-0.23027629 0.07585581 -0.06566549 0.028833421 -0.010260291 0.24384195 0.13590485 -0.19469662
-0.0830576 -0.04449914 -0.09215774 -0.10488297 0.057308197 0.067096606 0.046555873 -0.079108536
0.18497013 -0.2032122 0.10570448 -0.002549302 0.06602212 0.11215043 0.19232818 0.0023311882
-0.12194439 0.19059636 -0.08144166 0.05621626 -0.028090108 0.2207743 -0.047738936 0.15132128
0.005489457 -0.1721759 -0.061803177 -0.016271269 0.1309325 0.20559236 0.22122094 -0.16361697
0.20790634 0.24178192 -0.011190117 0.0036286039 -0.19438002 -0.17970689 0.05414696 0.109703675
0.0010843363 0.1354986 -0.23374948 0.12472605 0.046779823 -0.019430675 -0.15678659 0.22402863
-0.22093388 -0.12536606 -0.24998565 -0.06272426 0.2384601 -0.14571556 -0.18351635 0.029930254
0.059207864 0.20803942 -0.10702073 -0.038959388 0.2335731 0.17119855 0.18200037 -0.15761803
-0.2318776 -0.09291835 0.22799028 -0.033619974 -0.16286033 0.20919178 -0.072691 0.06953736
0.04376011 0.031038595 0.16370228 -0.08253975 -0.14192505 -0.22309765 0.018651115 -0.11205022
-0.12698777 0.20963249 0.12926853 0.09889758 0.17097317 0.13040593 -0.040812314 0.03705219
-0.015743816 0.087451376 -0.09669313 0.15735175 0.22628927 -0.233533 -0.12239474 0.14360075
-0.00081463595 -0.07906201 -0.17238627 0.13673784 -0.20277384 0.08831673 0.02417755 -0.00833295
-0.24917604 0.06420271 0.057038132 0.23713823 -0.20647143 -0.002167457 -0.09748469 -0.058829386
-0.004238033 0.16559123 -0.22087635 -0.08658781 -0.18734796 0.079626724 -0.08622346 0.22634901
0.108931154 0.06572756 0.19429655 -0.23625717 -0.13366006 0.10346337 0.22957925 -0.22295904
0.20357515 -0.23985927 -0.0429197 0.060813732 -0.07153591 0.12834069 -0.028651651 -0.21894294
0.15073946 -0.20172821 0.17283484 -0.064972796 -0.22954214 -0.21151388 0.23643692 -0.069794804
-0.22633937 -0.25056046 0.19853714 0.022323577 0.15652978 -0.040844932 0.21341519 -0.043686256
0.18722542 -0.16115838 0.23181629 0.032269496 -0.056330368 -0.025213256 0.15248004 0.031557523
-0.05352712 -0.054633602 0.10708591 -0.13463159 -0.18807375 0.2458325 -0.089529395 0.1825321
0.17790936 0.056218047 -0.02767643 -0.036524493 -0.24721447 -0.14207646 0.08450269 -0.10637773
-0.105425164 0.25026563 -0.13061565 -0.15653414 -0.04808221 -0.11819036 0.15591562 -0.15992877
0.17988257 0.1748607 -0.020499198 0.24869755 -0.16628638 0.08325794 0.23869115 0.01743592
0.1793111 0.07543467 -0.07928774 -0.11672734 0.20997126 -0.12440426 -0.22735108 0.20467103

fc3.bias f4 [16]
00000000: 14f1 7e3d ce30 7b3e 5965 523e 91bc 793d
00000010: 256c 10be aeaf 073e 4c98 5dbe 6dae 693e
00000020: 4107 7cbe 081b 17bd c5fc 143e d003 b0bd
00000030: db21 793d 3d34 6dbe 84bb bf3d ea11 983d
0.06224163 0.24530336 0.20546474 0.060970847 -0.14103754 0.1325061 -0.21640128 0.22820444
-0.24612142 -0.036891013 0.14549549 -0.08594477 0.060823303 -0.23164459 0.09361938 0.07425292

fc4.weight f4 [16, 16]
00000000: 6229 35bb f8ed 4d3e 0c8c 48bd 0418 b0bd
00000010: 5364 a3bd 4685 0d3e fd1f c2bd a5f6 5e3e
00000020: f6e5 f7bd 4cd9 7d3d 6695 88bd 1464 46be
00000030: be6a c4bc afce c73d db49 02bd 6715 f1bd
00000040: 6b72 3b3e 81fc 2bbb adc6 0d3d 7e17 47be
00000050: c838 743e 818b 4e3e 2934 47be 9a46 343e
00000060: b9e8 5d3d f7bd 2cbe 5cbf 3ebe d19e 5dbe
00000070: b52e 5fbe 25ee 413e 5b2b cfbd 584b 093e
00000080: 5f1d 063e 7a73 0cbe 8189 6bbe c011 43be
00000090: b6c4 cdbd f943 743e c4b0 2f3e b9ec 71be
000000a0: cd93 6dbe 78e8 d13d 1796 12be 6152 293d
000000b0: a0f7 17be 9c71 12be 901e 303e 0078 363e
000000c0: 4b52 e63d 29c6 1f3e 90d0 073e 2097 41be
000000d0: 3018 d13d 8c39 92bd 7c5b b83d 42e0 6f3d
000000e0: 63a8 343e 04b2 66be c05f 2bbe 3d91 ac3c
000000f0: 5498 ef3d a707 29be 72d2 13bb 2322 d13d
00000100: 7401 04be 4695 56be fbcc 96bd 51d7 1c3e
00000110: 22a5 4f3e c062 2bbe f0b4 ebbb 9515 bc3d
00000120: 433e 68bd 8490 e5bd 9415 223c 0c1c 443c
00000130: c2fb 71bd 57ab 6fbe f81f 0ebe 34c2 fabd
00000140: 7892 063e f71c 343e b334 11be af2e b4bd
00000150: 77e7 2b3e c64d 64bd 1231 233d 8bb9 11bd
00000160: 3d75 31bd a1e0 993d 05e5 763d 5825 25be
00000170: 49a0 fa3c 17a1 39be efa8 04bd e023 67be
00000180: 1f0f 0b3e 8660 6ebe cbc6 2bbe 4426 103e
00000190: f677 ab3c 8f88 36be 4272 90bc 607e 0abe
000001a0: 76e1 38be 75b1 4ebe 97f1 5e3d a6ef 9ebd
000001b0: 09c2 e1bd c373 753d 667b 463e ea31 713e
000001c0: f2dd 7c3e 20fd 42be 8e95 40bd f416 793b
000001d0: 3d45 d3bd a7cf 16be c4f5 493e 7ed6 073e
000001e0: d168 e03d 6117 8dbd df0f f6bd 62da 373e
000001f0: 1639 13be c0a7 143e bcdc 5d3d a03f 623e
00000200: ea72 98bd 3336 77be 8329 883b 15fe 24be
00000210: d4ec 97bd 18d5 79be f89a 6d3e dbd2 6dbe
00000220: 6a69 34be 3cb8 733e 4bac a7bd 65ce 5ebd
00000230: 9505 59bd 3ad6 933d 8db4 063e fb5a e13c
00000240: 18cc 76be 02fb 173e b3ad 8abc 91a2 63be
00000250: 6a6b 6cbe 5a3b 773d ff8b 273d fdaa a3bd
00000260: 6eb7 01be 35db d1bd 4e4f b53d 4b7a 073e
00000270: 179c b1bc 3558 76bd 3cd4 04be 9c0d 8ebc
00000280: 9845 0ebe b60f 38be 6724 783d f6fc 103e
00000290: 97ec 653d b3f8 513e fd78 3dbe 7f41 3fbe
000002a0: 8248 113e 112f e53c 6cfc 8abd d7e6 ccbc
000002b0: ddcf 2bbe 8936 00bd 6f29 98bd b9d5 14bc
000002c0: 8eb7 353d b0c0 b03d 2f56 3c3e 8a59 603e
000002d0: 78f8 e13d 9a57 a03c cbc8 e6bd 8fbf c53d
000002e0: 9e90 8abc 41d6 1ebd 60b2 f03d c54a 053e
000002f0: 9a4d 963d 9d16 113e 6007 9a3c 6b00 163e
00000300: 4129 2ebe f140 643e 2112 23bb 7828 4c3d
00000310: 6a6d 813d aa67 7b3e b69a 1b3e f03b bfbc
00000320: aa8e cf3d b39f 61bd c167 663e 55f9 01bd
00000330: 0e91 28be cd11 3e3d 360f 72be 09c0 ee3d
00000340: e296 943d 4834 a1bd 2d31 253e ef32 d53c
00000350: 28df 1e3e 1966 403e b4b0 f4bd 0161 1cbe
00000360: bf51 1a3e bdd3 4bbe c944 013e 3524 6e3d
00000370: eb38 173e 60c2 35be 0a37 2c3e 7cf2 ed3d
00000380: d36a 1f3e 7b44 61be 2706 10be fec8 263e
00000390: 1f13 77be 0b85 8c3d d98b e83d 2e2a 82bd
000003a0: d27b 3dbe 8777 02be c60a 3d3e b8c8 2bbc
000003b0: 5021 7dbe e2e0 09be 4869 4b3e 0d9a 5dbe
000003c0: 42da 5ebe dd37 e43d 3f27 1ebe 8f62 763e
000003d0: aad2 56bc d9a7 113e 0795 0c3e 180a 643e
000003e0: ffad 21be 4feb 81bd 2037 2dbe 1782 54be
000003f0: c044 ea3d 03ba 0c3d 59cb 633c a375 0dbe
-0.0027643074 0.20110309 -0.048961684 -0.085983306 -0.0797812 0.13820371 -0.094787575 0.21773775
-0.121044084 0.06197481 -0.066691205 -0.19374114 -0.02397668 0.09756219 -0.031808715 -0.1177166
0.18305366 -0.0026243033 0.0346133 -0.19442555 0.23849785 0.20170404 -0.19453491 0.17605057
0.05417702 -0.16869341 -0.18627685 -0.21642615 -0.21795161 0.18938501 -0.10115691 0.13407648
0.13097142 -0.13715926 -0.23001672 -0.1904974 -0.10047285 0.23854055 0.17157274 -0.23625459
-0.23200913 0.10249418 -0.14315067 0.04133833 -0.14840555 -0.14301151 0.17199159 0.17819214
0.11246165 0.15602936 0.13263154 -0.18905306 0.102096915 -0.071398824 0.09001824 0.05856348
0.1764236 -0.22528845 -0.16735744 0.021065349 0.11698976 -0.16506825 -0.0022555855 0.10211589
-0.1289118 -0.20955381 -0.07363316 0.15316512 0.20277837 -0.16736889 -0.0071932003 0.09183804
-0.056700002 -0.11209205 0.00989284 0.0119695775 -0.059077986 -0.23405205 -0.13879383 -0.122440726
0.13141811 0.17589174 -0.1418026 -0.08797967 0.16787516 -0.055738233 0.03984172 -0.03557734
-0.043324698 0.07513548 0.060277004 -0.16127527 0.030594008 -0.18127857 -0.03238767 -0.22572279
0.13579987 -0.23279008 -0.16775052 0.14077097 0.020931225 -0.1782553 -0.017632607 -0.1352477
-0.18054757 -0.20184882 0.054429617 -0.07760553 -0.110233374 0.059924852 0.1938301 0.23554197
0.2469404 -0.19041872 -0.047017626 0.0038008066 -0.103159405 -0.1472765 0.19722658 0.13265416
0.10957492 -0.06889225 -0.12014746 0.179544 -0.14377245 0.14517117 0.054165587 0.22094584
-0.07443793 -0.24141769 0.004155339 -0.1611255 -0.07418218 -0.24397695 0.23203647 -0.23224966
-0.17618337 0.23800749 -0.08187159 -0.054396052 -0.05298384 0.07218595 0.13154812 0.027509203
-0.24101293 0.14841846 -0.01692853 -0.22229983 -0.2308785 0.060359336 0.040904995 -0.07991598
-0.12667629 -0.102468885 0.08853017 0.13230245 -0.021680875 -0.060142715 -0.12971586 -0.017340474
-0.13893735 -0.17974743 0.06058159 0.14158997 0.056133833 0.20505027 -0.18503185 -0.18677329
0.14187816 0.027976545 -0.06786427 -0.025012417 -0.16778512 -0.03130201 -0.07429778 -0.009084159
0.044364505 0.08630502 0.18392251 0.21909156 0.1103372 0.019573022 -0.11268767 0.096556775
-0.016914662 -0.038778547 0.11752772 0.13016804 0.0733902 0.14168783 0.018802345 0.14648597
-0.17007925 0.22290398 -0.0024882632 0.04984328 0.06319697 0.24551263 0.15195736 -0.02334401
0.10134633 -0.05508394 0.22500516 -0.031731922 -0.16461584 0.046403695 -0.23638615 0.116577215
0.07255341 -0.078713 0.1613204 0.026025264 0.15514815 0.18788947 -0.11947766 -0.15271379
0.15070246 -0.1990499 0.12623896 0.05814 0.14767806 -0.1774993 0.1681787 0.11618516
0.15568094 -0.2199878 -0.14064847 0.1628761 -0.24128388 0.068613134 0.11354799 -0.063557014
-0.18504265 -0.12740909 0.18461141 -0.010484867 -0.24719739 -0.13464692 0.1986438 -0.21640797
-0.21762946 0.111434676 -0.15444659 0.24061035 -0.01311175 0.14224185 0.13728724 0.22269475
-0.1578903 -0.0634371 -0.1691556 -0.2075275 0.11438894 0.034357082 0.013903462 -0.13814406

fc4.bias f4 [16]
00000000: 6513 10be 370f bd3d 0b84 9f3c ce9a 1e3b
00000010: 067c 263e d69e 0b3e 0ff2 56bc bc41 fcbc
00000020: 650b 513e 1c14 2c3e 0dce 6ebe 09cf 533e
00000030: 00cc 393e 295e 7c3e 4b4a 153e 3b96 103e
-0.14069898 0.092314176 0.019472143 0.0024201158 0.16258249 0.1363481 -0.013119235 -0.030793063
0.20414503 0.16804546 -0.2332079 0.20684446 0.18144226 0.24645294 0.14579122 0.14119808

fc5.weight f4 [16, 16]
00000000: 8e44 763d a586 09bd 8023 0b3e 7f9b b8bd
00000010: c94b 113e 3aaa b43c 6ee9 0ebe 56a4 c6bc
00000020: 5109 15be ad5c bf3d 0fe2 ea3d 8259 e8bd
00000030: 9cbc babd e88f 8cbc 27db e7bd 4102 e53d
00000040: 16ff 193e aa8b 1e3e 86b6 723e d337 0a3e
00000050: 50d7 f6bd b147 0abc bbf6 5d3e 658d 5fbd
00000060: 90af 16be d21e 25bd a5ce 3a3e 8aee 9bbd
00000070: 4b41 16be 4d7f b9bb aa3e 44be 8742 7cbe
00000080: 5779 783e 64ba 28be 790d 1d3c 6dfb 2fbe
00000090: 4532 863d 3a70 dc3d 1b63 7c3e 5be6 7cbc
000000a0: e64d 06be c576 91ba f8b9 d7bd 2a06 67be
000000b0: 4606 5b3e 5aad 5b3e e0d3 66be 9fca 45be
000000c0: a7e4 2f3e e178 7abe 310a 10bd 6de1 1dbd
000000d0: 497f 2d3e 531e 753e b94f 423e 1886 29bc
000000e0: fa8a 19be 093a 273e c58a 343e 2a3d 043e
000000f0: e7c7 453e bb2e 013c 79a4 543e 1788 493e
00000100: 6e3a 61bd d7f2 ce3d 808f 89bd 1e8e 533e
00000110: 37ab 62be 9b55 4e3e 41ef 6b3e b065 38be
00000120: f364 7dbd 3ad1 333e 6641 253e 0b95 11be
00000130: 3dd1 053e 49a2 463e b880 4e3d 45cb f7bd
00000140: 1c16 1e3e 7d5f 473e 0393 103e 17be 16be
00000150: 1511 5abe d316 8e3c 7bbd ba3d 23bf 483e
00000160: bfbc 313d 07e2 5f3e 0614 533e e8bf df3d
00000170: 5d6f a9bd 3405 423e c34e 85bd 0543 d43d
00000180: 03e2 773d 8370 153e c7f2 2cbe 9d97 b9bd
00000190: 2a24 2f3e 60a1 95bd b464 4a3d b3aa 60bd
000001a0: 7861 793e f7a4 4abe aa54 f2bd 8984 5b3e
000001b0: e023 75be 4416 3c3e 2a37 8d3d 851a 6dbe
000001c0: 9eaa a73d 7336 b93d c761 023e 4a4c b23d
000001d0: 6c95 653e 0086 2f3e 16db 0cbe 07c1 7dbd
000001e0: 5cb1 413e 44a2 723e 262e a8bd 7a8e a2bd
000001f0: 5dab ff3c b6d6 c6bc b741 a2bd d69b bbbd
00000200: 8e20 213e 6f57 a93d edd8 2ebe b2f9 bebd
00000210: a203 75be 2fc5 2abe 7ba5 543e 682e c1bc
00000220: 1c8f e6ba fc8f 1fbe f945 f5bb 8aec 3a3e
00000230: e4af 0dbc 1f42 283e d295 763e 44c6 79bd
00000240: c71e 5c3e 017a 59be 7240 18be 6cb0 e6bb
00000250: 8f1e 053e 9777 58be 03cd 683e ecda ccbd
00000260: db4d 423d 35a6 743e d4b0 73ba f75c 28be
00000270: a3f1 2f3e 8a08 6c3e f30a 49be 6a87 54be
00000280: faf4 41be b15d 23be 6b8e 67be 3391 493e
00000290: afde 37be a051 8cbd b134 babd 9aaf b53d
000002a0: ebdd 3fbc c128 6ebe 8e26 533c 4da1 993d
000002b0: fa08 563e 3996 4dbe 701c 6fbe 0b1d 68bd
000002c0: 4821 d73d 061d 8a3d 9851 10be ab89 963d
000002d0: 908e 3c3e 88d3 343e 7691 d03c 56d4 a63c
000002e0: dab7 4d3d 37b1 4d3e af22 e23c 4acc 3e3e
000002f0: 2a91 46be 2b2e 573c c132 b23c 986f 12bd
00000300: c616 c13c 3d3e 80be a663 1c3e e0fd bd3d
00000310: a6b5 52bd ce6d 2d3e 7e87 d8bd 0a8a 073e
00000320: d629 c23d 9e1e 80bd f943 27bd 2744 3dbe
00000330: c6cc ecbc d582 bebd a4c6 d0bd 576c 8dbd
00000340: f7ff 36bd 4448 143c e917 433e 695b 103e
00000350: ff8b 503e 11dd 7c3d 123c 773e c8eb a23d
00000360: 60e2 5c3d f2ec 153e 0b5d 923d 6878 0dbe
00000370: cd0f 5e3e 3880 0cbe 5f2d 72be c8b3 11be
00000380: ce3a 633e a0cc 783e 4109 9f3c deac d0bd
00000390: 7070 ca3b 8740 3e3e 376b c63d e8fc 0f3e
000003a0: ab62 49be 9b10 e5bd ce91 27bd d4f5 14be
000003b0: 2e35 b1bc 89bf 4b3d 771a e23d 0e36 24be
000003c0: 3912 803e a476 29be 66a7 d23d 1020 da3d
000003d0: e549 5b3e fa08 c2bd ffea 09be 6657 c63d
000003e0: a210 aebb 3e72 4e3e 0951 47bd 947c 973a
000003f0: 8943 1fbe de2f 23be d2ef b43d fcf5 51be
0.060123973 -0.033575673 0.13587761 -0.090140335 0.14189066 0.022053827 -0.13956234 -0.024248283
-0.14554335 0.093438484 0.114688985 -0.11345197 -0.09118006 -0.017158464 -0.11321097 0.111820705
0.15038714 0.15482965 0.2370244 0.13497858 -0.12052786 -0.008439944 0.21676151 -0.054578204
-0.1471541 -0.040312596 0.18242891 -0.07613857 -0.14673345 -0.0056609274 -0.1916453 -0.24634753
0.24265037 -0.16477352 0.009585732 -0.17185755 0.06552557 0.10763593 0.2464718 -0.01543578
-0.13115653 -0.0011098018 -0.105335176 -0.22560945 0.21389112 0.21452847 -0.22541761 -0.19315575
0.17177068 -0.24460174 -0.03516597 -0.03854506 0.16943087 0.23937349 0.18975724 -0.010346912
-0.14994422 0.16330732 0.17631061 0.12913957 0.19314538 0.007884677 0.20765866 0.1968082
-0.054987364 0.10104912 -0.067168236 0.20659682 -0.22135626 0.20149843 0.23040487 -0.1800754
-0.06186385 0.17560282 0.16138229 -0.14217012 0.130681 0.19397844 0.050415725 -0.120993175
0.15438122 0.1947002 0.1411858 -0.14720951 -0.21295579 0.017344868 0.09118172 0.19604163
0.043392893 0.21863566 0.20613107 0.10925275 -0.08273194 0.18947297 -0.06509163 0.103643455
0.060518276 0.14593701 -0.16889487 -0.09062121 0.17103639 -0.073061705 0.049412444 -0.05485029
0.24353588 -0.19789492 -0.11832555 0.21437277 -0.23939466 0.18367869 0.06895287 -0.23154648
0.081868395 0.090435885 0.12732612 0.08705957 0.22420281 0.1714096 -0.1375545 -0.061951663
0.18915313 0.23694712 -0.08211927 -0.079373315 0.031209642 -0.024272304 -0.0792269 -0.09160583
0.15735075 0.0826863 -0.17074938 -0.09324969 -0.23927167 -0.16676782 0.20766251 -0.023581699
-0.0017590257 -0.1558227 -0.007485148 0.18254295 -0.008647893 0.16431473 0.2408059 -0.060980096
0.21496116 -0.21237947 -0.14868334 -0.007040074 0.12999938 -0.2113937 0.22734456 -0.100026935
0.04743753 0.23891528 -0.0009296064 -0.16441713 0.17182021 0.23050132 -0.19633083 -0.20754781
-0.18941107 -0.15953709 -0.22612922 0.19684295 -0.17956041 -0.06851506 -0.09092081 0.08871384
-0.011710624 -0.23257734 0.01288761 0.07501469 0.20901862 -0.20076837 -0.23350692 -0.056668323
0.10504395 0.06743817 -0.14093626 0.07350477 0.18413758 0.17658818 0.025459986 0.020364922
0.050224163 0.20087133 0.027604429 0.18632618 -0.19391313 0.013133566 0.021752717 -0.035750955
0.02357043 -0.25047484 0.15272388 0.092769384 -0.051442765 0.16936418 -0.10572718 0.13236251
0.09480636 -0.0625584 -0.04083631 -0.1848303 -0.028906237 -0.09302298 -0.10194138 -0.0690543
-0.0446777 0.009050433 0.1905209 0.1409737 0.20365904 0.061734263 0.24144009 0.07955128
0.053926826 0.14641169 0.07146653 -0.13815463 0.21685715 -0.13720787 -0.2365012 -0.14228737
0.22190401 0.24296808 0.019413592 -0.10189222 0.0061779544 0.18579303 0.09688418 0.1406132
-0.19666545 -0.11184808 -0.040910535 -0.14546901 -0.021631803 0.04974321 0.11040204 -0.16036245
0.25013903 -0.16549164 0.10285835 0.10650647 0.21414907 -0.094743684 -0.1346855 0.09684639
-0.0053120414 0.20160767 -0.048661266 0.0011557513 -0.15553106 -0.15936229 0.088348046 -0.20503992

fc5.bias f4 [16]
00000000: 5ce0 763e ebae f23d f6be b0bd 51e0 e13d
00000010: 4633 543e bcb8 46be 112e 64be ad11 84bd
00000020: 1275 553e 5b9c 7b3e 3c82 5ebe e86c 1b3e
00000030: 82ba 793e 6732 4a3d 1231 4fbe 7242 3dbe
0.24109024 0.11849769 -0.08630173 0.11029113 0.20722684 -0.19406408 -0.22283198 -0.06448684
0.2084544 0.24571364 -0.21729368 0.15178263 0.24387553 0.049364474 -0.20233563 -0.18482378

fc6.weight f4 [16, 16]
00000000: 16a0 353d c1b3 10be 9228 453e 90e5 44be
00000010: b6fa 093e 2172 7ebd 0804 913d 5c23 7cbe
00000020: 0f2e ce3b 5dbb 44be a8a7 98bd aca3 8ebd
00000030: 7b75 3cbe 7aef 43bd a2a3 593e 6c36 693e
00000040: b49f 163e 2722 f03d ccb9 b03d 4481 723e
00000050: d02b 543e 3e0d 5b3e d8f6 41be 85d2 683d
00000060: 1135 1f3e e099 5c3e 1cd1 1bbe a78b 7cbe
00000070: 0806 54be ff9e 2b3d 27ed bbbd 3a4a 6cbe
00000080: 2238 92bd a97d f03d c390 17be b667 ca3c
00000090: d0c4 d73c 6543 b7bd 2b26 1cbe f059 bf3d
000000a0: 8066 31be fb0a 42be cb4d 9abd 50ab 6bbe
000000b0: f80d 7a3e 0243 2d3e 1a08 6b3e b417 2c3e
000000c0: 5be1 acbd 01d7 e9bd 3f80 9f3d c8da a83d
000000d0: d52c 453e 8a98 5b3e 88ef 43be aadb c1bc
000000e0: 8870 973c 9e2b 9c3d 2d76 99bd c562 4d3e
000000f0: 790c 13be 208b 92bd ae70 9e3d 5d57 5e3e
00000100: b826 bfbd dae3 1bbe 7af5 153d c1f7 4abc
00000110: 1ad3 7d3d 6182 40bd d457 d03b 5b46 7dbe
00000120: a6a5 d3bb 815a 4b3d 281c 063e 7363 6c3e
00000130: 5f9a 3abe dfc9 a1bd 10ec 7b3e de24 943d
00000140: 337b 4ebe 82f8 09be 12f2 01be 7203 2d3e
00000150: 1845 683e b118 883d 2d80 883c 7d55 6d3e
00000160: 8120 3abe ce88 f3bd fc71 13be ca67 463e
00000170: 1c4a 503e 45c9 923d ddbf f63d 54a2 38bd
00000180: f879 123e 6874 52be b5a7 f6bd b2cd adbd
00000190: 4c6a 5f3e 6819 d2bd b915 113e ca26 47be
000001a0: a844 1ebe 517a c5bc 0841 e7bd e310 91bb
000001b0: 0dd9 273e 2582 d33d 472f 5fbe ab23 2fbd
000001c0: 30df cdbb 55ae 6dbe 6e59 433d 41a4 793e
000001d0: 8e9e 5cbe 0d4f 093e dee3 a9bd 8857 66bc
000001e0: 3fe6 533e afe9 03be d089 42be 98cf 323e
000001f0: 8c60 28be c0a6 0dbe 01b8 3cbe 1971 583e
00000200: dbae 323d d11c 99bd c27e 273e 4ffe 7d3e
00000210: 0cd8 28be 45c6 b93c f4cd 243d ef4d 553e
00000220: d98a 18be ccb6 7a3e a180 75be c726 4d3d
00000230: 2268 53bd 2268 72be 69fe fb3b b252 20be
00000240: cbad 6b3e 2629 043e 9411 97bd a52b 6a3d
00000250: 6dff fc3d 4221 82bd 3685 a5bd b11d ee3d
00000260: a4ce dc3d 3a39 1e3e ab34 263e 45c9 903d
00000270: 17bd 5b3d d1aa 5abe e5d4 603e 63df 1dbe
00000280: f11d 0f3e e57f 143d 6e0d 0cbe 71bd 12be
00000290: a5c9 0b3e 98e1 523d 288f 49be 2f2a 19bd
000002a0: 88c0 9ebd a560 7abe 1760 e03d 6d3e 863d
000002b0: ffaf 50be 9a78 493d 52c9 3b3e c8c5 d63d
000002c0: 3eec 703e be4d 5abe db5c 2a3e 1882 ff3d
000002d0: daf5 57be 0725 4e3c 1213 4c3b 39a0 17bd
000002e0: 0c0f 50be b8b6 4b3e fe11 68be 88ae 563d
000002f0: fbd8 b9bd 8d13 2f3e a4ff ef3d 88d6 59be
00000300: e3f4 d63d 5f35 49be 9a8a 1bbe b108 eabd
00000310: e032 3fbe 5a8c 5c3e 9f71 773e 2a78 1dbd
00000320: b1e7 70be df42 d2bd b127 943c 1046 66be
00000330: b80d 0bbe 36dd b83d c1ef 843d 2579 783e
00000340: 70a9 d5bd d84f ffbd cd40 45bc 1def 5dbe
00000350: 5da4 393e b8ee 12be 284c 0d3e 3876 3d3e
00000360: 2949 73be 058b 3a3e 9476 ac3d 6e32 94bd
00000370: a532 8ebd ea61 7b3e caac 2cbe caef 0b3e
00000380: c351 1c3e 9e72 91bd 6ae4 92bd 1061 6fbe
00000390: f413 853b 03fd fabd 849d 383e 5cdb d7bd
000003a0: 3abc fe3b 1d5c 1fbe 7b2b fc3d e2d4 08be
000003b0: 27c6 5abd 482e 763e db78 043d 88f9 e1bc
000003c0: 8075 0bbe 72fd 78be 20da 7e3e c2aa 6d3e
000003d0: 235a ee3d be03 75be 99b9 3fbe 1874 e13b
000003e0: 81bb 26bd 234d 2fbe d58f 2bbc a3a9 52be
000003f0: bdfb b23d ce59 9ebc fd3e 373d 8b0f 583e
0.044342123 -0.1413107 0.19253758 -0.19228196 0.13474545 -0.06212056 0.07080847 -0.24622864
0.0062921117 -0.19212098 -0.07453853 -0.06964812 -0.1840419 -0.047835805 0.21253827 0.22774667
0.1470936 0.11725264 0.08629188 0.23682123 0.20719838 0.2139177 -0.1894182 0.056841392
0.15547587 0.21543074 -0.15216488 -0.24662648 -0.20705426 0.041899677 -0.091760926 -0.2307519
-0.07139613 0.11742718 -0.14801316 0.024707656 0.026338965 -0.08948401 -0.15248935 0.09343326
-0.17324257 -0.18949501 -0.07534369 -0.2301457 0.24419391 0.16920093 0.22952309 0.16805917
-0.08441421 -0.11417962 0.07788133 0.08244854 0.19255383 0.21444908 -0.19134343 -0.023664314
0.018486276 0.07625507 -0.07493243 0.20057209 -0.14360227 -0.07155442 0.07736336 0.21713014
-0.09333557 -0.15223637 0.036611058 -0.012388171 0.0619689 -0.04699934 0.006358126 -0.2473387
-0.006458956 0.049646858 0.13096678 0.23084812 -0.1822295 -0.07899832 0.2460177 0.07233594
-0.20164184 -0.13473704 -0.12689999 0.16895846 0.22682607 0.066453345 0.016662681 0.23177142
-0.18176462 -0.11891328 -0.1439895 0.1937553 0.2034077 0.07167295 0.12048314 -0.045076683
0.1430434 -0.20552218 -0.12043706 -0.08486499 0.21817893 -0.10258752 0.14168443 -0.1944839
-0.15455878 -0.024106177 -0.112917006 -0.004427062 0.16391392 0.103275575 -0.21795379 -0.042758625
-0.0062827095 -0.23211034 0.04769271 0.24379064 -0.21544859 0.13409062 -0.08295415 -0.014058955
0.206933 -0.12882112 -0.18997884 0.17462003 -0.1644308 -0.13833141 -0.18429567 0.21136893
0.043623786 -0.074761994 0.16356948 0.24804042 -0.16488665 0.02267755 0.040235475 0.2083051
-0.14896716 0.24483794 -0.2397485 0.05008581 -0.05161298 -0.23672536 0.00769024 -0.15656546
0.23015516 0.12906322 -0.073764 0.05717053 0.12353406 -0.06354 -0.080820486 0.11626757
0.10781601 0.15451518 0.16231029 0.07069639 0.053647127 -0.21354224 0.21956213 -0.15417247
0.13976265 0.036254782 -0.13676998 -0.14330079 0.1365114 0.051484674 -0.19683516 -0.037393745
-0.07751566 -0.2445093 0.10955828 0.065548755 -0.20379637 0.04918728 0.18338516 0.104869425
0.23527619 -0.21318719 0.16636984 0.12475985 -0.21089879 0.01258207 0.0031139296 -0.037018035
-0.2031824 0.1989392 -0.22663113 0.05241254 -0.09074589 0.17097302 0.117186815 -0.21273243
0.10495927 -0.19649266 -0.15189591 -0.11427439 -0.18671751 0.21537915 0.24164437 -0.038444676
-0.23525883 -0.10266661 0.018085333 -0.22487664 -0.13579452 0.09026568 0.06491042 0.24264963
-0.10432708 -0.12466401 -0.0120393755 -0.21673246 0.18129106 -0.14348876 0.13798583 0.18502128
-0.23758377 0.18217094 0.084210545 -0.07236181 -0.069432534 0.2454907 -0.16862789 0.13665691
0.15265565 -0.071019396 -0.07172473 -0.2337687 0.0040612165 -0.122552894 0.18028837 -0.10539886
0.007773903 -0.15562482 0.12312981 -0.13362458 -0.05341163 0.24041092 0.03234182 -0.027584806
-0.13619041 -0.24315432 0.24887896 0.2320967 0.11638286 -0.23927209 -0.18723144 0.0068802945
-0.04070616 -0.17119269 -0.010471304 -0.20572524 0.087394215 -0.019329932 0.044737805 0.21099679

fc6.bias f4 [16]
00000000: faed 3d3e a59a 57be 7363 6a3d 4bb1 d5bd
00000010: 14e4 1dbe a7ff f7bb 0ef3 67be 853d 4abe
00000020: 5201 00be de72 98bd aa59 083e 8f24 69be
00000030: fc97 8ebd 70d8 ec3d 4e1e 56be 29f6 27bd
0.18547812 -0.21055086 0.05722375 -0.104342066 -0.15419036 -0.007568318 -0.22651312 -0.1975003
-0.12500504 -0.07443784 0.13315454 -0.22767852 -0.069625825 0.1156472 -0.20909998 -0.04100624

fc_out.weight f4 [1, 16]
00000000: 95c5 7e3c 09af 1d3e 9ec1 513c ed8b 003d
00000010: 6109 613e 2074 6b3e 88c5 82bd 318f 9d3c
00000020: 24e7 be3d ed56 713e 8594 22be f190 b93d
00000030: d183 f93d cdd0 19be 8c98 e63d 4ad1 76be
0.015550037 0.15398802 0.01280251 0.031383444 0.21976234 0.22993517 -0.06385332 0.019233318
0.0932143 0.23568316 -0.15876968 0.090608485 0.12183345 -0.15021057 0.11259565 -0.24103275

bn.weight f4 [16]
00000000: 0000 803f 0000 803f 0000 803f 0000 803f
00000010: 0000 803f 0000 803f 0000 803f 0000 803f
00000020: 0000 803f 0000 803f 0000 803f 0000 803f
00000030: 0000 803f 0000 803f 0000 803f 0000 803f
1.0 1.0 1.0 1.0 1.0 1.0 1.0 1.0
1.0 1.0 1.0 1.0 1.0 1.0 1.0 1.0

bn.bias f4 [16]
00000000: 0000 0000 0000 0000 0000 0000 0000 0000
00000010: 0000 0000 0000 0000 0000 0000 0000 0000
00000020: 0000 0000 0000 0000 0000 0000 0000 0000
00000030: 0000 0000 0000 0000 0000 0000 0000 0000
0.0 0.0 0.0 0.0 0.0 0.0 0.0 0.0
0.0 0.0 0.0 0.0 0.0 0.0 0.0 0.0

bn.running_mean f4 [16]
00000000: 0000 0000 0000 0000 0000 0000 0000 0000
00000010: 0000 0000 0000 0000 0000 0000 0000 0000
00000020: 0000 0000 0000 0000 0000 0000 0000 0000
00000030: 0000 0000 0000 0000 0000 0000 0000 0000
0.0 0.0 0.0 0.0 0.0 0.0 0.0 0.0
0.0 0.0 0.0 0.0 0.0 0.0 0.0 0.0

bn.running_var f4 [16]
00000000: 0000 803f 0000 803f 0000 803f 0000 803f
00000010: 0000 803f 0000 803f 0000 803f 0000 803f
00000020: 0000 803f 0000 803f 0000 803f 0000 803f
00000030: 0000 803f 0000 803f 0000 803f 0000 803f
1.0 1.0 1.0 1.0 1.0 1.0 1.0 1.0
1.0 1.0 1.0 1.0 1.0 1.0 1.0 1.0
