self_avoidance_gym/pth/target_actor_tracing.pth (torch, 153644 bytes, 57 tensors)

fc1.weight f4 [64, 6]
000000 fc b0 9d 3e c0 ec 44 3c 30 86 6e 3e b8 7f 66 3e
       0.3079909 0.012019336 0.23293376 0.22509658
000010 40 ff 7b 3e 78 01 19 3e ea 3e a2 be 68 8f 47 3e
       0.24609089 0.14941967 -0.31688625 0.19488299
000020 ef 6e ad be b0 94 c3 3c ab 9e b2 3d b6 29 39 be
       -0.33873698 0.02387461 0.0872167 -0.18082318
000030 ee c6 c3 bc b8 8a 3e 3e 60 1a 5c bc 5e 7f 54 be
       -0.023898568 0.18607605 -0.013434023 -0.20751712
000040 30 d7 ab 3c 90 da bd bc 18 20 0d 3d be 5c 6a bc
       0.020976633 -0.023175508 0.034454435 -0.014304338
000050 d2 61 c7 be da 2a 9c 3e 82 d9 51 3e 0c f0 73 be
       -0.38941818 0.30501443 0.20493129 -0.2382204
000060 40 8d 3d 3c 42 16 6e 3e df 49 47 be e8 d8 93 3d
       0.011569321 0.23250678 -0.19461773 0.07219106
000070 d0 eb b8 3e 6a 62 13 be 30 8c 21 be 84 10 bc 3e
       0.3611741 -0.1439301 -0.15776134 0.3673135
000080 b2 69 95 be b4 2d b0 be 08 2f 88 3e 10 ed 32 3d
       -0.29182202 -0.3440987 0.26598382 0.04368311
000090 42 78 28 be 38 98 93 bd 20 52 c8 3e 48 c9 29 bd
       -0.16452125 -0.07206768 0.39125156 -0.041451722
0000a0 7e b6 5a 3b 3c f1 c7 bd 63 e5 b3 be 3a 9f 7e be
       0.0033372934 -0.09762809 -0.35135946 -0.24865428
0000b0 ac 07 43 be 87 dc 13 be 00 1f 9e ba 1c 4a 34 3e
       -0.19045895 -0.14439593 -0.0012063682 0.17606395
0000c0 38 f7 c0 bd 18 43 51 3d ff ce 3a 3b a8 24 b0 bd
       -0.09422153 0.051089376 0.0028504727 -0.086007416
0000d0 2c 4f 9f be 3f bf a8 bb f5 e1 a3 be 7e 9d ba be
       -0.3111509 -0.0051497514 -0.3200833 -0.36448282
0000e0 07 f6 a4 3e 34 79 c2 3e c0 82 9e bc 32 e4 0d be
       0.32218954 0.37983096 -0.019349456 -0.13856581
0000f0 e0 72 e2 bd a2 2f 1c be 38 f6 02 be a0 f6 19 3e
       -0.11057067 -0.15252545 -0.12789237 0.15035486
000100 c7 f1 b6 3d 8e 51 bf be 06 a2 41 be c6 0e 2e be
       0.08932834 -0.3736691 -0.18909463 -0.16997823
000110 44 9c d8 bd b6 6c 03 be ab 90 ad be 9b 5d 3d 3e
       -0.1057668 -0.12834439 -0.33899435 0.18492739
000120 70 95 b2 bd 10 db 3f 3e e8 bc 6d 3d 24 b7 b1 3d
       -0.08719909 0.1873591 0.058041483 0.086775094
000130 1b e8 32 3e a8 bb b0 3e 80 3a ee 3b d2 df 9e be
       0.17471354 0.3451817 0.0072701573 -0.31030136
000140 7b 5b bd be 18 7c c4 3e ab c4 39 be 41 13 2c be
       -0.36983857 0.38375926 -0.18141429 -0.1680422
000150 a0 4f ff bc f6 b0 c2 be f0 7e 7f 3e 1a bb d0 be
       -0.031165898 -0.38025635 0.24950767 -0.40767747
000160 1d ee cc be d0 f6 88 bd e4 de e8 bd d4 da 01 3e
       -0.40025416 -0.06687701 -0.11370638 0.12681133
000170 bc bb 20 3e fc 3e 69 be 90 7f 60 be 74 71 be be
       0.15696615 -0.22777933 -0.21923661 -0.37195933
000180 a0 4d 40 3c 06 85 ab 3e 00 d6 e6 bd 1c 0b 27 3e
       0.011737257 0.33499926 -0.11271286 0.16312832
000190 14 d1 a5 be 35 ca 4e be 7d b9 71 be c8 ef 45 be
       -0.32386076 -0.20194323 -0.23605914 -0.1932975
0001a0 bd 70 c7 be 17 51 88 be 73 0f 8e be a3 c2 6c be
       -0.389532 -0.26624367 -0.27746162 -0.23121123
0001b0 f8 f4 54 bd 00 36 ab bb f7 f6 86 3e c0 6d 60 3e
       -0.051991433 -0.005224943 0.26360294 0.21916866
0001c0 6e 72 40 3e 58 5f 88 be a0 2f 96 3e ae 93 d7 3d
       0.18793651 -0.26635242 0.2933321 0.105262145
0001d0 18 f2 0a 3e 9a b2 c2 be 4f c9 97 be 76 31 7e be
       0.13568914 -0.38026887 -0.29645774 -0.24823555
0001e0 d4 6a ae 3e c6 e1 91 3e 9e 99 66 3e 40 17 51 3c
       0.34065878 0.28492564 0.22519538 0.012761891
0001f0 ec 0e 95 3d be 4e d0 bc 02 2e 1a be 10 d3 25 be
       0.07278237 -0.025428172 -0.15056613 -0.16193795
000200 00 c3 af 3b 70 ef f0 3d 18 d4 ee 3d 20 9e ac 3d
       0.005363822 0.11764419 0.116615474 0.084285975
000210 90 5e a8 3c 46 15 ba 3e 28 10 b4 3e 26 40 7a be
       0.020552903 0.36344355 0.35168576 -0.24438533
000220 06 f9 b6 3e 84 df 97 3e c8 f7 ea 3d 4d fb 95 be
       0.35736865 0.29662716 0.11473042 -0.2929329
000230 00 1c ac 39 a1 9d 78 be c8 83 83 be c6 84 96 3e
       0.00032827258 -0.2427888 -0.2568648 0.29398173
000240 17 46 b0 be a5 c3 8c be 04 63 38 3e ae e0 08 be
       -0.34428474 -0.27493015 0.18006521 -0.13366958
000250 1b 86 bf 3e 80 ea f2 3c 94 0c f5 bd d4 36 9e 3d
       0.37407002 0.029652834 -0.1196529 0.077253014
000260 38 60 b8 bd d0 40 a3 3e 40 92 a7 bc 93 43 b3 be
       -0.09002727 0.31885386 -0.02045548 -0.35012493
000270 d0 ff 9d 3d 00 c2 c9 3b 78 9a 86 be 40 98 ae 3d
       0.07714808 0.00615716 -0.26289725 0.08525133
000280 ce dc 82 be a0 3d 0b 3e 7a 8e a8 be ac 19 16 3e
       -0.25559086 0.13597727 -0.329212 0.1465823
000290 50 48 cd 3e 50 f5 15 bd 4c 8e c9 bd e0 fd 04 3d
       0.40094233 -0.0366109 -0.09841594 0.032468677
0002a0 78 9d 85 3d dc 9c b2 3d 3f 79 28 bc ba 32 b8 be
       0.065241754 0.08721325 -0.010282814 -0.359762
0002b0 ce 3d 88 be 8c 46 77 be 71 e4 24 be 60 ee 19 3d
       -0.26609653 -0.24148005 -0.16102768 0.037580848
0002c0 e0 d5 4d bc 88 fa 3c bd 96 09 c5 3e 64 b8 ad 3e
       -0.012563199 -0.046137363 0.38483876 0.3392974
0002d0 35 1e 46 be 98 b4 d7 3d a0 6a e0 3d b4 11 5f 3e
       -0.1934746 0.105324924 0.10957837 0.21784097
0002e0 88 69 4e be 00 d1 21 3e 08 96 38 3e 30 00 90 bd
       -0.20157444 0.15802383 0.18025982 -0.07031286
0002f0 f6 22 82 be ea 02 2b be 28 42 af 3e 40 4d c6 bb
       -0.25417298 -0.1670033 0.3423016 -0.0060516894
000300 a8 94 d1 bd 3e f4 9e 3e e3 4f 92 3d 22 af ad be
       -0.10233432 0.31045717 0.071441434 -0.33922678
000310 ab 02 ae be 78 0f 86 3d 80 1b a1 3e b0 b9 2f 3e
       -0.3398641 0.06545919 0.31466293 0.17160678
000320 62 a6 66 be 18 e0 e0 3d d7 4b 3b bd e4 91 64 3e
       -0.22524408 0.109802425 -0.045726623 0.22321278
000330 78 25 df 3d 23 b9 89 3d d6 5f ba 3e 20 a9 15 be
       0.108958185 0.06724765 0.36401242 -0.14615297
000340 3a 43 1d be c0 98 da 3d 58 ec 2d 3e 40 f8 86 bd
       -0.15357676 0.10673666 0.16984689 -0.06590319
000350 17 bf a8 bd 52 a1 69 be 62 86 07 be 4a 18 9b be
       -0.082395725 -0.22815445 -0.13234857 -0.3029197
000360 8a 4f 8c 3e e8 67 96 bd 0e a1 ce 3e 2b 05 8d be
       0.27404433 -0.07344037 0.4035725 -0.27543005
000370 76 b5 8f 3e f4 fa 8e 3e 3a 33 40 3e e3 ac 99 3e
       0.2806813 0.27925837 0.18769541 0.30014715
000380 f7 63 2b 3d 3c 0f c2 be 98 99 7a 3e 1e 44 ae be
       0.04184338 -0.37902248 0.24472654 -0.34036344
000390 88 f0 a1 be 44 c2 a3 3e 70 72 55 3e 46 c0 c6 3e
       -0.31628823 0.3198415 0.20844436 0.38818568
0003a0 e4 b8 a5 3d 17 7d 9f be 2a ce 95 be a6 98 94 be
       0.08091906 -0.31150123 -0.29258853 -0.29022712
0003b0 37 2c 32 3e d2 60 43 3e 36 ba 96 3e 22 f3 aa be
       0.17399679 0.19079903 0.29438943 -0.3338862
0003c0 a8 1b 81 3e ba 18 99 3e f6 99 94 be 54 85 cc 3e
       0.25216413 0.29901677 -0.29023713 0.3994547
0003d0 50 32 7e bd 58 a4 1d 3e 67 27 2f 3d 02 f6 49 be
       -0.0620597 0.15394723 0.042762186 -0.19722751
0003e0 f4 7f 80 3d 24 16 97 be 2a 16 9d 3e 4f 9a a4 be
       0.06274405 -0.2950908 0.30680972 -0.32148978
0003f0 08 84 51 3e aa 50 85 be 89 ca a4 be 20 38 4a bc
       0.20460522 -0.26038104 -0.32185772 -0.012342483

fc1.bias f4 [64]
000000 0e 75 d7 3d 70 48 13 3e 5e b6 ab 3e d4 d3 9e 3e
       0.10520373 0.14383101 0.33537573 0.31020987
000010 cc fd 22 be 3e d0 76 be 55 b0 c8 be b6 a0 aa be
       -0.15917128 -0.24102876 -0.3919703 -0.33325738
000020 92 d0 a3 3e 24 7d df bd f0 c1 c4 bd 60 be b4 3d
       0.31995064 -0.109125406 -0.09607303 0.08825374
000030 cb 9d 55 be b6 39 8b 3e 40 ff 67 be a4 ea ad bd
       -0.20860974 0.27192467 -0.22655964 -0.0849202
000040 c0 6d 2a 3d 4b f3 23 be 04 63 f9 bd 9c 27 6a 3e
       0.041608572 -0.16010778 -0.12177089 0.22866672
000050 be a1 be be 78 f4 5d 3e 96 b4 82 be df d3 27 be
       -0.37232774 0.21675289 -0.255284 -0.16389416
000060 9b 5e 6f be 68 c3 05 bd e0 48 c4 3d ef 13 33 3e
       -0.23375933 -0.032657057 0.09584212 0.17488073
000070 02 d1 cc be 00 c2 c6 3b 4e 0b b5 3e 80 ad 91 bc
       -0.4000321 0.006065607 0.35360187 -0.017782927
000080 27 61 b4 be 60 23 06 bc 00 27 76 3b ea cd f2 bd
       -0.3523037 -0.008187145 0.0037559867 -0.11855681
000090 20 87 82 3d 1c 49 24 3e d4 70 b6 bd 46 58 93 be
       0.06373429 0.16043514 -0.08908239 -0.28778285
0000a0 d2 57 c1 be 7c 0d 81 3e c0 fe af 3e 1c a9 64 3e
       -0.37762314 0.252056 0.34374046 0.22330135
0000b0 d6 1c 56 bd 10 7e b7 bc d4 80 c7 3e 50 a4 16 3d
       -0.052273594 -0.022398978 0.38965476 0.036777794
0000c0 50 b1 d1 bc 64 9f 6b 3e 21 6b 5f be d0 2b 04 3e
       -0.025597245 0.23010021 -0.2181821 0.12907338
0000d0 90 e4 af 3d 5a 07 aa be c8 f1 17 3e 34 5a 9b bd
       0.08588517 -0.33208734 0.14838326 -0.07585564
0000e0 d0 5c b1 bd 12 77 a3 3e 20 99 31 bc a4 b6 c8 3e
       -0.08660281 0.3192678 -0.0108397305 0.39201844
0000f0 12 7c c5 3e 82 98 c7 3e a8 22 03 bd 42 bb 4b be
       0.3857122 0.38983542 -0.032015473 -0.19895652

fc2.weight f4 [64, 64]
000000 10 9e 88 3d 9a f9 fb 3d 90 4e 94 3d 6e 44 83 bd
       0.06670773 0.12303467 0.07241547 -0.06409536
000010 12 2b a0 3d d8 95 1f 3d 10 6d 7c 3c 3e 0b a3 bd
       0.07820715 0.03896126 0.015406862 -0.07961129
000020 f8 26 61 bd 12 78 dd 3d f8 e4 e5 bc 24 62 6e bd
       -0.054968804 0.10813917 -0.028063282 -0.058199063
000030 28 c4 c6 bd e0 87 7a 3d e8 81 bc bd b8 ae d5 3d
       -0.097053826 0.061164737 -0.09204465 0.104337156
000040 28 4e c2 bc b8 17 b8 3d 7c 2a a5 3d ec 03 21 bd
       -0.023718908 0.08988899 0.08064744 -0.03931038
000050 d2 47 e0 bd 50 61 ef bc d8 82 8d bc 20 b3 b2 3c
       -0.10951199 -0.029221207 -0.017274305 0.02181393
000060 88 e3 86 3d ab 5d 8a bd 50 1b 70 bd d0 8b 5a 3d
       0.06586367 -0.06756147 -0.058619797 0.05335599
000070 3e 9f 7a bd fa ab fc 3d 92 9c bf 3d b0 f6 fa bc
       -0.06118702 0.123374894 0.09356035 -0.030635208
000080 58 cc bd 3d ca 29 ec 3d 58 86 c3 3d 00 88 7b bb
       0.09267491 0.11531408 0.095471084 -0.0038380623
000090 40 87 aa 3c ba e7 a3 bd 00 7e 55 3b 90 a3 2a bd
       0.020816445 -0.08003183 0.0032576323 -0.04165989
0000a0 5c c0 59 3d 9e 9e af 3d dc e6 fb 3d 08 69 38 3d
       0.053161964 0.08575176 0.12299892 0.04502204
0000b0 8e 7b a3 3d 90 14 ec bd 40 fe db bc 82 f1 75 bd
       0.079825506 -0.115273595 -0.026854634 -0.060044773
0000c0 ee d4 89 bd 60 22 af 3d 54 8a 25 3d b4 29 cd 3d
       -0.06730066 0.085514784 0.040415123 0.1001772
0000d0 70 c9 a1 bd b8 99 b1 3c 16 2c c2 bd 22 3b df 3d
       -0.07899749 0.021679744 -0.09481065 0.108999506
0000e0 10 3f a2 3c 78 0e e3 bc c2 40 c4 3d 50 e4 b2 bd
       0.019805461 -0.02771686 0.09582664 -0.087349534
0000f0 86 d8 b4 3d 84 a4 e7 bd 10 83 b3 bc 6a e2 e3 bd
       0.08830361 -0.11310676 -0.021913081 -0.111271694
000100 0c 2a 34 3d 00 9a 00 3a 40 d7 8f bd d4 1c a2 bd
       0.04398541 0.000490576 -0.070234776 -0.07915655
000110 34 16 d2 bd 42 29 cf bd 98 fa c7 bd 06 91 eb bd
       -0.10258141 -0.10115291 -0.09764594 -0.115022704
000120 92 f9 c3 3d 4a d5 c1 bd fa e9 9f bd a4 c0 3f 3d
       0.09569086 -0.0946451 -0.07808299 0.046814576
000130 40 51 6d 3c a0 d3 84 bb 8a 74 82 bd ac 9b 7a 3d
       0.014484704 -0.004053548 -0.06369884 0.061183617
000140 08 e2 69 bd 4a ad a0 3d 90 4c 24 3c c8 f5 72 3d
       -0.057100326 0.07845552 0.01002802 0.059316427
000150 28 d2 13 bd 2e 2b 4f 3c a8 47 25 3d 84 98 6d 3d
       -0.036089092 0.012644572 0.04035154 0.05800678
000160 84 bc e7 bd 16 77 ac 3d e0 63 e0 3c 14 42 1e 3d
       -0.113152534 0.08421151 0.027391374 0.038637236
000170 34 4a 1c bd ac 38 2d 3d ec 05 fe 3d 6c e1 7c bd
       -0.038156703 0.042290375 0.12403473 -0.061738417
000180 8e d2 c2 bd 7e 64 cd bc 68 b4 a6 3c 9e 5e db 3c
       -0.09512816 -0.025072332 0.020349696 0.026778515
000190 0e 14 de 3d b2 7f ea 3d f4 7c 72 3d 20 6b 84 bd
       0.10843669 0.11450137 0.059201196 -0.06465745
0001a0 60 91 8a bc b0 b0 7c bc a2 fe cf bd 4a df db 3d
       -0.016915023 -0.015422985 -0.10155989 0.107359484
0001b0 72 9a a1 bd a8 64 85 3c a4 7d 21 bd 20 d1 10 3c
       -0.07890786 0.016283348 -0.03942646 0.008838922
0001c0 00 da f3 3d 08 1c f3 bd 84 f9 64 bd 00 4c c1 39
       0.119068146 -0.11870581 -0.05590202 0.00036868453
0001d0 48 37 b6 3d 02 e2 8d 3d 70 75 1e bd 50 05 13 bd
       0.08897263 0.06927873 -0.038686216 -0.03589374
0001e0 24 13 00 3d 52 c5 ed 3d 0f 3c 0e 3c 04 4f 21 bd
       0.031268254 0.116099015 0.008681311 -0.039381996
0001f0 de 9b d7 3d f4 c6 e3 3d 9e 6b 71 3d 00 14 21 bb
       0.10527776 0.11121932 0.058940522 -0.0024578571
000200 40 6a c3 3d 42 a7 95 3d b2 cb f0 bd 10 b9 bf bc
       0.0954175 0.073072925 -0.11757602 -0.023403674
000210 74 47 5a 3d 00 65 90 3b ca 2f a9 3d 0a 96 c8 3d
       0.0532908 0.0044065714 0.08261068 0.09794243
000220 b8 d4 c6 bc 1f 08 99 3b 5c 0f 28 3d 0f 97 92 3d
       -0.024271354 0.0046701576 0.041030273 0.071577184
000230 2f ef ba bc ef 3b 1f 3c 4a c9 f1 bd 80 c0 71 bc
       -0.02281913 0.009718879 -0.11805971 -0.014755368
000240 28 9c 2b bd a4 8f 2e bd 68 ab ab 3d 04 ab aa bd
       -0.04189697 -0.042617455 0.083823025 -0.083334
000250 0a 93 c4 bd 76 fd ee 3d 2c 5a 35 bd 90 14 11 bc
       -0.09598358 0.116694376 -0.044275448 -0.008855
000260 80 06 2c bb 3c 82 eb bd 70 44 c2 3c a0 b6 85 bb
       -0.0026248991 -0.114994496 0.023714274 -0.0040806085
000270 ff 89 91 3d 64 a6 e7 bd 5c b1 94 3d 1b 09 92 bd
       0.07106399 -0.11311033 0.07260391 -0.07130643
000280 a6 33 de bd 08 bc e5 3d e4 0f 65 3d d2 93 d1 bd
       -0.10849695 0.11217505 0.055923358 -0.102332726
000290 fe 2d 8f bd de df c9 3b 60 16 e9 bb 93 a9 1c 3d
       -0.06991194 0.0061607203 -0.007113263 0.038247656
0002a0 e6 35 a3 3d b0 5f 91 bc 2c 69 f1 3d 8c e1 d9 bd
       0.07969265 -0.017745823 0.11787638 -0.10638723
0002b0 32 ac fe 3d 47 40 8e 3d 0c 06 7b 3d 7c 5e a6 bd
       0.124351874 0.06945854 0.061285064 -0.0812349
0002c0 c0 fd 57 bc 50 1f e9 3d b0 44 1c bc 0e 87 d5 bd
       -0.013183057 0.113829255 -0.009537861 -0.1042615
0002d0 a0 14 82 3b 4c 54 e2 3d 66 46 eb bd 40 93 bd bd
       0.003969744 0.110512346 -0.11488037 -0.09256601
0002e0 30 7d 8b 3d a0 76 51 3c 42 cd ed 3d e8 55 ad bc
       0.06810987 0.01278463 0.116114154 -0.021159127
0002f0 b6 e2 fd bd 5a 1d c5 3d 8e c9 8e bd 00 b5 8b 3d
       -0.12396757 0.09624739 -0.06972037 0.068216324
000300 4c cb 8d bd 0e e0 bb bd 16 a1 e4 bd 7e 0f 7f bc
       -0.069235414 -0.091735944 -0.11163537 -0.0155676585
000310 b6 8f 93 bd 48 2f 84 3c 0e 7f 8b 3d 0a 69 fe 3d
       -0.07205145 0.016135827 0.06811343 0.12422378
000320 bc ed a4 3d 56 e9 ca bc ba 49 5e bd d0 4e 29 bd
       0.08053157 -0.024769466 -0.05426953 -0.041334927
000330 5a c4 ba 3d f0 f7 65 bc aa ee bb 3d 2c 9f 19 bd
       0.09119482 -0.014036164 0.09176381 -0.037505314
000340 fe 99 5b 3b fe e4 f4 3c 14 fe 89 bd 0e 85 f8 bd
       0.0033508535 0.029894348 -0.06737915 -0.12134753
000350 d4 86 a4 3d 80 2f 65 bb 7c fc 52 bd 38 8b 63 3d
       0.08033529 -0.003497094 -0.05151032 0.05555269
000360 40 bb 7f 3d 8c 99 31 3d 26 e4 7f 3d f0 4a 78 3c
       0.062434435 0.043359324 0.06247344 0.015154585
000370 a4 ce aa 3d cf bf 0b 3d d8 2d 9b bd d4 6b 26 3d
       0.08340195 0.03411847 -0.075771034 0.040630177
000380 aa 7d b4 3d 2e a9 f0 3d fc b5 e5 3d c2 c9 d0 3d
       0.08813031 0.117510185 0.112163514 0.10194732
000390 34 e7 84 bd 53 9b 29 bd 18 86 08 bd 78 1e d2 bd
       -0.06489411 -0.041407894 -0.033331007 -0.10259718
0003a0 ee ae e7 bd 67 67 b0 3c ac a3 8d bd d0 20 4a bd
       -0.11312662 0.021533681 -0.069159836 -0.0493477
0003b0 44 ef 1e bd 6e 8a 9e 3d a6 75 9d bd 3b 45 0b bd
       -0.0388024 0.07741247 -0.07688455 -0.03400157
0003c0 20 90 10 3c c0 bb 23 bb 18 f6 c0 bd 00 fb 30 3c
       0.008823425 -0.0024983734 -0.09421939 0.010802031
0003d0 5c a9 e0 3d 00 a2 6b bc e4 54 13 bd e8 f9 8b 3d
       0.10969803 -0.0143818855 -0.03596963 0.06834775
0003e0 54 58 ef bd 50 cd 9f bd ae f0 77 bd 40 99 7d 3b
       -0.11686769 -0.07802832 -0.060532264 0.003869608
0003f0 30 d2 1a 3d a6 55 d1 3d 72 53 d6 bd 0e 33 5d 3c
       0.037798107 0.10221414 -0.10465135 0.013500942

fc2.bias f4 [64]
000000 b2 f8 57 3d d8 de 99 3c 6b bf a4 3d 76 b7 ca bd
       0.05272741 0.018783018 0.080443226 -0.09898274
000010 78 90 8c 3c 00 88 a9 bc c2 29 d8 3d a8 10 ec 3c
       0.017158732 -0.020694733 0.1055484 0.028816536
000020 dc 9a 3f 3d ec 71 53 bd c0 e7 db 3d 0e ed fb 3d
       0.046778545 -0.051622316 0.10737562 0.12301074
000030 7c 1d de 3d ba 64 96 bd 1f 83 aa bc 3a fb be bd
       0.108454674 -0.07343431 -0.020814477 -0.093252614
000040 8e 34 e9 bd 98 57 b9 3d bc e7 68 3d b4 06 87 bd
       -0.11386977 0.0904991 0.056861624 -0.065930754
000050 cc 09 54 bd 78 2b 21 3d 1c a8 85 bd f2 67 fd bd
       -0.051767156 0.039348096 -0.06526205 -0.123733416
000060 4c 6f 77 3d 2e 68 b6 3d 9e 63 ce 3d a2 0a 89 3d
       0.060408875 0.089065894 0.10077594 0.06691481
000070 58 a0 db 3d 00 1b fc 3c 2a cf d0 bd c8 4c 01 3d
       0.107239425 0.030774593 -0.101957634 0.031567365
000080 67 78 b3 3c ea 81 c0 3d fe e1 63 bc 92 b4 f3 bd
       0.021907998 0.09399779 -0.013908861 -0.118996754
000090 53 63 a0 3d 40 e3 37 3c e0 1a 8d bd 78 48 f9 3c
       0.078314446 0.011223614 -0.068898916 0.030430064
0000a0 40 39 fd bd 1c 81 cd bd 2c c7 51 3d c4 78 fd bd
       -0.12364435 -0.10034391 0.051215336 -0.1237655
0000b0 66 59 be 3d cc bf c2 bd 82 a1 96 bd 90 bf 49 3d
       0.09294395 -0.095092386 -0.07355024 0.049254954
0000c0 a7 bd a1 bc ca 8d 69 3d 3a f3 48 3d a0 fb 79 bd
       -0.019743754 0.057019986 0.049060084 -0.061030984
0000d0 50 9e a4 3c b4 36 c0 bd a2 ca 63 3d ef d2 0f 3c
       0.02009502 -0.09385434 0.055613168 0.008778318
0000e0 00 55 e1 bd 54 53 ea 3d 82 03 8e 3d ac 56 83 3d
       -0.110025406 0.11441675 0.06934263 0.06413016
0000f0 37 7f 87 3d b8 24 a4 3c fa 2c be 3d e4 3d d4 3d
       0.06616061 0.02003704 0.09285922 0.10363367

fc3.weight f4 [64, 64]
000000 02 f6 a7 3d 44 ff e5 bd e8 80 2e 3d c2 73 e7 bd
       0.08201219 -0.11230329 0.042603403 -0.11301376
000010 5c ea 33 bd 36 d9 b7 bd 20 71 88 bd e0 41 f0 3b
       -0.043924674 -0.089769766 -0.06662202 0.0073320717
000020 fe 70 fe 3d a0 91 f6 3d ca 09 c3 bd f8 ee 91 bc
       0.12423895 0.120394945 -0.095233515 -0.017814144
000030 5a 72 6d 3d a8 6b b8 3d 0c d5 4c bd bf fb 2a bd
       0.057970382 0.09004909 -0.050007865 -0.04174399
000040 40 68 ca 3d d2 af de 3d 68 80 75 bd 96 07 bd 3d
       0.09883165 0.10873379 -0.05993691 0.092299625
000050 4f f4 10 3c fc d3 9d bd 4c 3c a8 3d fb f8 a3 bd
       0.00884731 -0.077064484 0.08214626 -0.08006474
000060 40 7b 7f 3b 60 a9 a0 3d e4 9d 15 3d 1c 4f a3 bd
       0.0038983375 0.07844806 0.03652753 -0.07974073
000070 56 7e 60 bd 7c 2a 19 bd b2 09 8a bd 3c a0 c8 3d
       -0.054807983 -0.037394032 -0.067401305 0.09796187
000080 d0 ee 52 bc 38 93 3d bd 70 3f ca 3d 6a e4 80 bd
       -0.01287432 -0.046282977 0.09875381 -0.062935665
000090 d0 ca cd bc d8 a3 98 3d ea 4e a8 3d aa 16 5b 3d
       -0.025121123 0.07453126 0.08218177 0.05348841
0000a0 ec f6 74 bd ac 15 cf 3d 06 71 d9 3d a4 cd dd bd
       -0.059805796 0.101115555 0.10617261 -0.108302385
0000b0 d0 5e e5 3d a4 1a ec 3d 5e 23 ad bd 58 5f a3 bd
       0.11199725 0.11528519 -0.084540114 -0.0797717
0000c0 a8 98 9f 3d 68 8b a1 3d 3e 33 b6 3d c0 0f 0b bd
       0.07792789 0.07887918 0.088964924 -0.033950567
0000d0 d4 22 3d bd b6 98 df bd 92 78 aa 3d 80 5e eb 3c
       -0.046175793 -0.10917799 0.08323778 0.028731585
0000e0 80 70 81 3a 1a c0 9b bd 9c 16 cb bd b6 f7 e8 bc
       0.0009875447 -0.07605 -0.09916422 -0.02843843
0000f0 68 d7 c8 3c 6f 87 a6 3c 18 1a be 3d 17 6c 1c 3d
       0.024516776 0.020328252 0.09282321 0.03818902
000100 78 12 e3 3c 1e 8f fc 3d ea 63 8e bd 3c b4 e3 bd
       0.027718768 0.12331985 -0.06952651 -0.11118361
000110 a0 e9 a6 3b da d9 d8 bd a0 7d 9f 3c 80 41 62 3b
       0.0050937682 -0.10588427 0.019469082 0.0034523904
000120 9f 4d 97 bc 10 1c ce 3c 97 ce 39 3d 02 90 e6 bd
       -0.01846963 0.025159866 0.045363035 -0.11257936
000130 fa c7 8a bd 2f 69 34 3d 50 c3 0c bd 38 f9 fb bd
       -0.06776424 0.044045623 -0.034365952 -0.12303394
000140 18 3b 41 3d 78 6d 8a bc 66 68 f7 bd 60 87 1f 3d
       0.047175497 -0.016897902 -0.12080459 0.038947463
000150 22 1d f1 bd e0 c8 4b bc 3f 6d 96 3d 10 8b 29 bc
       -0.11773135 -0.012438029 0.07345056 -0.0103480965
000160 50 57 95 3c 72 09 c7 3d e8 f7 a7 bc f0 90 30 3c
       0.01823011 0.097185984 -0.020503953 0.010776743
000170 80 f0 78 bd 64 98 46 3d b4 4e e9 bd f0 16 54 bc
       -0.060776234 0.048485175 -0.113919646 -0.012944922
000180 c0 92 92 3c 40 27 42 3c b8 3e a3 3c 4a d2 9b bd
       0.017892241 0.011850178 0.019927368 -0.07608469
000190 fe f1 76 bd a0 b6 f3 3b ef 46 bc 3c 04 df c5 bd
       -0.060289375 0.007437542 0.022983043 -0.096616775
0001a0 ce 48 fc 3d 86 ed b8 bd d0 19 79 bc ba 5a 8e bd
       0.12318574 -0.09029679 -0.015203908 -0.069508985
0001b0 06 ac ff bd 84 12 c5 bd d2 5d 41 3d 1e 85 ab bd
       -0.12483983 -0.09622672 0.047208615 -0.083749995
0001c0 3e 87 c7 3c 60 93 ba bc 68 60 09 3d e8 30 ba bc
       0.02435648 -0.022775352 0.033539206 -0.022728398
0001d0 9e e4 e0 3d f2 a3 dc bd b0 53 41 3d 40 43 a1 bb
       0.10981105 -0.107734576 0.04719895 -0.004921347
0001e0 fc 2e bd bd ff 38 92 bb 6a a7 9c 3d a0 ba 9c bb
       -0.09237477 -0.004462361 0.07649119 -0.0047829896
0001f0 4c 61 23 3d b8 e4 b6 3c c8 e4 4f bd 70 bf d4 3c
       0.03988771 0.022325858 -0.050755292 0.02597019
000200 ac 6b 50 3d 68 24 b5 bd 54 cc 5a 3d b0 6a a7 3d
       0.050883934 -0.088448346 0.05341752 0.08174646
000210 46 4d df bd 0e a3 a0 bd fc ca c0 3d 44 de 72 3d
       -0.109034106 -0.078436 0.09413716 0.059294
000220 5c db c2 3d 1e 4b af bd 52 61 a0 bd 86 15 e8 bd
       0.09514496 -0.08559249 -0.078310624 -0.1133223
000230 50 6e c5 bc bc 44 ea bd 84 6c 82 bd 88 e2 fa bc
       -0.024100453 -0.11438891 -0.06368354 -0.030625597
000240 20 58 8e 3d 87 71 9f bd e7 f8 28 bd c0 14 25 3c
       0.06950402 -0.077853255 -0.041252997 0.010075748
000250 86 0f 86 bd bb c0 19 3d a0 95 18 3d 78 87 63 bd
       -0.065459296 0.037537318 0.03725207 -0.055549115
000260 ba 7e 4c bd 96 75 86 3d 0e 37 a3 bd 12 c1 d6 3d
       -0.049925543 0.065653965 -0.07969485 0.10486044
000270 f0 72 3a bc 0f e3 8c bc d8 38 f9 3d 06 45 9f bd
       -0.011379942 -0.017198114 0.12169045 -0.07776837
000280 92 6f 8a bd 2a 7b eb bd 3c f9 ab 3d b8 85 90 3c
       -0.067595616 -0.11498101 0.08397147 0.017641887
000290 f4 a0 99 bd 9e 06 e3 bd 73 b8 9e bd 00 15 71 3d
       -0.075014025 -0.110852465 -0.07750025 0.058857918
0002a0 92 84 fd 3d b0 49 ed bd 70 03 c3 bd 4b b2 b3 3d
       0.123788014 -0.115863204 -0.0952214 0.08774241
0002b0 0a 34 5b bd b0 ba 6e 3d e6 be d8 3d d8 c9 03 bd
       -0.053516425 0.058283508 0.10583286 -0.032174915
0002c0 0a 0b 6b bd 20 13 1a 3c ae a7 9e 3d 5e f1 a3 3d
       -0.057383575 0.009403974 0.07746826 0.080050215
0002d0 a6 3f c5 bd 82 56 f2 3d 7c 52 28 bd c8 60 d3 bc
       -0.096312806 0.11832906 -0.04109429 -0.025802985
0002e0 42 b1 bc 3d 3a 92 cf 3d 0e 83 85 bd b0 d4 17 3d
       0.09213497 0.101353124 -0.06519137 0.03706807
0002f0 38 8b 90 3c c0 96 aa bd b0 d2 01 bc f0 90 c3 bd
       0.01764451 -0.083295345 -0.007923767 -0.09549129
000300 50 49 b7 bd 16 52 ca 3d b4 05 1b bd 4e 59 ef bd
       -0.0894953 0.09878938 -0.037847236 -0.116869554
000310 18 23 af bd 64 bd 93 3d 54 a2 05 3d f8 c5 57 bd
       -0.085516155 0.07213858 0.03262551 -0.052679032
000320 f8 84 3d 3d 5c 1d be bd 00 71 f6 3b 58 f5 3f bd
       0.046269387 -0.092829436 0.007520795 -0.046864837
000330 30 ce 5f 3d 38 b4 94 3d 0f 10 1c bd 66 b7 c5 bd
       0.054639995 0.072609365 -0.038101252 -0.09654121
000340 a6 95 e1 bd 82 48 88 bd c0 b5 2d bd ca 9a f1 bd
       -0.11014871 -0.06654455 -0.04240966 -0.11797102
000350 90 c3 17 3c 60 6a c6 bb fc ec 78 3d 8e 19 f3 3d
       0.009262934 -0.0060551614 0.06077288 0.118701085
000360 b6 c7 75 bd 14 ba b7 3d b0 2e e3 3d d8 6d dd bc
       -0.060004912 0.089710385 0.11092889 -0.027029917
000370 08 3f f0 3d 28 4b 97 bc a0 db fd bd ee 22 ef 3d
       0.11730772 -0.018468454 -0.12395406 0.11676584
000380 8c a5 c7 3d 28 aa a1 bc ae 2f 61 bd ea 0e de 3d
       0.097483724 -0.019734457 -0.05497711 0.108426884
000390 80 7e 1b bc 00 e3 5e 3b 1e 1d a8 bd 7c 61 a3 bd
       -0.009490609 0.0034009814 -0.08208679 -0.07977578
0003a0 2e 2d ce 3d 40 46 af 3c 92 ca d0 bd 58 49 46 3d
       0.10067211 0.021395802 -0.10194887 0.04840979
0003b0 6c 3e 85 bd 40 c2 b2 bb 17 96 9f bc a0 df 10 bd
       -0.06506047 -0.0054552853 -0.019480748 -0.035369515
0003c0 d4 e2 c9 bd 58 23 85 3d 30 24 2f 3d 6f de 0b 3d
       -0.09857717 0.06500882 0.04275912 0.034147676
0003d0 a2 8b b7 3d 34 bb 82 3d fe 27 c1 bb 30 50 74 bc
       0.0896218 0.063833624 -0.00589466 -0.014911696
0003e0 cc 77 3a 3d 82 ad db 3d ce 73 d7 bd 5c 9c ab 3d
       0.045524403 0.10726453 -0.10520135 0.083794326
0003f0 43 8b ba 3d 30 9d 9d 3d 6f 4c 07 3d 34 9f 3d bd
       0.09108593 0.07695997 0.033031877 -0.046294406

fc3.bias f4 [64]
000000 5a 12 83 3d 6e 6c a0 bd 54 4c 8c bd 2c 0a b4 3d
       0.06399985 -0.07833181 -0.06850496 0.08791003
000010 f0 c7 ff 3c 40 b6 52 3c 00 cb 89 3d ec 7d 51 3d
       0.031223267 0.012860835 0.06728172 0.05114548
000020 f0 2c a1 bd 60 bb 7e bc c4 d9 42 3d 30 61 ac 3d
       -0.07869899 -0.015547603 0.04757096 0.084169745
000030 5c 90 bf 3d b8 bb 56 3d d2 7a b4 bd ef f8 96 3d
       0.09353706 0.052425116 -0.088124886 0.07371699
000040 64 6d af bd 5a bd b9 bd 8f ab b7 3c 00 dd 19 ba
       -0.085657865 -0.09069319 0.022420673 -0.00058694184
000050 fa c1 73 bd b2 25 58 bd 94 90 98 bd f8 a2 a7 bd
       -0.059511162 -0.052770324 -0.07449451 -0.08185381
000060 fa bd c5 3d 4c 63 1d bd 4c e1 a5 bd 32 9a fe 3d
       0.09655376 -0.038424775 -0.080996126 0.12431754
000070 48 83 8f bc 20 c6 d6 bd cc d5 39 3d d0 ad 5c bc
       -0.017518654 -0.10487008 0.04536991 -0.0134691745
000080 28 f5 fe bc 40 f0 27 3b 80 21 f8 3c 86 e5 c9 3d
       -0.031122759 0.0025625378 0.030289412 0.09858231
000090 0e d7 a7 3d 08 1b 68 bd be 75 fa bd 90 0d c0 3d
       0.08195315 -0.056666404 -0.12229489 0.09377587
0000a0 ec b0 8c bd 32 5f fe 3d d8 eb b2 3c 40 76 1f bd
       -0.06869683 0.12420501 0.021840975 -0.03893113
0000b0 5e d9 87 3d 27 9c 98 bd de b0 ce bd a8 c1 4d 3d
       0.066332564 -0.07451659 -0.100923285 0.050233513
0000c0 e4 1c 78 3d 1f c6 94 bc 0f 84 16 bd 86 6a a5 3d
       0.060574427 -0.018160878 -0.036747035 0.08076958
0000d0 70 58 00 3d ce c4 6f 3c 1c 74 76 3d 98 c9 2c bd
       0.03133434 0.014634324 0.060169324 -0.042184442
0000e0 50 66 7e bc 66 0e cf 3d 08 11 5e bd 53 db 07 3d
       -0.015527323 0.10110168 -0.05421546 0.03316815
0000f0 3e c6 fb bd 70 e0 c4 3c a6 83 a8 bd c4 e4 b0 3d
       -0.12293671 0.024032801 -0.08228235 0.086373836

fc4.weight f4 [64, 64]
000000 98 8e dc 3c e4 3f 85 bd 7e 51 56 3b f0 c7 7d 3d
       0.026923463 -0.06506327 0.0032702382 0.061958253
000010 00 cc ca 3c 18 ed 7d 3d 7e 69 97 bd 0c ea 0d 3d
       0.024755478 0.06199369 -0.07393168 0.034647033
000020 c7 c2 9a 3d a4 d7 68 bd 9c 1c c0 3d d8 f3 ba bd
       0.07556682 -0.056846276 0.09380457 -0.09128541
000030 5c 08 72 bd 1f f5 3f 3d d4 a7 68 bd 48 df 4d 3d
       -0.059090003 0.046864625 -0.05680068 0.050261766
000040 ec 45 b8 3d a0 41 97 bb f0 1a e6 bd 50 d7 53 3d
       0.089977115 -0.0046159774 -0.11235607 0.05171901
000050 66 1f ff bd 5f 8f bd bb 80 0b 59 3c e6 08 fd bc
       -0.12457161 -0.0057849134 0.013247371 -0.030888032
000060 5a f9 ec 3d d0 91 12 bd f0 e3 b1 3c 76 a6 c6 bd
       0.115709975 -0.03578359 0.021715134 -0.09699719
000070 00 8d 14 3c 67 46 90 3d 8c 0e c9 3d c0 9e a5 bd
       0.00906682 0.07044678 0.09817228 -0.0808692
000080 9c 4b 57 3d f0 33 f4 bc 2a 34 84 bd 18 fb aa 3d
       0.05256234 -0.029809922 -0.06455262 0.083486736
000090 1f b4 9c 3b 8c d2 c7 bd de fd a5 bd 3a 27 6f bd
       0.0047822143 -0.097569555 -0.08105062 -0.05838702
0000a0 e6 eb fa 3d be e8 cb bd 60 59 aa bb 3a ca c1 3d
       0.12252025 -0.099565014 -0.0051986426 0.094624
0000b0 48 85 d4 bd de 76 f2 bd 08 09 40 bd 1c 9a 47 bd
       -0.10376984 -0.11839078 -0.046883613 -0.048730955
0000c0 db ac 9c bd 54 db 69 bd f0 9e b7 3c 22 e4 a7 bd
       -0.07650157 -0.057093933 0.022414654 -0.0819781
0000d0 a6 47 ee 3d 94 d0 20 3d d8 8a be bd d4 0e 7a bd
       0.116347596 0.039261416 -0.09303826 -0.061049297
0000e0 dc e7 1f bd 72 3f ba bd 7e 0c c9 3d 68 c8 cf bc
       -0.039039478 -0.090941325 0.09816836 -0.025364116
0000f0 80 8f fa 3c 38 e4 a0 bc 5f b2 3d bc aa b8 e8 bd
       0.030586004 -0.019640073 -0.0115781715 -0.11363347
000100 42 35 b2 bd 50 7f 09 3d 18 5d b9 3c ea cb 8b bd
       -0.08701564 0.03356868 0.022627398 -0.06826003
000110 58 aa 77 bd a6 f5 82 bd d0 82 b0 bc d3 c7 31 bd
       -0.060465187 -0.0639451 -0.021546751 -0.043403458
000120 06 0b fb 3d a6 e5 ba 3d 8c ac 60 bd e0 90 c2 bc
       0.12257962 0.09125833 -0.054852054 -0.023750722
000130 0a d0 f1 3d e4 af 36 3d 7a 5b fc bd 28 3a 98 bc
       0.118072584 0.044601336 -0.12322135 -0.018582419
000140 90 c5 ad 3d 00 52 c8 3a 70 2f 78 bc 50 99 76 3d
       0.08484948 0.0015283227 -0.015148029 0.060204804
000150 80 69 4f bd 9a f7 a6 bd a0 54 d8 bb bb 94 18 3d
       -0.050637722 -0.08152695 -0.006601885 0.037251215
000160 3c 0f a2 3d 88 19 2e bd 60 f1 1b 3c 30 f6 c5 3d
       0.07913062 -0.042504817 0.0095179975 0.09666097
000170 50 56 57 3d 6c 42 76 bd 2c 5f 23 bd 80 71 b5 bb
       0.05257255 -0.06012194 -0.039885685 -0.005537212
000180 e0 dd e1 3b b0 72 a1 3d 4a bb ae bd 78 6c 49 3d
       0.0068929046 0.07883203 -0.08531816 0.04917571
000190 32 75 d5 3d ac 2d 02 bd 76 cf a8 3d da 84 f1 3d
       0.10422744 -0.031781837 0.08242695 0.117929175
0001a0 a0 93 ca 3b 6f f8 a8 bd ee 77 fb 3d 20 07 fc bc
       0.006182149 -0.0825051 0.12278734 -0.030765116
0001b0 d8 f2 de bd e0 3d ce bc e4 be 03 3d 7e 7d d9 bd
       -0.108861625 -0.025175989 0.03216447 -0.10619639
0001c0 94 0b 78 bd 30 e0 d0 3c a8 77 b9 3c d8 46 d6 bd
       -0.060557917 0.025497526 0.022640064 -0.10462731
0001d0 30 0c 6d 3d 52 c0 aa bd c8 de 93 bd 38 de d9 bc
       0.05787295 -0.083374634 -0.072202265 -0.02659522
0001e0 40 a9 c2 bd 40 69 eb 3b 18 21 31 bd b6 13 d8 3d
       -0.09504938 0.0071841776 -0.04324445 0.105506346
0001f0 86 23 eb bd b0 ae 92 3d e8 76 f7 3c 72 a2 b4 3d
       -0.11481385 0.07162225 0.030208066 0.088200465
000200 a4 e7 4a 3d 04 21 ac 3d 84 a2 20 bd c2 c1 ea bd
       0.049537316 0.08404735 -0.039217487 -0.114627376
000210 60 74 82 3b 03 98 0e bd a0 cc 81 bd de e0 e8 bd
       0.003981158 -0.03481294 -0.06337857 -0.11371015
000220 f2 bb 84 3d b8 35 91 bd a8 00 c5 bd c6 bc eb 3d
       0.0648116 -0.07090324 -0.09619266 0.11510615
000230 42 76 e8 bd 8b e8 0d 3d b8 01 e8 3c 17 8d 2d 3d
       -0.11350681 0.0346456 0.028321132 0.042370882
000240 10 b4 33 3d 74 35 23 3d 80 cc 07 3d be c3 c0 3d
       0.043872893 0.0398459 0.03315401 0.09412335
000250 fe 6c 9c bd 62 35 dc 3d 54 e3 2a bd 8c d2 e2 3d
       -0.07637976 0.107523695 -0.041720703 0.11075315
000260 90 1d 7e 3c c0 b0 38 bb 46 ef bc 3d ce 19 d2 bd
       0.015509978 -0.0028181523 0.09225325 -0.10258828
000270 67 f4 91 3d 28 7c 97 3c fe 48 52 3c e0 81 18 bd
       0.07126694 0.01849182 0.0128347855 -0.037233233
000280 54 e5 29 3d 7a 1f 55 bd 67 2a 89 bc 90 d4 26 bc
       0.04147847 -0.05203197 -0.016743852 -0.010182515
000290 54 03 05 bd f4 6f c9 bd 9c 85 09 bd 58 34 e0 3c
       -0.032473877 -0.098358065 -0.033574685 0.02736871
0002a0 ff 89 1b bc 6e a4 63 bc 22 b5 f6 bd 76 50 f0 bd
       -0.00949335 -0.013894184 -0.12046267 -0.11734097
0002b0 74 a6 52 3d 58 73 da 3c fe 50 9e bd 8a 65 e3 3d
       0.051428273 0.026666328 -0.07730292 0.111033514
0002c0 30 b4 8b bd 00 a2 2d 3a ec 8c 76 3d 18 3e ab 3d
       -0.068214774 0.0006623566 0.060192987 0.08361453
0002d0 ee 1b bd bd 1a 92 98 3d a4 f0 c5 bd 60 98 12 3c
       -0.09233843 0.07449742 -0.09665039 0.008947462
0002e0 60 9e 93 3d 72 30 97 bd 2a 29 d4 bd 5a 62 9e 3d
       0.07207942 -0.07382287 -0.10359414 0.07733603
0002f0 32 47 d4 bd 14 ca c2 3d 40 f2 a6 bc 32 b1 da 3d
       -0.10365142 0.095111996 -0.020379186 0.106783286
000300 68 ff bb 3c e4 ed 6f bd e4 e8 88 bd f4 c3 73 3d
       0.022948936 -0.05857648 -0.06685045 0.059513047
000310 74 29 a5 3d 8a 68 ba bd ee 35 a1 3d a8 ac 82 3d
       0.08064547 -0.091019705 0.078716144 0.06380588
000320 b0 c3 73 bd 40 53 a9 bb 5a b4 d8 bd ac 49 7a bd
       -0.059512794 -0.005167395 -0.10581274 -0.061105415
000330 ce e2 fe bd 7e dc b8 bd 06 4c ec 3d 47 f9 93 bd
       -0.12445603 -0.090264305 0.11537938 -0.0722528
000340 0e f7 a9 bd 80 b9 4b 3c ae 24 b3 3d 5e 84 e6 3d
       -0.08299075 0.012434363 0.087472305 0.11255716
000350 34 2f f2 3d 60 fc ea bd ff 5d 95 3c 7a 98 b8 bd
       0.118254095 -0.11473918 0.018233297 -0.090134576
000360 16 39 fd 3d 7e 17 a6 bd d8 d0 58 3d 5a 33 75 bd
       0.12364404 -0.081099495 0.052933544 -0.059863426
000370 ca e8 d7 3d 60 1e 04 bc 20 be 5a bc 10 9c ea bd
       0.10542448 -0.008063883 -0.013350993 -0.11455548
000380 80 d6 ae ba e0 93 c2 bd 66 b1 c7 bd 3c 70 5b bd
       -0.0013339072 -0.09500861 -0.09750633 -0.053573832
000390 bc 80 64 3d 0e 6a d8 bd d3 d4 06 bd f4 54 2b 3d
       0.055786833 -0.10567103 -0.03291781 0.041829064
0003a0 c2 0e bc bd 00 9d 27 ba 70 b2 13 3c 6a 46 ec 3d
       -0.09182502 -0.0006393939 0.009014711 0.11536868
0003b0 96 32 95 bd ba 46 c5 bd 74 bf 63 bd b6 bc cf bd
       -0.07285039 -0.09632631 -0.055602506 -0.10143416
0003c0 68 5b d6 bc ae b1 b8 3d bf 8b 2c bd 50 03 8e 3c
       -0.026166633 0.09018265 -0.04212546 0.017335564
0003d0 3a 6a da bd 8a b5 6d bd c7 27 b3 3c 90 bd 9e 3d
       -0.10664792 -0.058034457 0.021869553 0.07751
0003e0 d0 61 f6 3c 98 a7 c9 3d d8 0c e0 bc 24 c5 bd 3d
       0.030075938 0.09846419 -0.027349874 0.09266117
0003f0 e4 1c df bd 76 54 c7 bc e2 ff ff bd 18 c9 dd bd
       -0.10894182 -0.024332266 -0.12499978 -0.10829371

fc4.bias f4 [64]
000000 66 a1 e9 3d 70 ba c7 3d f0 d4 8b bc 60 44 21 3d
       0.114077374 0.09752357 -0.01706931 0.039371848
000010 ac 4c 22 3d d8 54 96 3c 1e 0e ed 3b 82 5d be bd
       0.0396239 0.018351004 0.007234349 -0.09295179
000020 d0 03 e5 bd 92 3c cd 3d 2a 63 82 bd b0 0e b6 bd
       -0.11182368 0.100213185 -0.0636657 -0.0888952
000030 a8 c3 b8 3d c8 aa 9d bc 10 55 78 bd 6e f7 de 3d
       0.090216935 -0.019246474 -0.060627997 0.10887037
000040 a2 c8 92 3d 00 cd 45 bb ba 5d f6 bd 68 ae ab 3d
       0.07167174 -0.0030182004 -0.12029596 0.08382875
000050 00 e8 dc bb f8 93 d1 3d 10 ab 81 3d ef 15 9d 3c
       -0.0067415237 0.10233301 0.06331456 0.019175498
000060 bc 86 24 3d ac f4 d2 3d 4c a1 8f bd 90 1a 82 3d
       0.040167555 0.10300574 -0.07013187 0.06352723
000070 b4 c7 36 3d bf c3 8d 3d 2a 09 97 3d 10 14 c3 bd
       0.044624045 0.06922101 0.07374795 -0.09525311
000080 80 0c 8d bd 82 39 e5 3d 74 b6 d4 3d 00 92 b4 b9
       -0.0688715 0.11192609 0.10386363 -0.00034441054
000090 68 a3 ee 3d 38 a4 13 3d 9f 8e 88 bc 18 ee 89 bd
       0.11652261 0.036045283 -0.01666957 -0.06734866
0000a0 0a a1 ff 3d be 53 8c 3d 50 e7 ad bd 1e c6 aa bd
       0.12481888 0.0685191 -0.08491385 -0.08338569
0000b0 f2 4d 95 bd f0 8e 70 bd 36 5a 84 bd 74 3a fc bd
       -0.072902575 -0.058730066 -0.06462519 -0.123158365
0000c0 1c 46 5e bd fe 4c f2 bd ca aa 9d bd b0 b1 d6 bc
       -0.05426608 -0.11831091 -0.07698591 -0.026207775
0000d0 82 c1 83 3d 5a 4a d2 3d 2e fb f4 bd 64 c5 43 3d
       0.06433393 0.10268088 -0.11961971 0.04779567
0000e0 38 3d e9 3c a0 bb c0 3c 2e bb c9 3d ac cb 12 bd
       0.028471574 0.023526967 0.09850155 -0.035838768
0000f0 3e df aa 3d ae 23 e3 3c 3b 3d 36 bd 98 c3 df bd
       0.08343361 0.027726974 -0.044491988 -0.109259784

fc5.weight f4 [3, 64]
000000 e0 ac 11 bd c4 ac f4 bd 98 84 2c 3d 00 6c 36 b9
       -0.035565257 -0.11947015 0.04211864 -0.00017397106
000010 00 c4 df b9 ba 84 ec 3d 60 28 41 3c 28 95 52 3d
       -0.00042679906 0.11548753 0.011789411 0.051411778
000020 f6 90 cc 3d 90 85 b7 3d 6f 3b a7 3d 10 71 16 bc
       0.099885866 0.08961022 0.08165633 -0.00918223
000030 f4 26 6e bd 94 09 af bd 1c fb 0f 3d 1b aa 11 bd
       -0.058142617 -0.08546749 0.035151586 -0.035562616
000040 0c dc 33 bd 80 b2 21 3b 4a 40 b0 bd e8 5f f0 3d
       -0.043911025 0.0024673045 -0.08606012 0.11737043
000050 2a c4 8f 3d 52 4f 99 3d 48 0f 5a bd 92 48 a3 3d
       0.07019837 0.07485832 -0.05323723 0.07972826
000060 82 9e c6 bd ac 7d 22 3d 20 f3 7f bd b4 37 f4 3d
       -0.09698202 0.03967063 -0.06248772 0.11924687
000070 3c 77 a1 bd 58 1d 0a bd 10 1b d9 bd d8 4a 09 3d
       -0.0788407 -0.03371939 -0.10600865 0.033518642
000080 18 3b 29 bd 5e 1c e5 bc b2 f9 cf bd fe ca 6b bc
       -0.04131612 -0.027967628 -0.101550475 -0.014391659
000090 cf 17 36 bd 7b dc 24 bd 28 7e 7f bd 66 b9 84 bd
       -0.0444563 -0.04024933 -0.06237617 -0.064806744
0000a0 88 d0 d4 bc 9e c6 f0 bc 68 49 46 bd 68 70 b3 bd
       -0.025978342 -0.029391583 -0.04840985 -0.08761674
0000b0 4b dc ac 3d 6c e8 35 bd 9a 03 b1 3d 64 ab 65 3d
       0.08440455 -0.044411108 0.08643265 0.056071654
0000c0 80 85 8c bb be 78 9a 3d d8 4e b2 bd 7c 60 62 bd
       -0.0042883754 0.07542561 -0.087064445 -0.055267796
0000d0 90 69 20 bc a0 b4 d7 bd 36 86 ef 3d 50 dc 97 3c
       -0.009790793 -0.10532498 0.116955206 0.01853767
0000e0 60 d0 c1 bc ac 42 d6 3d 00 28 3d ba 1e 61 e8 bd
       -0.023658931 0.104619354 -0.00072157383 -0.11346649
0000f0 84 9c ea bd 80 fb 43 3d 52 8e bb bd 2e 58 ca bd
       -0.11455634 0.04784727 -0.09158005 -0.098801
000100 78 76 e2 bc 4e 73 f5 bd 76 d9 8a 3d 84 0c 31 bd
       -0.02764438 -0.11984883 0.06779759 -0.043224826
000110 b0 b1 e8 3d ee cc e8 3d b4 bd f6 bd da 10 ef bd
       0.11362016 0.11367212 -0.12047902 -0.11673136
000120 10 b5 4f 3d 88 35 a8 bc 00 2b c5 ba 1a 57 a8 bd
       0.050709784 -0.020533338 -0.0015042722 -0.08219738
000130 b4 df 7d 3d 0c 70 39 3d 7a d0 f0 3d de 01 8c 3d
       0.061980918 0.04527287 0.11758514 0.06836294
000140 62 7e b5 3d d0 b7 99 bc 20 35 bd bb 5e 2c cd bd
       0.08861996 -0.018764406 -0.0057741553 -0.10018228
000150 30 9b 59 bc 14 6c 44 bd 32 3d 99 3d 64 1e ed 3d
       -0.0132816285 -0.047954634 0.07482375 0.11578062
000160 52 cc df 3d d4 e8 f3 3d f0 5a d7 3d 3f b0 bc 3c
       0.10927643 0.11909643 0.10515392 0.02303326
000170 20 6b 37 bc 7a 89 8d 3d 0a ce ab 3d e0 6b ce 3c
       -0.011194974 0.06910987 0.08388908 0.025197923
000180 0a 02 b4 3d c6 a3 a8 bd 00 44 9d 3a 0c 67 ea bd
       0.087894514 -0.08234362 0.0011998415 -0.11445436
000190 d6 d7 da bd e0 49 d0 bb ea 6d cc 3d f7 2d aa bc
       -0.10685699 -0.006356463 0.09981902 -0.02077387
0001a0 b0 9b 9c 3d 44 3f 51 3d 60 56 cf 3c 56 55 9c 3d
       0.076468825 0.051085725 0.025309741 0.07633464
0001b0 c0 d1 f5 bb db e3 b0 3d 06 e1 f9 bd c0 bc b8 3c
       -0.007501811 0.0863721 -0.12201123 0.02255094
0001c0 1b ea 17 bd 18 15 fb 3c fa 68 f4 3d a3 70 9d bd
       -0.037088495 0.030649707 0.11934085 -0.076874994
0001d0 7a 65 ea bd f0 c1 e8 bc 1c 33 c5 bd 0c a8 d8 bd
       -0.11445136 -0.02841279 -0.09628889 -0.105789274
0001e0 5a 0a bb 3d fa e1 ae bd 78 33 e4 bd 38 cb e1 bc
       0.09132834 -0.08539195 -0.111426294 -0.027562723
0001f0 2e e3 de bd b0 d4 53 bc 38 34 8e 3d f4 ae ef bd
       -0.10883175 -0.012929127 0.06943554 -0.117032915
000200 e0 fc 1b bc fe 81 73 3d 43 65 3d 3d 66 5a c1 bd
       -0.009520739 0.059450142 0.04623915 -0.0944107
000210 3b 57 ba bd 70 e5 42 3d 40 cf 34 bb 34 a8 4a 3d
       -0.09098669 0.04758209 -0.002758935 0.049476817
000220 50 cd fb 3c 98 83 a6 3c 7b e7 0a bd 98 41 e3 3d
       0.030737549 0.02032642 -0.033912163 0.110964954
000230 5a 4c b7 3d 1e a1 e1 3d c0 4f 82 3d 08 fb 3a 3d
       0.0895011 0.11017059 0.06362867 0.04564956
000240 be 6d e3 3c bf 7d b0 3d b0 f8 00 3d 3e ab 55 bd
       0.02776229 0.08617734 0.031487167 -0.052165262
000250 dc f0 61 3d 50 3e ea 3c bf 7a 38 3d 02 c5 8e bd
       0.055161342 0.028594166 0.045038935 -0.0697117
000260 5a b8 be bd 68 97 74 bd 7b 62 92 3d 86 f2 cc 3d
       -0.09312506 -0.059714705 0.0714769 0.10007195
000270 74 58 1e bd 90 4f 37 3d 48 60 1a bd f8 30 0b 3d
       -0.038658574 0.04475361 -0.037689477 0.033982247
000280 ff cf 87 b8 3e 50 d1 bd 9f 3c b2 3c 37 48 8c bd
       -6.476044e-05 -0.10220383 0.021757422 -0.068497114
000290 c4 40 f5 3d f4 54 86 bd 88 5a 3e bd e0 4d bc 3b
       0.11975244 -0.06559172 -0.046473056 0.005746588
0002a0 0a a4 4f bd 26 c3 ae bd 92 e4 fb bd c0 b9 4a 3c
       -0.05069355 -0.08533315 -0.12299456 0.012373388
0002b0 a4 c4 d8 3d e0 d9 a4 bd 40 f6 7c 3c ca fe 80 3d
       0.10584381 -0.08049369 0.01543957 0.06298597
0002c0 af 25 39 bc 0a 5c bf 3d 60 c8 97 bb 1a 96 9a bd
       -0.011300488 0.09343727 -0.004632041 -0.07548161
0002d0 0b 5b 91 bd 44 08 6a bd 6c d0 c7 3d 28 a9 fc 3d
       -0.07097443 -0.05713679 0.0975655 0.123369515
0002e0 30 bf d9 bc 88 70 72 bd 98 dd bf 3d 28 5c 66 3d
       -0.026580423 -0.05918935 0.093684375 0.05624023
0002f0 a8 d0 04 3d b8 67 c7 3d 6a 5c e4 3d da cd ce 3d
       0.032425553 0.0973658 0.11150439 0.10097857

fc5.bias f4 [3]
000000 e8 94 9f bc e0 80 87 bc 12 59 c3 bd
       -0.019480184 -0.016540945 -0.09538473

actor_tracing.fc1.weight f4 [32, 3]
000000 57 9e 30 be e8 9a 4f be a5 e9 1f be 7f a8 e9 be
       -0.17247902 -0.20273936 -0.15616472 -0.45636365
000010 a0 4c 0d 3f 93 58 1c bf 90 9c f8 3d 6b e3 c2 3d
       0.55195045 -0.61072654 0.12139237 0.09516033
000020 f4 a0 84 be 8f c7 cb 3e 87 1a 28 3e 40 59 a1 3e
       -0.25904047 0.3980069 0.1641637 0.31513405
000030 f0 45 f7 3e dd 66 4a be ce 4e dc 3e 34 cb 1c 3d
       0.48295546 -0.19765802 0.43028873 0.038279727
000040 9f d5 04 bf 37 6b 75 3d 23 b0 cb bd 8b 7f 01 bf
       -0.5188846 0.0599167 -0.09945705 -0.5058524
000050 2a 3e aa 3d 3a 3d 1f 3e bc c5 8d be 3a 28 4d be
       0.08312638 0.155507 -0.27689922 -0.20034876
000060 58 bc 45 be f8 73 0c bf d9 40 06 3f 59 35 95 be
       -0.19310129 -0.54864454 0.524427 -0.29142264
000070 f9 a7 e4 3d 71 59 ea 3e 97 bb e8 be a3 e0 dd bd
       0.11164851 0.45771363 -0.4545562 -0.10833862
000080 96 aa d9 3e f3 d3 c0 3d 44 46 b9 be f4 70 3a be
       0.4251296 0.09415426 -0.3618642 -0.1820715
000090 b7 70 58 be 74 40 0b 3f 0b 5d 1e be 08 1b c2 bd
       -0.21136747 0.5439522 -0.1546518 -0.09477812
0000a0 33 a7 e4 3d e1 05 7d be a3 60 57 3e b2 76 80 be
       0.11164703 -0.24709274 0.21032958 -0.25090557
0000b0 e1 27 cd be 87 a4 a3 3e 03 5f f3 be e4 df b0 3e
       -0.40069488 0.31961462 -0.47533426 0.34545815
0000c0 19 b3 02 bf 76 f7 e9 be c9 40 0e 3f 3e e8 cc be
       -0.5105453 -0.4569661 0.55567604 -0.40020937
0000d0 34 ca a5 3e b1 fc 3d be 81 e6 34 3e 67 1c 3e 3e
       0.3238083 -0.18553425 0.17666055 0.18565522
0000e0 90 fb e2 3e 70 b2 ec bd 6b 25 e3 3e f1 a8 92 3e
       0.44332552 -0.11557472 0.44364485 0.28644517
0000f0 91 a4 b0 3e 69 4f b8 3e df bf 9f 3e 0a 75 c7 3e
       0.34500554 0.35998085 0.31201074 0.3895648
000100 1e 85 ae be b2 24 a4 3e ea 0d 9a 3e 4b a5 fa be
       -0.34085935 0.32059246 0.3008874 -0.48954234
000110 8c fd 1c 3e 85 b7 91 3d 74 35 c9 be 3f 64 7a be
       0.15331095 0.07115082 -0.39298594 -0.24452303
000120 ea 46 59 3e 2e b5 7d bd d4 1c 6e 3d 28 f8 af bd
       0.21218458 -0.061940365 0.05813296 -0.08592254
000130 f4 cd 6b be 7f 32 97 be b7 ac de 3c 62 71 6f 3e
       -0.23027784 -0.29530713 0.027181966 0.23383096
000140 dd dd 1e 3e 3c d8 1a bd bb 97 1b 3e d5 94 d9 3e
       0.15514322 -0.037803873 0.151946 0.42496362
000150 31 cd 0f 3e a1 5c 36 3e 1a ad bf 3d 27 3e f0 be
       0.14043118 0.17808773 0.093591884 -0.46922418
000160 88 cf 8c 3e 44 8e 9d 3e c3 b4 77 3e 93 ce bd 3e
       0.27502084 0.30772603 0.24190049 0.37071666
000170 aa 31 e9 3d 8e 39 d5 be b1 d5 fd 3a 08 9b df 3e
       0.11386426 -0.41645473 0.0019366053 0.43672967

actor_tracing.fc1.bias f4 [32]
000000 20 0d f0 be fb 86 9b be be a5 ae 3e 57 ec 64 3d
       -0.46885014 -0.3037642 0.34110826 0.055889454
000010 ac 6e db 3e 0e 94 fe be 59 c4 b1 3e fe b3 e8 3e
       0.42857873 -0.49722332 0.34720114 0.45449823
000020 17 0b 0a 3f b8 fe e6 be e7 4e ea 3e c4 6b 80 be
       0.5392317 -0.4511621 0.45763323 -0.2508222
000030 02 a2 d5 3e 9b 9f b4 3e 3c 9e ae be 6b 5d 87 be
       0.41725165 0.3527802 -0.34105098 -0.2643846
000040 59 44 c6 be c4 28 82 bd 61 50 07 bf a0 40 24 3f
       -0.3872402 -0.06355432 -0.52857023 0.6416111
000050 82 2f 01 bd 34 49 dc bc f7 44 d7 3e dd 3b 99 be
       -0.031539448 -0.026890375 0.42044804 -0.29928485
000060 49 e4 43 3d b3 ee d3 3e f0 02 30 3e 0c a8 17 3d
       0.04782513 0.4139305 0.1718862 0.037025496
000070 81 da ba be 67 1b 2b 3f 67 70 10 3f 1e c1 f7 3c
       -0.3649483 0.6683869 0.5642151 0.030243453
