self_avoidance_gym/pth/target_critic_1.pth (torch, 17892 bytes, 19 tensors)

value_mean f4 [66]
00000000: 0000 0000 0000 0000 0000 0000 0000 0000
00000010: 0000 0000 0000 0000 0000 0000 0000 0000
00000020: 0000 0000 0000 0000 0000 0000 0000 0000
00000030: 0000 0000 0000 0000 0000 0000 0000 0000
00000040: 0000 0000 0000 0000 0000 0000 0000 0000
00000050: 0000 0000 0000 0000 0000 0000 0000 0000
00000060: 0000 0000 0000 0000 0000 0000 0000 0000
00000070: 0000 0000 0000 0000 0000 0000 0000 0000
00000080: 0000 0000 0000 0000 0000 0000 0000 0000
00000090: 0000 0000 0000 0000 0000 0000 0000 0000
000000a0: 0000 0000 0000 0000 0000 0000 0000 0000
000000b0: 0000 0000 0000 0000 0000 0000 0000 0000
000000c0: 0000 0000 0000 0000 0000 0000 0000 0000
000000d0: 0000 0000 0000 0000 0000 0000 0000 0000
000000e0: 0000 0000 0000 0000 0000 0000 0000 0000
000000f0: 0000 0000 0000 0000 0000 0000 0000 0000
00000100: 0000 0000 0000 0000
0.0 0.0 0.0 0.0 0.0 0.0 0.0 0.0
0.0 0.0 0.0 0.0 0.0 0.0 0.0 0.0
0.0 0.0 0.0 0.0 0.0 0.0 0.0 0.0
0.0 0.0 0.0 0.0 0.0 0.0 0.0 0.0
0.0 0.0 0.0 0.0 0.0 0.0 0.0 0.0
0.0 0.0 0.0 0.0 0.0 0.0 0.0 0.0
0.0 0.0 0.0 0.0 0.0 0.0 0.0 0.0
0.0 0.0 0.0 0.0 0.0 0.0 0.0 0.0
0.0 0.0

value_std f4 [66]
00000000: 0000 803f 0000 803f 0000 803f 0000 803f
00000010: 0000 803f 0000 803f 0000 803f 0000 803f
00000020: 0000 803f 0000 803f 0000 803f 0000 803f
00000030: 0000 803f 0000 803f 0000 803f 0000 803f
00000040: 0000 803f 0000 803f 0000 803f 0000 803f
00000050: 0000 803f 0000 803f 0000 803f 0000 803f
00000060: 0000 803f 0000 803f 0000 803f 0000 803f
00000070: 0000 803f 0000 803f 0000 803f 0000 803f
00000080: 0000 803f 0000 803f 0000 803f 0000 803f
00000090: 0000 803f 0000 803f 0000 803f 0000 803f
000000a0: 0000 803f 0000 803f 0000 803f 0000 803f
000000b0: 0000 803f 0000 803f 0000 803f 0000 803f
000000c0: 0000 803f 0000 803f 0000 803f 0000 803f
000000d0: 0000 803f 0000 803f 0000 803f 0000 803f
000000e0: 0000 803f 0000 803f 0000 803f 0000 803f
000000f0: 0000 803f 0000 803f 0000 803f 0000 803f
00000100: 0000 803f 0000 803f
1.0 1.0 1.0 1.0 1.0 1.0 1.0 1.0
1.0 1.0 1.0 1.0 1.0 1.0 1.0 1.0
1.0 1.0 1.0 1.0 1.0 1.0 1.0 1.0
1.0 1.0 1.0 1.0 1.0 1.0 1.0 1.0
1.0 1.0 1.0 1.0 1.0 1.0 1.0 1.0
1.0 1.0 1.0 1.0 1.0 1.0 1.0 1.0
1.0 1.0 1.0 1.0 1.0 1.0 1.0 1.0
1.0 1.0 1.0 1.0 1.0 1.0 1.0 1.0
1.0 1.0

fc1.weight f4 [16, 66]
00000000: f999 a63c 1d69 85bd e456 513d aeee 8b3d
00000010: de30 f43c 8830 97bd 42fb adbc c001 94bb
00000020: 4f2b 973c 785a 8ebd 56d9 16bd 1f53 7b3d
00000030: 57b0 423d 7c51 7abd 337c 98bd 4937 9d3d
00000040: 166e b2bd 21e8 0f3d 8426 92bd 7563 ea3d
00000050: d69f 27bb 95c4 943c 25be b2bd dbaf f33d
00000060: b95f 903d 0636 8f3d e3fa babd 7ce0 cbba
00000070: 989c dfbd 10dd 833d 18ec d1bd 24e8 b7bd
00000080: 19e4 0d3d 90fc b93c 7fc9 2cbd 9134 af3c
00000090: 0efa ab3c 0ea4 f93c 94cf b43d 0a55 48bc
000000a0: 0b91 c53d d1cd e73d 3f9c 113c a452 a83c
000000b0: 5fcc dbbd 9e4e 4c3b f7c5 b23d 5037 7ebd
000000c0: d172 c1bd 3d2b bebd 21d5 a33d 654c 39bd
000000d0: 2438 d9bd 7ac1 1abb 6af0 293c 49b4 91bc
000000e0: 93bc bdbb c6c6 803d ccf2 753d 5fac 3c3c
000000f0: 298a 38bd 53fd d4bb db09 213d b9a9 94bd
00000100: f58a cd3d 55cc eabd ab78 9d3c 8e26 ee3c
00000110: 0603 f9bd 0d7d a3bd a374 0abc deaa 30bd
00000120: c8de 81bc 3099 f03a da2d e7bd a034 9ebd
00000130: 8ee3 983c 4ecb 1d3d 5ce4 f63d 56ef af3d
00000140: 3c43 dbbd 6e9b 63bd 1fba a6ba 5c1c bebd
00000150: d3e7 883d 5ddf a3bd c2a4 c03d c2da e3bd
00000160: ecd7 bf3d 294f 853d f953 f13d 5413 b73d
00000170: da4b 94bd 2cf8 c23d 369e 8dbd 67bf 583d
00000180: 2116 323b 23ec 2d3d e683 2abd 6fd9 8a3d
00000190: c102 a53d da46 46bd 2a24 d63d 73e6 763d
000001a0: e17a b93d b585 db3d 8b86 8c3d 8aea 143d
000001b0: 2df0 9bbc a5a3 08bd 7c1d f63d b298 b7bd
000001c0: cc36 4dbd 12eb 833d 7dfc fa3c d9fa f53d
000001d0: 07d9 073c 0f4e e73d ebcd f8bd c63f d03d
000001e0: 1baf abbd 7c9a e4bd 8ad7 a93c 982d a1bd
000001f0: 1f45 893c 75c7 a6bd 5c66 cb3d 5b2b 9d3d
00000200: 4cfa a33d be5c 73bd c5d2 9fbd 8366 9ebd
00000210: d903 a13d 482c 753d 128a 9cbd a770 bc3c
00000220: 725f 31bd eae2 9b3d f97b c03d 9795 513d
00000230: 3a8f 393d f35b 233d 09b9 a43d e530 d1bc
00000240: 10ac d53c 749d 033c 1a92 82bd 1545 39bd
00000250: cd0c 9cbd 3106 cd3d a404 6f3c 67d6 aabd
00000260: 2a8c 8b3d ad51 5b3d d885 cdba 41b3 ecbd
00000270: 25da b4bd d75c 963d ce25 cb3d 7a91 8c3c
00000280: fd99 d6bd 80a5 5dbd ba0a 8d3c f3f2 2e3d
00000290: 0a60 433d 0e2b 7dbd 974d 423c b917 f2bd
000002a0: 9c32 b03d 9f4c f13d e5a6 a1bc 0122 cc3d
000002b0: 080e 90bd 7107 79bd ed6c a8bd 07e8 3fbb
000002c0: c833 163d 8e0a 823d d9fa ef3c 430d 0c3d
000002d0: 868a 92bc 956d ad3c f7b9 e03c b6eb 7a3d
000002e0: cbd0 a23d 80ed 3a3d 099a 6dbc deac e83d
000002f0: 8b36 fd3d 0cec 5ebd 076b 4cbd 192a f93d
00000300: 83cc 66bd 88dc 06bd abe1 8f3d 4024 c13d
00000310: bbf4 e63d 66f6 02bc b502 433d 76ae a73c
00000320: ba98 5b3d 4107 bd3d 0fb6 963d 8f9f ccbd
00000330: ae43 7dbd 7b20 c53d 44e2 29bd d3a1 64bd
00000340: 255e a53d 7911 603d 7f4e a4bd 2b44 ad3d
00000350: 466a 1abc 3bc1 0fbd 5049 92bd 8c3b 403d
00000360: 2038 f0bd cb37 2b3d 6ef8 9a3d 288d b53d
00000370: 691f 85bd a03f 95bd d105 883d 897d 71bd
00000380: 6e39 ea3d f8dd d03d c173 993d 87a1 78bd
00000390: d936 38bd b7dd 38bd b1ce 893c 0407 c7bd
000003a0: 0eb9 8e3d 3875 c5bc 9291 f1bd 7c82 3fbc
000003b0: b37f 14bd 9ead 863d cf9c ccbd 65c1 bd3d
000003c0: 07d9 f83d 8fb5 a63c 6406 363c 8da6 dc3d
000003d0: a6a4 89bd 06ae dcbd 29c4 2ebd 2c1a 883d
000003e0: 4b49 cc3c a1e6 6cbb 392d afbc 54e7 853d
000003f0: acc0 f2bc 3d60 75bd 60df e5ba e6db c8bd
0.020337092 -0.065141894 0.051108256 0.06832634 0.029808458 -0.073823035 -0.021237973 -0.00451681
0.018453268 -0.06950849 -0.03682836 0.061358567 0.047531452 -0.061112866 -0.07445564 0.076765604
-0.087124035 0.035133485 -0.071362525 0.11444751 -0.0025577447 0.018160144 -0.087276734 0.11898776
0.07049508 0.06992726 -0.09129884 -0.0015554572 -0.1091854 0.06438649 -0.102501094 -0.08979824
0.03464136 0.022703439 -0.04218435 0.02138737 0.020993259 0.030473735 0.08828655 -0.012227306
0.096468054 0.11318553 0.00888735 0.020547219 -0.1073234 0.003117479 0.08729165 -0.06206447
-0.094457276 -0.09285591 0.079996355 -0.04523887 -0.10606411 -0.0023613856 0.010372261 -0.017786162
-0.005790302 0.06287913 0.060046002 0.011515706 -0.045053635 -0.006499925 0.03931604 -0.072589345
0.100362696 -0.114647545 0.019222578 0.029071119 -0.1215878 -0.07982836 -0.00845066 -0.0431317
-0.0158533 0.00183562 -0.11288042 -0.07724881 0.018663194 0.038523965 0.12055275 0.085905716
-0.10706183 -0.05556815 -0.0012720263 -0.09282753 0.06684842 -0.080015875 0.09406425 -0.11125709
0.09367356 0.06509239 0.11783595 0.089392334 -0.0724103 0.09519991 -0.06914942 0.05291691
0.0027173834 0.042461526 -0.041629694 0.067797534 0.08057166 -0.048407413 0.104561165 0.060278367
0.090566404 0.10718862 0.068615995 0.036356486 -0.019035423 -0.03335919 0.120173424 -0.08964671
-0.050101086 0.064413205 0.030637974 0.12010736 0.008291489 0.11294185 -0.12148651 0.10168414
-0.08383008 -0.11162278 0.02073266 -0.078700244 0.016756592 -0.08143512 0.09931633 0.07674285
0.08006725 -0.059414618 -0.07803873 -0.07734396 0.07862062 0.059856683 -0.07643522 0.023002936
-0.043303914 0.0761164 0.09398646 0.05116805 0.045302607 0.03988261 0.08043105 -0.02553601
0.026083022 0.008033145 -0.06375523 -0.045231897 -0.07619629 0.100109465 0.014588509 -0.08341675
0.068138435 0.05354469 -0.0015680147 -0.115576275 -0.0883067 0.073419265 0.0991932 0.017159212
-0.1047859 -0.05411291 0.017217029 0.042712163 0.04769901 -0.06180864 0.011859319 -0.11820931
0.08603403 0.117821924 -0.019732902 0.09967423 -0.07033926 -0.060798112 -0.08223901 -0.0029282586
0.036670476 0.063496694 0.029294418 0.034192335 -0.017888319 0.021170417 0.027432425 0.061259948
0.0794998 0.045636654 -0.014502057 0.11361097 0.12363919 -0.05442433 -0.049906757 0.121662326
-0.05634738 -0.03292516 0.070254646 0.09430742 0.112771474 -0.007993316 0.047610004 0.020468932
0.05361245 0.09229899 0.07358944 -0.09991371 -0.061832123 0.09625336 -0.04147555 -0.05581839
0.08074597 0.054704163 -0.080227844 0.08460268 -0.009424752 -0.03509639 -0.071428895 0.04693179
-0.11729455 0.041801255 0.075669155 0.08864814 -0.06500132 -0.07287526 0.066417344 -0.05895761
0.11436735 0.10198587 0.074927814 -0.06070092 -0.04497418 -0.04513332 0.016822191 -0.09718135
0.0696889 -0.024103746 -0.117953435 -0.011688825 -0.036254596 0.065760836 -0.09990846 0.09265403
0.1215077 0.020350246 0.011109922 0.107739545 -0.06720857 -0.1077538 -0.04266754 0.06645617
0.024937293 -0.0036148208 -0.021383869 0.06538263 -0.029632889 -0.059906233 -0.0017537884 -0.09807567

fc1.bias f4 [16]
00000000: 6e10 04bd 6c42 c2bd fd60 743d 82fc 0dbd
00000010: 2dff b9bd 3c0b ec3d 1144 563d 09e7 cebd
00000020: 4d8b f93d cd54 9e3d 4dcd 163d 85c6 92bd
00000030: f1c6 bcbb e3a2 823d 15fc cebd e096 463d
-0.03224223 -0.09485325 0.059662808 -0.03466464 -0.09081874 0.1152558 0.052311007 -0.1010266
0.12184773 0.07731018 0.036816884 -0.07166771 -0.0057610204 0.063787244 -0.101066746 0.04848373

fc2.weight f4 [16, 16]
00000000: 1602 733e de59 0fbe 941a 3c3e 1d11 163e
00000010: 1155 11be 52fc 02be 2616 81bb 1619 29be
00000020: 15b0 31be cf36 2a3e 711d 06be 0649 5bbe
00000030: 7233 593e f017 33be 2b02 59be a0b9 b43d
00000040: e38b b63c 93f2 1cbd 32e7 c8bd c89e c33c
00000050: 439b 3ebe f65d ffbd 2bd8 9b3c c512 3cbe
00000060: e3f3 cfbd a688 b8bd 0d5e e03d 1ea0 46be
00000070: ab32 ffbd 97e9 e5bc 2a25 573e 6d82 abbd
00000080: 2798 80bc 5d83 dabc e2a3 173e 5008 393e
00000090: a24f 2f3e 8c5f 103d 4d47 3c3e e202 71be
000000a0: cb40 5ebe 45c5 fbbd 5c22 5c3d 5ace 4fbe
000000b0: 258a 64bb 67d3 673d 586e 463e 35c2 553e
000000c0: 73c4 e6bd f552 283e 9cbe 833d caf2 74be
000000d0: ff86 3f3c 5d77 663e 1f2c 05bd 00f7 003e
000000e0: 4fab 61be 3ef4 bbbd ffbf 22be e1a7 3abe
000000f0: b70d dfbd 199a 4cbe 6153 57be 6eb5 8c3d
00000100: 79c0 0abd 5816 6d3b 8125 67be a9d7 c23c
00000110: 3e8e 46be 831f 16be 3ee5 20be d578 ce3d
00000120: a80d f6bd 04e9 68bd 8093 54be b192 1d3e
00000130: abe3 27be d493 be3c f003 dfbd b44a 5c3e
00000140: 2e89 43be a2f9 b7bd 1419 31bd 1010 db3d
00000150: 11cd 3abd 7327 93bd 60ce f03c ef21 6c3e
00000160: b843 ab3c bc45 6b3c 7ef3 803c 6a4d 5e3e
00000170: 8011 6d3e afdd 513e 3a88 aebb e03b 85bc
00000180: 0ffb 0c3c 84ec 3d3c 41bf 563e 399f 40be
00000190: e801 efbb 2d99 e1bd 553b 0f3e 0e55 9abd
000001a0: 0df4 1b3e e608 dbbd 0dae dbbd eb2d 1ebd
000001b0: c400 2fbe a378 993c 10c9 423e 69c2 08be
000001c0: 52aa 143e fe34 2bbd 0eef 66be b970 eab9
000001d0: ec07 0e3e 938d 65bd a991 543e 4102 443e
000001e0: c3de 2e3e 1bb5 03be 6547 74bc f09d 20be
000001f0: 4e41 eabd 0b53 b9bc 385d f4bd c141 34be
00000200: ffca 3b3e d262 2d3d 5990 3ebe a097 e33d
00000210: 5676 1f3e 4291 a03d 5a32 1cbe 45c2 1bbe
00000220: 7308 453d 5f08 7b3e 6365 aa3d 6476 583d
00000230: 2910 6cbe 9245 97bc 2020 6cbe 467a 2bbe
00000240: 36fa 5abe f8ce 5fbe 6287 fdbd 7020 63be
00000250: 9f36 cbbd a56d 2cbb e654 76bd e6dd cc3c
00000260: 9096 7f3e f76a 843d 70c3 7e3d 7a71 49be
00000270: eae3 503d ca93 b33d a8ae 71be 80e6 0dbe
00000280: 177b 7cbe 7db6 653d 8c2e 163e 3b85 713e
00000290: a7d9 af3d 7f7b 3d3e 7d6e de3d c006 403e
000002a0: cb10 33be f71b 41be fcda 803d ef6e 29be
000002b0: 87ae b7bd 7f78 35be 45a5 ebbc 6d92 3ebd
000002c0: dedf 173e db11 6e3d 8964 b5bc 2a7e 013c
000002d0: 02b4 423e 5324 4dbe 91c1 4dbe d1fb babd
000002e0: 9d5b 6fbe dcf7 473c db5f e1bd b146 7bbe
000002f0: ece1 2dbc a1da b73d 472e a83d ff85 20bd
00000300: bd4c fbbd 7775 723e 428f 453e 14fc 57be
00000310: 8d11 6bbe cf2d 773e d656 f93d ce0c 01be
00000320: 9a54 36be 6b19 d4bd de2e 743e 1604 f83d
00000330: 6002 afbd e048 87bd 91e6 803d 10ed 87bc
00000340: 38eb 153d 1ecc c9bd 0250 0ebd 6382 26be
00000350: a6ba aa3d 4d26 773e 63c7 203e 7993 063e
00000360: b720 3fbd 0a1f 9bbc 0778 783d 0d49 50be
00000370: a848 52be 50ad c1bc 78b4 94bd ea74 41bc
00000380: 8c01 23be 18b4 c6bd 8236 453e 09c3 553e
00000390: 83af 793e b30a 003e 960a e33c 1393 103e
000003a0: f862 8ebd e657 433e e065 353e 2bda c93c
000003b0: 386c 29be c119 103e 7597 2dbe ff1a 57be
000003c0: b576 0dbe f39b 943d cef1 6abe 00e4 3bbe
000003d0: a422 eabd ba4d 7fbe d2e5 3e3e e790 5b3c
000003e0: b7d1 1cbe e53f 413e 37d6 d73d 026a 0cbd
000003f0: 67a3 67be cd31 eabd eabe 283e 087a e1bd
0.23731264 -0.13999125 0.18369514 0.14654966 -0.14192607 -0.12791565 -0.003939408 -0.16513476
-0.17352326 0.1662247 -0.13097169 -0.21414575 0.21211031 -0.174896 -0.21192233 0.08824468
0.0222835 -0.038317274 -0.09809722 0.023879424 -0.18613915 -0.124690935 0.019023975 -0.18366535
-0.101539396 -0.090104386 0.10955439 -0.19397017 -0.12460836 -0.028065486 0.2101027 -0.08374486
-0.015697552 -0.026673967 0.1480861 0.18069577 0.17120221 0.03524737 0.18386574 -0.23536256
-0.21704404 -0.122934856 0.053743705 -0.2029356 -0.003487238 0.056598093 0.1937803 0.20874865
-0.112679385 0.16437896 0.0643284 -0.23920742 0.0116899 0.22506471 -0.03251278 0.12594223
-0.22038005 -0.09177445 -0.15893553 -0.18228103 -0.10891288 -0.19980659 -0.210279 0.068705425
-0.033874962 0.0036176648 -0.225729 0.023784475 -0.19390199 -0.14660458 -0.15712449 0.10081641
-0.120143235 -0.056862846 -0.20759392 0.1538799 -0.16395442 0.02326385 -0.10889423 0.21512872
-0.19095299 -0.089831606 -0.043236807 0.10696423 -0.045605723 -0.07185259 0.029395282 0.2305982
0.020906314 0.014359888 0.015741106 0.21709219 0.23151207 0.20494722 -0.005326298 -0.016263902
0.008604779 0.011592034 0.20971395 -0.18810739 -0.0072939284 -0.11015544 0.13987477 -0.07535754
0.15229817 -0.106950566 -0.10726557 -0.03861801 -0.17090136 0.018734282 0.19022012 -0.13355412
0.14518097 -0.041798584 -0.2255213 -0.00044715943 0.1387021 -0.05604322 0.2075869 0.19141485
0.17077164 -0.12862055 -0.0149096 -0.15685248 -0.11438237 -0.022622606 -0.119318426 -0.17603208
0.18339156 0.04233057 -0.18609752 0.111129045 0.15572485 0.07840206 -0.15253583 -0.15210827
0.04810376 0.24514912 0.08320119 0.05284728 -0.2305304 -0.01846579 -0.2305913 -0.16745862
-0.2138451 -0.21856296 -0.12379338 -0.22180343 -0.099225275 -0.002631047 -0.06013956 0.025008153
0.24959779 0.064657144 0.062198102 -0.19672194 0.050998606 0.08768423 -0.23601782 -0.1385746
-0.2465633 0.056082238 0.14666194 0.2358598 0.08586436 0.18504141 0.10860918 0.18752575
-0.17486875 -0.18858324 0.06291768 -0.16546224 -0.08968835 -0.17721747 -0.02876533 -0.04652636
0.14831492 0.058122497 -0.022142665 0.007903615 0.1901398 -0.20033388 -0.20093371 -0.091300614
-0.23374791 0.01220509 -0.11004611 -0.24538685 -0.010612946 0.08977247 0.08211952 -0.03919029
-0.12270496 0.23677622 0.1929293 -0.21092254 -0.22955914 0.24138568 0.12174766 -0.12602541
-0.1780571 -0.103564106 0.23846003 0.12110154 -0.08545375 -0.06605697 0.06293977 -0.016592532
0.036601275 -0.098533854 -0.03474427 -0.16260676 0.083363816 0.24135704 0.1570106 0.13142194
-0.04666206 -0.018935699 0.060661342 -0.20340367 -0.20535529 -0.023642212 -0.07260984 -0.01180766
-0.15918559 -0.09702319 0.19259074 0.20875181 0.24383359 0.12504081 0.027715009 0.14118604
-0.069524705 0.190765 0.17714643 0.024640163 -0.16545188 0.14072324 -0.16952308 -0.21006392
-0.13814814 0.072563075 -0.22943804 -0.18348694 -0.114323884 -0.24931994 0.18642357 0.013401247
-0.15314375 0.1887203 0.10538905 -0.034280784 -0.22620927 -0.1143528 0.16479078 -0.11009604

fc2.bias f4 [16]
00000000: b998 1d3d a26b d93d 2306 3b3e fb4d 633e
00000010: 93a8 703d 672d 6f3e 9bfa 27be 724f a23c
00000020: da5e dc3d 8210 03be 9249 0a3e 3f87 2bbe
00000030: 6f07 f8bd 9d16 1bbe 1f1d 923d adf4 edbd
0.038475726 0.106162325 0.1826406 0.22197716 0.058754515 0.23357163 -0.16404192 0.019813273
0.10760279 -0.12799266 0.13504627 -0.16750811 -0.12110793 -0.15145345 0.07134461 -0.11618934

fc3.weight f4 [16, 16]
00000000: c714 5f3e cd60 5e3e 6df8 4e3d 41e6 3b3e
00000010: 1948 c7bd 3db7 043e b87e c4bc aba9 3dbc
00000020: 6ae1 88bd d77a 74bc 2db6 8abd cb72 b0bc
00000030: 3eb7 253d b506 77be a163 06be b4f6 0b3e
00000040: 4589 0a3e 07ed 23be 38cf 03be 7dc6 3bbe
00000050: 19de 22be ca14 2dbe f7ae b8bd 8229 23bb
00000060: ea4c 07be c761 173d 0285 7a3e d4cb 3ebe
00000070: a4b6 1b3e 05d6 583e 659d 59be b731 693e
00000080: 636c 723e 7c5e 083c b76b cfbd 861c 543e
00000090: 68c6 163b 6805 f93d e61a 2ebe 90d7 aebd
000000a0: 1550 f3bb f86f 20be 7bd5 75bd a760 3e3e
000000b0: 2729 7f3d 9c04 833d 4258 edbd 99ae d1bd
000000c0: 4d45 e9bb d5bb 363e 814a c73d 0344 b7bd
000000d0: 4b2a 213d 2c39 9abb 7418 b3bc e17d 893d
000000e0: b9cf 473e f8c4 1abe a974 2e3e 560a 3fbe
000000f0: 60f1 a1bc 9d91 d53d b01c 7fbe 8958 49be
00000100: 8c4c 8f3d e114 32be f594 623e c181 8abd
00000110: dd92 593d ef12 b6bd bc3b 393e 45a5 363e
00000120: 4f35 35be 7d29 3c3e 7249 6dbe 111a 723d
00000130: 91cc 803d c2d1 f53d cbeb b93c f126 543d
00000140: ac1b 3f3e e73c 03be 6d78 1cbe e7e9 773e
00000150: 57b8 623e f70e 703e b8b3 f53d 3a87 f6bc
00000160: 9717 013e 084f 413d bace 0fbe 792a 2abe
00000170: f421 283d 4583 b9bd 82b0 14bd 6f68 7bbe
00000180: 047c 9e3d d271 e33d 33cc 69be fa8c e8bd
00000190: 5bc2 73be a272 6c3d 56ad c3bc 709d edbd
000001a0: 87dd 3e3e 3a01 ce3d ec06 843d 2745 57be
000001b0: c9a2 9abd dfd3 71bd 5398 ae3c 8bee 523e
000001c0: 3610 1ebe 771a 36bd 76e4 d1bb 4da4 d4bd
000001d0: cfba 7fbe d633 6d3e c7be 733e 8cc4 60be
000001e0: 8e9c 0c3e c76e 10be c5ca ce3d b417 903c
000001f0: 8b0f 113e 3a75 163d fbe8 fd3c c44b dfbd
00000200: afe1 22bd 70ce e13c 2222 68be cc5a a13c
00000210: a046 1abe a9e6 6fbe 2e06 b53d 1d74 4ebe
00000220: 2a80 1f3e dc6a 333e 185e 94bd 2770 6a3d
00000230: a184 14be 37d4 023e d1f5 4f3e 280a 6a3e
00000240: 38b6 553e e973 f53b 9d4d 6ebe 8556 ff3d
00000250: 2259 273b bafd c13d a76d 5c3e 0e45 a2bd
00000260: eff2 c23d 423c 813d 0760 5fbd 1b9f aa3c
00000270: 2859 d9bc 7423 353e 391d c9bc 0751 a8bc
00000280: db2f 503e b333 46bd 628a a93c 7c5b 5e3e
00000290: ac69 0dbe 1a67 1d3e e455 4abe fcf0 423e
000002a0: 6c1a 92bb 5636 8abd 5540 5bbe b383 4bbe
000002b0: b2c4 80bd 87fd 253d 1f74 4a3e c949 a63d
000002c0: ecaf 6bbe 585e 14bd 6798 153e 1dd4 4abe
000002d0: 7612 6abe a641 3c3e 1d40 213e 5265 4dbe
000002e0: fac2 c9bd 3bde 5a3e 1508 8f3d 4fc1 b93d
000002f0: e3d4 2b3e 73ac e4bc 6764 72be 3745 57bb
00000300: 1d9f 05be fe22 5fbe d6e5 7dbe 5563 b0bc
00000310: 6b44 24be 9769 81bd 0179 a63b 2dd7 6dbe
00000320: 39e1 cbbd ab72 9a3d d063 6b3e 7f67 533e
00000330: ea40 423e bff3 d83d eb5f 41be 793d adbd
00000340: f378 af3d a392 0dbe d02b 6e3e 7d4c 3abe
00000350: b428 1d3d 5ffb d03b 9aab 843d b11e b13d
00000360: 4063 a63d 414c 06be ccb1 27be fb29 3cbc
00000370: 5e4e 3c3e ca82 b23d ce3e 9abd 5168 473e
00000380: dad1 fa3c 3904 443e f0fc b5bd 4466 86bd
00000390: dec8 1f3d 2956 5abe 8bf3 05be 25f0 523e
000003a0: 7ce0 943d a07b 593e a982 10bd 00e4 49be
000003b0: 20c5 4d3e 572a 023e f748 70be 9e75 05be
000003c0: bb8f 42be 7667 643e 9f71 6abe 9fa0 27bd
000003d0: f648 9abd f30b e93d 3336 3d3e 0f4f a03d
000003e0: 0c38 16be 3c29 17be 934d 52be e6df 9a3c
000003f0: 7b19 34bc 09fe 13be c245 0d3e 14d9 01be
0.2178527 0.21716614 0.050529886 0.18349554 -0.097305484 0.12960525 -0.023986205 -0.0115760965
-0.06683619 -0.014921865 -0.067730285 -0.021539113 0.040457956 -0.24123652 -0.13123943 0.13668329
0.13528927 -0.16008388 -0.12872016 -0.18337436 -0.15905036 -0.16902462 -0.09017747 -0.0024896567
-0.13212934 0.036958482 0.24464801 -0.18632442 0.1520639 0.21175392 -0.21251447 0.22772871
0.23674159 0.008323308 -0.10127967 0.20714006 0.0023006443 0.12159234 -0.17002448 -0.08537209
-0.007425318 -0.15667713 -0.060018044 0.18591557 0.062295105 0.063973635 -0.115890995 -0.1023838
-0.007118857 0.1784509 0.09731007 -0.08948519 0.039346974 -0.0047065224 -0.021862246 0.067134626
0.19512834 -0.151142 0.1703669 -0.18656287 -0.019768417 0.10428164 -0.24913287 -0.1966268
0.06997022 -0.17390777 0.22127135 -0.0676303 0.053118575 -0.0889033 0.18089193 0.17836483
-0.17696117 0.18375202 -0.23172548 0.05910689 0.06289018 0.12002899 0.022695443 0.05179495
0.186629 -0.12816201 -0.15280314 0.2421032 0.22140633 0.23443209 0.11997169 -0.030093778
0.12606655 0.04719451 -0.14043704 -0.16617765 0.041048005 -0.09058241 -0.036301143 -0.24551557
0.07738498 0.11105694 -0.22831802 -0.11355014 -0.2380461 0.05772651 -0.023886364 -0.116022944
0.18639193 0.10058828 0.06446633 -0.21022473 -0.0755058 -0.059039947 0.021312868 0.2059881
-0.15435871 -0.044458833 -0.0064054085 -0.103829004 -0.24973606 0.23164305 0.23803245 -0.21949977
0.13731596 -0.14104758 0.10097269 0.017589428 0.14166085 0.03673289 0.030994883 -0.10903123
-0.03976601 0.027564257 -0.2266927 0.019696616 -0.15066004 -0.23427834 0.08839069 -0.20161481
0.15576234 0.17521232 -0.072445095 0.057235863 -0.14503719 0.12776266 0.20308615 0.22855437
0.20870292 0.007490624 -0.23271795 0.12467674 0.0025535305 0.094722226 0.21526204 -0.079233274
0.09518992 0.063103214 -0.05453494 0.02082782 -0.02653177 0.17689306 -0.024550067 -0.02054645
0.20330755 -0.048389148 0.020695869 0.21714586 -0.13809842 0.15371361 -0.19759327 0.1903724
-0.004458716 -0.06748645 -0.2141126 -0.19874458 -0.06287517 0.040524986 0.19770859 0.08119542
-0.23016328 -0.036222786 0.14608918 -0.19807477 -0.22858605 0.18384418 0.15747114 -0.20058182
-0.09851642 0.21373837 0.069839634 0.09070074 0.16780429 -0.027914261 -0.23671113 -0.0032847652
-0.13048978 -0.21790692 -0.24794707 -0.02153174 -0.16041724 -0.06318968 0.0050803428 -0.23226614
-0.09955067 0.075414024 0.22987294 0.2064495 0.18970075 0.10593366 -0.18884246 -0.084589906
0.08567991 -0.13825469 0.232589 -0.1819324 0.038368896 0.006377622 0.06478043 0.08648432
0.08124399 -0.13115026 -0.16376418 -0.011484618 0.1838927 0.08716352 -0.0753151 0.19473387
0.030617643 0.19142236 -0.088861346 -0.06562474 0.03900992 -0.2132193 -0.13081186 0.2059942
0.072693795 0.21238565 -0.035280857 -0.19715881 0.20094728 0.12711464 -0.23465334 -0.13033149
-0.19000141 0.22305092 -0.22894906 -0.040924665 -0.075334474 0.11379232 0.18477707 0.07827579
-0.14669818 -0.14761823 -0.20537405 0.018905591 -0.010992403 -0.14452375 0.13796142 -0.12680465

fc3.bias f4 [16]
00000000: 5747 03be ba58 6dbe 2104 d53b 0af1 f63c
00000010: 80a4 153e 247f 783d 71ca 00bd eea2 b0bd
00000020: 334d 573c a764 18be 4d67 cc3b 036e 983d
00000030: d79f e2bd ba7b 993d d6d8 c83c f1f8 b9bc
-0.12820183 -0.23178378 0.0065007363 0.030144233 0.14613533 0.060668126 -0.031443063 -0.08624826
0.013140964 -0.14882146 0.0062379004 0.07442858 -0.11065643 0.07494302 0.024517458 -0.022701712

fc4.weight f4 [16, 16]
00000000: ef3a 4fbe a020 c43d 1d24 693e 89c9 1b3d
00000010: 219b cbbc 766d 1fbe b68c 2abc a68e 593e
00000020: 949a 49be 04ac 36be b540 553e 78cb b4bd
00000030: 1c6c 443e ebd7 11be b45b b63d 5fc2 7dbe
00000040: 2100 16be 3381 a5bd 7a67 fe3d cd64 1a3d
00000050: e613 6e3e 1e2f 293e 6f85 593e ba80 39be
00000060: 5421 603e f2ec 293d d372 0cbe e613 15be
00000070: f285 093e dc24 2ebe 6363 b43d 948a 783e
00000080: 06df 95bd 118c 0d3e 1f90 39be 7c88 22be
00000090: 346e e23d 3bfa 00bd a82f b1bd 8629 223d
000000a0: 4549 09be 568b 37be 36e5 ad3c 9663 92bd
000000b0: fdf1 2c3e e5ed 633d 1414 d6bd a893 0bbd
000000c0: c919 a0bd d7a2 793e b792 093e a276 98bd
000000d0: 62cb 42be ee74 5fbe 6951 49be 879b 1b3d
000000e0: 879e e6bd 9c79 443e 2b89 e7bd 43da d33d
000000f0: 144e be3d 83ac 623e 49e8 7e3e 4593 6dbe
00000100: 36fc 40be 58d6 1d3e 40cb 213e 855d f2bc
00000110: a71e be3b 33b7 28be c65a e7bc 2e34 51bd
00000120: 54ee 02be 18da 4cbe 16a1 2a3d 3dbf 333d
00000130: 2a31 6abe 3e3b 973d 007b 693e de39 a9bd
00000140: 37b5 1a3e a8e7 473e e0ae 56be e8a8 afbd
00000150: 8683 a43d aced 3fbd e09e 223e ad94 6f3e
00000160: fbcd 2f3e 31a3 d2bd 0b34 563e 7c3e 0abd
00000170: f3ba 22be ccf6 a73d a81e e53b 8d92 ea3c
00000180: 8baa 1d3e 4194 3cbd c95f 003d 0d52 5bbe
00000190: 3dda 483e ffaf 2a3e 20da 19bd 16f5 6cbe
000001a0: d7b3 7fbe 8ce7 81bc 9887 55be 3827 273e
000001b0: 4612 53be 3e1c 29be 9807 ccbd 8930 6ebe
000001c0: 655a 88bd 818e 84bc 2937 3d3d 4641 b23d
000001d0: 0d96 063c ba1f ea3d 18a3 0f3e 03f3 20be
000001e0: e484 8c3d 3775 2b3e da41 a73c 2b6e 8dbd
000001f0: 4c66 003e 10c8 dfbd 5a0e 7f3e d6ca 68be
00000200: 5a88 7ebe 08e7 c7bd f749 543e 3d34 7bbe
00000210: 4114 363d 0535 e6bd 7fd6 4a3e 9156 ac3d
00000220: 7513 533e dc0a 87bd 842b 893d bb3d 23bd
00000230: 939b 503e 4de6 27be 525d 3dbd 6f90 e8bc
00000240: 5cde 583e b427 35bd 98a3 fbbd 3d92 083b
00000250: c905 c9bd 7b1d e5bd 2e5a d6bc 61a9 0bbd
00000260: 06d9 003e 0b36 5fbe 0893 6abe 4be6 04be
00000270: c0a9 6fbe f0da 6d3e b1a4 febd eece 0cbd
00000280: 3343 f43c 3a98 39bd 9020 f3bc bd08 93bd
00000290: 20f2 d73d 8d3a 28bd 07db fb3d 1dc0 65bd
000002a0: f034 f7bd 0ecc adbb cdfa 71be 10fa 4abe
000002b0: 07ec 343e 7edc f13a bee5 303e 92ab 633e
000002c0: 1531 563e bbf8 903c 9e9b 72bd 895f 363d
000002d0: ab46 3bbe 757c 2cbe 02eb 293d 9f41 483d
000002e0: 65f6 ffbc d3b9 c0bd f10c 573d 9491 c53d
000002f0: a518 143e 03eb fa3d 498d 6dbe cbde 4bbe
00000300: 9644 ee3d ab37 31ba 1b26 c1bd ff57 7c3e
00000310: 90cb 853d a26d dd3c 8b6d 18be 1209 543e
00000320: 9bec 343e 275c a8bc 1154 753c 6ec6 5fbe
00000330: f94f 4e3e 87e0 b5bd 2b51 51bd 4709 393d
00000340: 2b21 2b3e 3dda b63d 8a75 5c3e 89e9 3e3e
00000350: 8cc1 4d3e a142 1c3e 4840 46be fbbb 4cbe
00000360: ca23 17be 8062 0c3e 3a8e 8a3d baeb 42be
00000370: 40de d9bd 064f b8bd af44 f0bd 0a5d 563e
00000380: 100c 773e c578 02be dc42 533e 838a 6e3e
00000390: 2578 4e3e 55ad 143d eceb c1bd d931 27be
000003a0: af97 21bd 5d0a 79bd 047b 1b3e f1d5 ecbd
000003b0: 37ff c2bd bcf8 7bbe 5835 ad3d 9322 373e
000003c0: f15f 503e 3419 af3d f615 70be c9b1 043e
000003d0: 28d7 33be f212 c43d 9027 4d3d ee42 43be
000003e0: d19f e23d 7512 5a3d 1f7a eebd a82f ee3d
000003f0: 92e3 66be 4027 80bc 8e2d 363e 1ff4 c43c
-0.20237325 0.09576535 0.22767682 0.038033996 -0.024854245 -0.155691 -0.010409525 0.21245822
-0.19687873 -0.17839056 0.20825465 -0.08827871 0.19181865 -0.14242522 0.0890421 -0.24781178
-0.14648487 -0.080812834 0.1242208 0.037693787 0.23249778 0.1652188 0.21242307 -0.18115512
0.21887714 0.041485734 -0.13715677 -0.14558372 0.13430002 -0.17006248 0.08808019 0.24271613
-0.07317929 0.13822962 -0.18121384 -0.15872377 0.11056176 -0.03148864 -0.08651668 0.03959038
-0.13406856 -0.17924246 0.02122746 -0.07147901 0.16889186 0.055646796 -0.10453048 -0.034076363
-0.07817418 0.24378525 0.13434874 -0.074445024 -0.19022897 -0.21821949 -0.19659962 0.03799012
-0.112607054 0.19187015 -0.113054596 0.103443645 0.09292236 0.2213612 0.24893297 -0.2320071
-0.18846211 0.15413797 0.1580019 -0.02958561 0.005801994 -0.16476135 -0.028241526 -0.051075153
-0.12786227 -0.20005071 0.04165753 0.04388355 -0.22870317 0.073843464 0.22800827 -0.082629904
0.1510819 0.19521964 -0.20965147 -0.08577138 0.080328986 -0.04685752 0.15880919 0.23396559
0.17168419 -0.102850325 0.2091829 -0.033750996 -0.15891628 0.0820137 0.00699218 0.028634334
0.15397088 -0.046039823 0.031341348 -0.21418019 0.19614501 0.166687 -0.037561536 -0.23140368
-0.24970947 -0.01585748 -0.20852506 0.16323555 -0.2061244 -0.1651468 -0.09962386 -0.23260702
-0.066578664 -0.016181232 0.046195183 0.08703856 0.008214486 0.114318326 0.14027059 -0.15717702
0.068612844 0.16743933 0.020417143 -0.069057785 0.12539023 -0.10926831 0.24907818 -0.22733626
-0.24856701 -0.097608626 0.2073134 -0.24531646 0.04445291 -0.112405814 0.19808386 0.08414949
0.20612891 -0.06593868 0.06697753 -0.039853793 0.20371847 -0.16396447 -0.046231575 -0.028389184
0.21178573 -0.044227317 -0.122870624 0.0020839118 -0.098155566 -0.111872636 -0.026166048 -0.03409708
0.12582788 -0.2179796 -0.2290765 -0.12978475 -0.23404598 0.2322805 -0.12433756 -0.03437703
0.0298172 -0.04531119 -0.029678613 -0.07179401 0.105442286 -0.041071463 0.122976355 -0.056091417
-0.12070644 -0.005303866 -0.23630829 -0.19821954 0.17668162 0.0018452553 0.1727514 0.22233418
0.20917161 0.017696729 -0.05923044 0.044524703 -0.18288676 -0.16844352 0.041483887 0.048890706
-0.03124542 -0.09410443 0.052502576 0.096469074 0.14462526 0.12251856 -0.23198427 -0.19909208
0.116341755 -0.00067603093 -0.09431096 0.24642943 0.06532967 0.027029816 -0.14885537 0.20706585
0.17668383 -0.020551754 0.014973656 -0.21853039 0.20147695 -0.08880716 -0.0511028 0.045174863
0.16711871 0.089283444 0.21529213 0.18643774 0.20093364 0.15259792 -0.19360459 -0.19993584
-0.14759746 0.1370945 0.06765409 -0.19035235 -0.10638094 -0.089994475 -0.1173185 0.20933929
0.24125695 -0.12741382 0.20630974 0.23295026 0.20163019 0.036298115 -0.09468827 -0.16327609
-0.039451297 -0.0608009 0.15183645 -0.115642436 -0.095213346 -0.24606603 0.0845744 0.17884283
0.20349099 0.08549729 -0.23445877 0.12958445 -0.17562544 0.09573926 0.050086558 -0.190685
0.11065639 0.05324026 -0.116443865 0.116301835 -0.22547749 -0.015643716 0.17790815 0.024042187

fc4.bias f4 [16]
00000000: acf4 2c3d 2564 aa3c b4fb 87bd 0a60 e3bd
00000010: 983c 0ebe ce80 8c3d 319a 0bbc f760 233e
00000020: 8715 edbd 2cee 2b3e 740f 50be 7c31 253e
00000030: 81ad 7bbe 3d45 a7bc 0f4c 33be bc24 0d3e
0.042225525 0.020799706 -0.066398054 -0.11102302 -0.13890302 0.06860505 -0.008520649 0.15954958
-0.11576372 0.16790074 -0.20318395 0.16132158 -0.24577905 -0.020418758 -0.17509483 0.13783544

fc5.weight f4 [16, 16]
00000000: 9243 3a3e ab08 03be b8be 143e 1a0f 55be
00000010: 6bcd 8f3b 6e17 013e 5ef0 babc e6c1 1abe
00000020: d05b 16be 3a51 5cbe e37e 1b3e 3e52 78be
00000030: d346 083e 38b5 b3bc a8f0 b4bd ef3a ca3c
00000040: affa 033e dfda ccbd 040c 3ebe b6b1 4e3e
00000050: 0d5f 37bd c018 65be b42e f83b 8747 79be
00000060: 5f17 5f3e 1f7c 373e 6611 15be cce7 a5bd
00000070: 4140 e63c 316f 31be f3ee a2bd 8e61 7b3c
00000080: af99 34be 7f14 773d 654c 5d3e 0e57 f33d
00000090: 8f92 3dbe 74f7 263e 9b17 733e 2563 fb3d
000000a0: e4e0 383e bea0 213e 9654 9d3d fafc 56be
000000b0: e73e 67be 649b 2b3e 3304 42be 46bf 6b3d
000000c0: 7df1 09be f495 64be df10 4f3e aa15 753e
000000d0: 7ac3 3e3e e6e5 2c3e 71d1 a0bd a41f 633e
000000e0: d26d 3dbe bc3b 2f3e ebb1 f3bd 9558 9cbc
000000f0: c2a0 1c3e 1f48 3c3e b164 183e 6020 093e
00000100: 9a03 ebbb fa4f 8f3d bb2d 253e 79f0 133d
00000110: cc7a bdbd 4af1 063e 68d0 7b3e f0bb 643e
00000120: a36c 3a3e bb50 f0bd 4bf5 31be 0451 79be
00000130: 7f0f 01be f124 22be fa6c 263e 42bd 4b3e
00000140: b471 a03d 2785 0d3d ac13 dd3d 3ac7 5bbd
00000150: 4544 97bb f82c 1c3c b5e4 b7bd c395 313e
00000160: f294 a03d 7ea4 3e3e 2ab5 30be e834 6b3b
00000170: 63c7 4c3e 03f0 1b3d 0abd 19be 8057 86bd
00000180: cd96 18be 5afc aabc c4b4 adbd fb16 623e
00000190: 298c 04be 0d25 1cbd 3e55 41be 36a9 d13c
000001a0: a829 55be fe62 63be fd3f 2e3d 649c a1bd
000001b0: 67dd 31be a91f bfbd c1b1 1d3e 6c3e 2d3e
000001c0: 271b 053e 0e11 bbbd 13ee f93d 2dc9 74be
000001d0: 50d5 44be fd6f 633e 7c7c 173d e115 57be
000001e0: 693c 613e 02e3 13be 438e 9b3d 264b 133e
000001f0: 55ac 2b3e 8041 22be 1def 49be e438 083d
00000200: c882 5abe b56c 68bd 87de 57be 08ef b8bd
00000210: 33c9 063e 4176 0d3e 2dfc 29be f828 f3bd
00000220: 3408 f0bd 199e 5cbd f13d 883d 5312 f43d
00000230: f6fd 44be 8432 35be b12b 5a3e 4e4f dfbd
00000240: 204b e8bd 426e 403d 4d32 78be d714 613e
00000250: eac4 17be 79d3 433e 328a 59be 454c 6a3e
00000260: 8564 47be c5ea 25be e4bc 843d 4bbb 93bd
00000270: 688e ca3d 6a6d 30be 0522 89bd 4d56 41be
00000280: a6c6 5e3e d8b5 bb3c ed45 573e ded3 133e
00000290: 56ad c5bc 7ce2 0a3e 216f 393e 0b3a 353e
000002a0: 4642 353e fded c73d 0980 3fbe 3913 0d3e
000002b0: 76b8 fc3d 8fc4 f7bd b487 96bc 3b03 60be
000002c0: ddca 253e ced6 493e 7f88 873d 535a edbd
000002d0: 28f9 59bd 3427 713e 1c82 d83c 85c6 a33d
000002e0: 277d 823d c4cf 093e aaeb b63d 06d2 ce3d
000002f0: db78 98bd 3a23 dfbd 3d63 71be e752 61be
00000300: 031b 603e 36ef 90bd 04b9 f23d 2109 6ebe
00000310: c09d 17be c81f 49be ea6b 603e 94de 6dbe
00000320: d2d1 203e 5e82 40be 49f1 b3bd b03a 333e
00000330: 193f 66bc e5ae cfbd 8d22 683d 1a8b 02be
00000340: 4f3b d8bd 53c6 1cbe 4028 713e 29f7 5abe
00000350: 4708 863d 904e 6c3e 8c9c 49be ed09 9ebd
00000360: 6b51 5bbe 4ed7 b7bc c2c1 663e c6ca 56bd
00000370: 9213 3dbe 7e78 1ebe 9836 11bd 19ab 02be
00000380: 59c2 69ba f67c 2ebe 8643 ad3d 3dc2 76bd
00000390: de52 7a3e eeaf b2bd 1b4e 103e f21a 033e
000003a0: 3400 163e efeb cfbd cd74 31be 6bb6 71bd
000003b0: 335e 22be 292b 0fbe 6d6e c13d 3c41 253d
000003c0: 6daf 533e 418f 3bbe 62dc 06be 19f6 08be
000003d0: a73f 11bd 0cd8 9f3c 8b55 66be 53c8 1d3e
000003e0: 4bc2 d43d a1e0 72be f20e 7abe 8ecb 0dbe
000003f0: 8ef0 c93d 55b8 08be 496d 03be 7d44 28bd
0.18189839 -0.12796275 0.14525878 -0.20806542 0.0043885014 0.12606594 -0.022819694 -0.15113029
-0.14683461 -0.2151536 0.15185122 -0.24250123 0.13308267 -0.021936998 -0.08834964 0.024686305
0.12888597 -0.10002684 -0.18559271 0.20184979 -0.044768382 -0.22372723 0.007573927 -0.24343692
0.21786259 0.17918442 -0.14557418 -0.08100852 0.02810681 -0.17327572 -0.07955732 0.015343083
-0.1763675 0.06032228 0.21611173 0.11881839 -0.18512939 0.16305333 0.23739474 0.1227477
0.18054539 0.15783975 0.07682149 -0.2099494 -0.22582589 0.16758496 -0.18946914 0.05755546
-0.13471027 -0.22322828 0.2022128 0.23934045 0.18629256 0.16884574 -0.07852448 0.22180039
-0.18498924 0.1711263 -0.118991695 -0.019085208 0.15295699 0.18386887 0.1488216 0.13391256
-0.00717206 0.06997676 0.16130726 0.036118004 -0.09251937 0.13177982 0.2459122 0.22337317
0.18205504 -0.11734148 -0.17378728 -0.24347311 -0.12603568 -0.15834405 0.16252509 0.19896415
0.07834187 0.034550812 0.10794768 -0.053656794 -0.0046162927 0.009532206 -0.08979169 0.17342286
0.07840909 0.18617436 -0.17256609 0.003588969 0.19997935 0.03807069 -0.15013519 -0.06559658
-0.14901276 -0.020872284 -0.08481744 0.22079079 -0.12944092 -0.038121272 -0.18880174 0.025593381
-0.20816672 -0.22205731 0.042541493 -0.07891157 -0.17369615 -0.093322106 0.15399839 0.16918343
0.12998639 -0.09134112 0.12203612 -0.23904867 -0.19221997 0.22210689 0.036983952 -0.2100444
0.21995701 -0.14442065 0.07595494 0.14384136 0.16764958 -0.15845299 -0.1972012 0.03325738
-0.21338952 -0.056744296 -0.21080981 -0.090299666 0.13162689 0.13814642 -0.16600104 -0.118730485
-0.117203146 -0.05386171 0.066524394 0.119175576 -0.19237503 -0.17695051 0.2130573 -0.10903798
-0.11342454 0.04698015 -0.24237938 0.21980606 -0.1482121 0.19123639 -0.21244124 0.22880657
-0.19471939 -0.16202839 0.064813405 -0.07213458 0.09890443 -0.17229238 -0.06695942 -0.18880577
0.21755466 0.022913858 0.21022768 0.1443629 -0.024130505 0.1356296 0.18108799 0.17697923
0.17701063 0.097621895 -0.18701185 0.13776864 0.12339871 -0.120980375 -0.018375255 -0.21876232
0.16190667 0.19710848 0.066178314 -0.115894936 -0.05321613 0.23550111 0.026429228 0.07996849
0.06371527 0.13458163 0.08931668 0.100986525 -0.07444926 -0.10895391 -0.23573013 -0.22004281
0.21885304 -0.07076876 0.11851695 -0.2324567 -0.1480627 -0.1964103 0.21916166 -0.23229438
0.1570504 -0.18799731 -0.08786256 0.17502856 -0.01405313 -0.1014078 0.056673575 -0.12748376
-0.10558187 -0.1531003 0.2355051 -0.21383347 0.065445475 0.23076844 -0.19688624 -0.07716737
-0.21417777 -0.022441532 0.2253485 -0.052439474 -0.18464497 -0.15475652 -0.035452455 -0.12760581
-0.00089172047 -0.17039856 0.08460145 -0.060243834 0.24445674 -0.08724962 0.14092295 0.12803248
0.14648515 -0.10152423 -0.17329712 -0.059011858 -0.15856247 -0.13981308 0.0944489 0.040345415
0.20672388 -0.18316366 -0.13170007 -0.13375129 -0.035461094 0.019512199 -0.2249357 0.15408449
0.10388621 -0.23718502 -0.24419764 -0.13847181 0.09860335 -0.13351567 -0.12834658 -0.04108094

fc5.bias f4 [16]
00000000: a112 3c3e 40ce b2bd 905a febd 9356 9d3d
00000010: 1d67 453d dbd6 11bd 1ac4 e73d a15c c23d
00000020: e21d 57be 9ac5 fbbd 6c87 283d 8ab0 553e
00000030: 7e62 58bd 02a8 3d3e 16c0 d43c 2a80 ae3d
0.18366481 -0.08730745 -0.12419617 0.07682528 0.04819404 -0.035605293 0.113167 0.09490324
-0.21007493 -0.12293549 0.041144773 0.20868126 -0.052828304 0.18521121 0.0259705 0.08520539

fc6.weight f4 [16, 16]
00000000: b6f6 f0bd 7d77 583e b2e3 b1bd b9f1 373e
00000010: 6789 66be 24eb 3abe 57ad 32be 983a 01be
00000020: 3614 d63c 8eb2 db3d 8e6b 1bbd 8e22 74be
00000030: d2c7 7e3e 04c3 733e 58b1 f3bd 2eb4 21bd
00000040: b338 50bc af4a 46be efbc 593e c250 a2bd
00000050: aa7e 293e 38f0 603d 1289 d83d 694b 6dbb
00000060: 1ad5 8ebd 47a3 85bd fc78 b0bd 0af5 7abe
00000070: 0926 bcbd 3cb3 bdbd 340c 4c3e a9c6 bc3d
00000080: a462 283e e339 06be 81fb 1dbe cb62 4cbe
00000090: a55b 173e ddd8 473b 8d53 4abe f320 b63d
000000a0: 83c8 85bd 1031 3dbd 5469 51be 3c06 023e
000000b0: 971d 50be 18f2 213e 77c3 39bd a473 e6bc
000000c0: 525b 63bd 63ae 213e 64ca 72bd a143 073d
000000d0: 9402 e4bd 16d1 d7bd e811 6f3e 28cf 133e
000000e0: 0547 40bd 201a 073e 7fdb 29be 107b d63d
000000f0: 9392 26be 5abf 353e 8b90 73bd 1795 733e
00000100: 3df0 bdbd 8f9e c0bc de62 2e3e d627 8f3d
00000110: c409 4dbe 5c00 75be 168e c43d 459d 24be
00000120: 17c3 c83d 6200 593e 89c4 0dbe 7769 3fbe
00000130: ada2 3cbd 6568 3b3e 731b c73b ceb2 c73d
00000140: 4e1f 1d3e 43bf c2bd 94ed 383e e6be 263d
00000150: 5807 123e 711f 3fbe b744 723d 0eb2 833c
00000160: 8249 b13d c8ae 5ebe fe08 4cbe b46b 33be
00000170: 5fa2 97bc 56a6 7e3e 06dd 32bd b013 1b3e
00000180: 42ea 7abe 76c2 72be e54b 0fbe 4028 5cbd
00000190: 2f05 0e3e 12d6 29be 827b 49bc 2160 f53d
000001a0: c56a 233d 8580 2b3d 257b 53be 79c3 17be
000001b0: 570d 863d fed2 d23c 3d1f b93d 9331 033e
000001c0: 6b50 223e 3c25 883c e0e9 7dbe 9c8a 2bbd
000001d0: 6a9d 743e c831 613e 193c c0bd 3486 303e
000001e0: 4580 55be bc18 b7bc 0efe 1abe efb9 7cbe
000001f0: 3a57 6ebd 3cb4 1ebe 6031 993c a1b6 ce3b
00000200: 6f0f 363e e445 7c3d b565 babd 189d 423d
00000210: e49e 8dbd 542e 02bd 28d4 cc3b 7d9c 9b3d
00000220: 9445 30be c97a b4bd 7d8e 4c3e 31e8 3fbe
00000230: 8654 9d3d 131a 613e 1311 be3d 26bc 5bbe
00000240: 87f6 6a3e 6474 9fbd 1e09 6d3e 4031 c4bd
00000250: 64bf 37be cd19 153e dcad 1cbe b6e4 7ebe
00000260: 70db 78be 5b75 4a3e 539c 5c3e 3fc1 df3d
00000270: 7a27 24be 8228 4b3e e0a9 01be d778 8abd
00000280: 8bf7 04be c2cd 4ebd 59fd 153e 882a 603e
00000290: 9b9e a43d 35c4 13be cb92 42be 667c a63d
000002a0: 33b5 913d 0b2d 093e f4f3 323e a8d9 73be
000002b0: e5c8 213e 28d7 e6bd 0268 37bd c0a2 513e
000002c0: e8b5 7bbe e303 7dbe 73df 4e3e f71a 453e
000002d0: f528 633e e7ab 8e3b c9a1 2abe 1dad 5abe
000002e0: f6e9 363e 5460 c83b eb26 afbd b3d3 cebd
000002f0: 3bb1 0ebe 03c9 7b3e ebd7 37be 51b7 09be
00000300: 508d 5cbe f18f 30be 9080 473e bdb1 7a3d
00000310: 90d6 2abe 69a7 27be bb8d 303d 0d87 4cbe
00000320: 8782 37be 6612 21be d710 353e e198 4d3d
00000330: f8e8 223d 6717 6ebe 41a1 2ebe 4014 7cbe
00000340: d3a0 f9bc 7ff2 0e3e f184 673e eec8 0bbe
00000350: c7af 72be e9fa d63d 56a8 a7bd ec1d 78be
00000360: eea6 e93d 122e 773d 623a 0abe c338 623e
00000370: c796 7bbe c761 45be 5aa9 b0bc 58cd 87bd
00000380: cc33 a43c 5bce bfbd 56b6 113e 3fa1 f2bc
00000390: da09 453d 7103 78be 02cf 043e edcb 093e
000003a0: ae42 933d 102a a53d 27fb 5f3e 54ee 243e
000003b0: abb9 5aba c8f8 75be 1b99 d93c f17c ef3d
000003c0: 0156 4bbe cd4c ac3d 38a6 6fbe a0a4 ddbd
000003d0: 502c 6c3c 25b7 f33b 00f7 4f3e 0b65 a43d
000003e0: ebf8 423d 9487 f6bc a795 a43d 52f3 1d3c
000003f0: 75f1 ee3d 3f4f 533e 3f98 7dbe 4e0b 583e
-0.117658064 0.21139331 -0.086860076 0.17963304 -0.22513352 -0.18253762 -0.17448936 -0.12620008
0.026132684 0.10727416 -0.03794437 -0.23841307 0.24880913 0.23804861 -0.1189906 -0.039478473
-0.012708831 -0.19364427 0.21263479 -0.079255596 0.16552225 0.05491659 0.10573019 -0.0036208278
-0.0697424 -0.06525283 -0.08616826 -0.24507537 -0.09186942 -0.09262702 0.1992653 0.09217579
0.16443878 -0.1310802 -0.15427972 -0.19959562 0.14781053 0.003049425 -0.19758435 0.08893003
-0.06532385 -0.046189368 -0.20450336 0.1269769 -0.20323788 0.15815008 -0.045352425 -0.028131314
-0.05550701 0.1578918 -0.059275046 0.03302348 -0.11133304 -0.10537927 0.23346674 0.14434493
-0.04694273 0.1319356 -0.16587637 0.10472691 -0.16266851 0.17748776 -0.05946402 0.23787342
-0.092743374 -0.023513107 0.17029902 0.0699002 -0.20023257 -0.23925918 0.09597413 -0.16075619
0.098028354 0.21191552 -0.13844503 -0.18692575 -0.046053577 0.18301542 0.0060762702 0.09750901
0.15343973 -0.095091365 0.18059379 0.0407094 0.14260614 -0.18664338 0.059147563 0.016076114
0.08656599 -0.21746361 -0.19925305 -0.17521554 -0.018510042 0.2486814 -0.043667816 0.15144229
-0.24503425 -0.23706993 -0.13993795 -0.053749323 0.13869165 -0.16585568 -0.012297513 0.11981226
0.039896745 0.041870613 -0.20652445 -0.1482066 0.06545513 0.025735375 0.09039161 0.1281188
0.1585099 0.016619317 -0.24796247 -0.041880235 0.23888174 0.21991646 -0.09386463 0.17238694
-0.20849712 -0.022350661 -0.15135977 -0.24680303 -0.058188654 -0.15498441 0.018700302 0.006308392
0.17779325 0.06159009 -0.0910143 0.047513098 -0.069150716 -0.031782463 0.006250877 0.07598207
-0.17214042 -0.08812482 0.1997623 -0.18740918 0.07682137 0.21982603 0.092806004 -0.21458492
0.22945605 -0.077858716 0.23148009 -0.09579706 -0.17944103 0.14560623 -0.15300697 -0.24891934
-0.24302459 0.1977133 0.21544008 0.10925531 -0.16030684 0.19839671 -0.12662458 -0.067613296
-0.12985055 -0.050489195 0.14647426 0.21891224 0.08038064 -0.14430316 -0.1900131 0.08129196
0.07114639 0.13396089 0.17475873 -0.23813498 0.15799291 -0.112715065 -0.044776924 0.2047224
-0.2458111 -0.24708514 0.20202427 0.19248568 0.22183593 0.0043539885 -0.16663279 -0.213551
0.17862687 0.006114999 -0.08552345 -0.10098972 -0.13934796 0.24588399 -0.1795346 -0.13448836
-0.21538281 -0.1724241 0.19482636 0.06120466 -0.16683412 -0.16372456 0.043103915 -0.19973393
-0.17920886 -0.15729675 0.17682205 0.050194625 0.039772958 -0.23251115 -0.17053701 -0.246171
-0.030472195 0.13959692 0.22609307 -0.13650867 -0.23699866 0.10497076 -0.081864044 -0.24230164
0.114087924 0.06034667 -0.13498834 0.22091965 -0.24569236 -0.1927558 -0.021565128 -0.06630963
0.02004423 -0.09365531 0.14229712 -0.029617904 0.0481051 -0.24220063 0.12969592 0.13456698
0.071904525 0.080646634 0.21873151 0.1610654 -0.0008343707 -0.24020684 0.026562264 0.116937526
-0.19857027 0.08413086 -0.23403251 -0.10822415 0.014414862 0.007437604 0.20309067 0.08027085
0.047600668 -0.030093946 0.080363564 0.009640532 0.11667148 0.20635699 -0.24765109 0.21098062

fc6.bias f4 [16]
00000000: d594 253e d7ae 4f3e bc83 13bc 2bf6 0ebd
00000010: 01b5 143e 9b04 e03d 07d4 42be aab6 593e
00000020: 3d0a 8cbd 4bba f4bc 93f6 46be e75a 4abe
00000030: b773 763d e5f1 90bd 5573 3dbe 73b2 163b
0.16170056 0.2028154 -0.009003576 -0.034902733 0.14522173 0.109383784 -0.19026195 0.21261087
-0.0683789 -0.029873988 -0.19429998 -0.19761239 0.060168948 -0.07077388 -0.18501027 0.0022994548

fc_out.weight f4 [1, 16]
00000000: 3ff6 15bd fa63 ebbd 7207 513d a000 3e3e
00000010: e747 73ba bd5e 0e3e c3af b33d 594e 2dbc
00000020: 3cc4 00be fd60 b1bd 62e0 bdbc b3c1 75bd
00000030: 12cc 40be 5cf4 693e 96c6 2dbd fce9 2e3e
-0.03661179 -0.114936784 0.05103249 0.18554926 -0.00092804286 0.13903327 0.08773758 -0.010577762
-0.12574857 -0.08661077 -0.023178283 -0.05999918 -0.18827847 0.22847122 -0.042425714 0.17081445

bn.weight f4 [16]
00000000: 0000 803f 0000 803f 0000 803f 0000 803f
00000010: 0000 803f 0000 803f 0000 803f 0000 803f
00000020: 0000 803f 0000 803f 0000 803f 0000 803f
00000030: 0000 803f 0000 803f 0000 803f 0000 803f
1.0 1.0 1.0 1.0 1.0 1.0 1.0 1.0
1.0 1.0 1.0 1.0 1.0 1.0 1.0 1.0

bn.bias f4 [16]
00000000: 0000 0000 0000 0000 0000 0000 0000 0000
00000010: 0000 0000 0000 0000 0000 0000 0000 0000
00000020: 0000 0000 0000 0000 0000 0000 0000 0000
00000030: 0000 0000 0000 0000 0000 0000 0000 0000
0.0 0.0 0.0 0.0 0.0 0.0 0.0 0.0
0.0 0.0 0.0 0.0 0.0 0.0 0.0 0.0

bn.running_mean f4 [16]
00000000: 0000 0000 0000 0000 0000 0000 0000 0000
00000010: 0000 0000 0000 0000 0000 0000 0000 0000
00000020: 0000 0000 0000 0000 0000 0000 0000 0000
00000030: 0000 0000 0000 0000 0000 0000 0000 0000
0.0 0.0 0.0 0.0 0.0 0.0 0.0 0.0
0.0 0.0 0.0 0.0 0.0 0.0 0.0 0.0

bn.running_var f4 [16]
00000000: 0000 803f 0000 803f 0000 803f 0000 803f
00000010: 0000 803f 0000 803f 0000 803f 0000 803f
00000020: 0000 803f 0000 803f 0000 803f 0000 803f
00000030: 0000 803f 0000 803f 0000 803f 0000 803f
1.0 1.0 1.0 1.0 1.0 1.0 1.0 1.0
1.0 1.0 1.0 1.0 1.0 1.0 1.0 1.0
