self_avoidance_gym/pth/target_actor.pth (torch, 153644 bytes, 57 tensors)

fc1.weight f4 [64, 6]
000000 36 a7 d7 3e 03 14 10 be fa 70 4c 3e 12 c7 47 3c
       0.4211976 -0.14070134 0.19964972 0.012193458
000010 bb e6 6b be 84 ca 10 bd 4b 7a af 3e f7 82 87 be
       -0.23037235 -0.035349384 0.3427299 -0.26467106
000020 b7 a0 9f 3e b3 5f da bd 32 a3 5a 3e 34 e1 1c bc
       0.31177303 -0.106627844 0.21351317 -0.009575177
000030 06 3b 84 be 7c b5 28 bd a7 c0 b2 3e 6c 61 99 3e
       -0.2582628 -0.041188702 0.34912607 0.2995714
000040 ca cc 43 be ab ec 20 3e ef 5b a2 be 63 90 1f 3e
       -0.1912109 0.15715282 -0.31710765 0.15582423
000050 d6 ab c9 bd bf 46 17 be 8b 23 46 3e e7 46 97 3b
       -0.09847228 -0.14773081 0.19349496 0.0046166065
000060 0a c3 c9 3e a7 27 b5 3e 6a fe e2 3d d3 f1 9b be
       0.39406615 0.35381815 0.11083682 -0.30457935
000070 b6 0b 73 be 24 b2 a9 be 4f 0a b2 be ff 75 3e 3d
       -0.23734936 -0.33143723 -0.3477349 0.04649925
000080 8b f3 96 3e f6 e0 e2 bd 88 c3 ac 3b fb e5 c5 be
       0.29482684 -0.11078064 0.0052723326 -0.38652024
000090 56 e4 d9 3e a5 ed 83 be 26 d4 c4 3e 58 87 60 bd
       0.4255702 -0.25767246 0.38443106 -0.054816574
0000a0 e0 f8 9c 3d d8 02 1b bd 03 d1 a5 be 9c 61 b9 be
       0.07664657 -0.03784451 -0.32386026 -0.36207283
0000b0 2f 56 a4 3e 13 c6 87 be 1c 57 94 3e 62 e3 67 bb
       0.32097003 -0.26518306 0.2897271 -0.0035383333
0000c0 bc c7 88 bd e3 a3 ac 3e 0f b9 b1 bd 44 7c 85 be
       -0.06678721 0.33718786 -0.08677875 -0.2607137
0000d0 14 6e 65 be 9a 47 dd 3d 9b 30 10 3e de 1f 64 be
       -0.22405273 0.108046725 0.14081042 -0.22277781
0000e0 cf 4f 9c 3e 4b 1f b5 3e eb 9a 06 be 22 34 f5 bc
       0.3052964 0.35375437 -0.13145034 -0.029932085
0000f0 a8 af 8c be cf c4 95 bc 2c 64 95 be da d9 d3 3e
       -0.27477765 -0.018282322 -0.29177988 0.41377145
000100 df 4e a1 3e 4d 39 86 3e 80 3c a5 be 50 8c f3 bd
       0.31505486 0.26215592 -0.3227272 -0.11891997
000110 79 08 86 3e d4 7f 79 3e 8f 73 bd bd c7 bd c7 3e
       0.2617834 0.24365169 -0.09250557 0.39011976
000120 bf 2f b3 be c3 ca 07 3d 6b 58 8e be da b8 d6 bc
       -0.34997365 0.033152353 -0.27801833 -0.026211191
000130 f7 f9 8d be c8 8c 73 be ba 51 72 be ea 2e 58 3e
       -0.2772977 -0.23784173 -0.23663989 0.21111646
000140 95 6d 82 3e a8 b3 08 3e 36 94 c7 3e 1a cf c1 3c
       0.2547423 0.13349783 0.38980263 0.023658324
000150 d0 19 9b 3e 30 6a b8 be e6 5e 5e be 83 fb 1b be
       0.3029313 -0.36018515 -0.21715888 -0.15232663
000160 df 3c b8 be 73 ea 32 3d db 2e 2c bd 5f 1c 10 3d
       -0.3598394 0.04368062 -0.042036872 0.035183307
000170 63 07 3f be 97 3c 97 be c7 e2 54 3e 46 ed 4c 3e
       -0.18655162 -0.29538414 0.20789634 0.20012388
000180 83 73 53 be 83 53 86 3e 68 de b1 3e ab 2c ac 3e
       -0.20649533 0.2623559 0.34739995 0.3362783
000190 72 ab 62 3e 60 3d 0d 3e 4b 1c 95 be 07 36 92 3e
       0.22135714 0.13792944 -0.29123148 0.28556845
0001a0 5e de f5 bd f2 9b a3 be cb 60 df 3d 0b a0 b0 3e
       -0.12005304 -0.31954914 0.10907134 0.34497103
0001b0 ef ef 7e 3d 2b e4 44 3e d7 a0 bb be 1c b5 33 3e
       0.062240537 0.19227664 -0.3664615 0.17549556
0001c0 86 5a 6d 3e d8 a1 71 3e 4c 95 8f be c6 25 d3 bd
       0.23179063 0.23596895 -0.28043592 -0.10309939
0001d0 2c c3 00 be e2 96 2f 3e 5a 89 4c 3d f7 0c d0 3c
       -0.12574452 0.17147401 0.049935676 0.025396807
0001e0 7e 98 41 be 6b a3 ac 3e 90 01 2d 3c b2 13 90 be
       -0.18905827 0.33718428 0.010559455 -0.28140026
0001f0 ef 5a 7d 3e 07 4c b8 3e f6 98 69 be b7 8a 62 be
       0.2474172 0.35995504 -0.22812256 -0.22123228
000200 c3 9b b1 3e 16 e3 b3 bc 8a 6d 47 be 70 e5 93 bd
       0.3468915 -0.021958869 -0.1947538 -0.07221496
000210 7b bb 98 3d 7e 7c ce 3e 6f 4a 9d 3e df d2 b8 be
       0.07457634 0.40329355 0.3072085 -0.36098382
000220 bf cd 17 be 2c 60 0f be 5e 6f 4e 3d e2 14 75 3e
       -0.1482458 -0.1400153 0.050399177 0.23933747
000230 fc 3c c6 3e 56 ac 41 be 90 52 b1 3e 16 15 e4 3d
       0.38718402 -0.18913397 0.34633303 0.11136834
000240 bf 1e 9c 3e c0 8a 50 3e 4e 84 84 be 97 a4 c5 bb
       0.30492207 0.20365429 -0.2588219 -0.0060315835
000250 cf 87 f5 bd ce 9b cd bc fa 71 d5 bd 6c c7 ba 3e
       -0.11988794 -0.025098708 -0.1042213 0.36480272
000260 84 96 ba bd 2e 6b c6 bc eb ef a3 3e b7 6c 6c be
       -0.0911074 -0.02422103 0.3201898 -0.23088346
000270 0c 6a be 3e 38 e1 9d 3e cb 39 bb be 9f 39 c9 be
       0.37190282 0.3083589 -0.3656753 -0.39301774
000280 9e f4 4c 3e ff 82 3b be 8f f8 21 be b0 fa 89 3e
       0.20015189 -0.1831169 -0.15817474 0.26949072
000290 17 8e 13 be 1b da ca bd 60 ec 21 3d 7c 10 8f 3e
       -0.14409672 -0.099048816 0.039532065 0.27942264
0002a0 46 cc 68 be 08 94 1a be af d6 4b be bf 3e e0 3e
       -0.22734174 -0.15095532 -0.19906114 0.4379787
0002b0 56 40 67 be cc 97 0f 3e bb 93 37 3e 60 00 47 bb
       -0.22583136 0.1402275 0.17927448 -0.0030365214
0002c0 6a a4 53 3e 5a 9b 62 3d 10 69 36 3b aa 77 5e 3e
       0.20668188 0.055323936 0.0027833618 0.21725336
0002d0 8a e3 44 3d af 00 8e bd 5c 27 31 3e d0 fd 8e bd
       0.04806856 -0.06933724 0.1730017 -0.06982005
0002e0 ba 90 5d 3e 8f 1b d9 3b a3 be f4 3d 02 f9 b4 be
       0.2163724 0.0066255997 0.119504236 -0.35346228
0002f0 63 32 a3 be 2b 88 37 3e 97 c7 93 3e 63 48 a1 bd
       -0.3187438 0.17923038 0.28863212 -0.07875135
000300 86 f8 82 be 74 dd 82 3d 9e e1 73 3e e7 9f 31 bd
       -0.25580233 0.06389895 0.23816535 -0.043365385
000310 8e 7e cb be 52 7e d0 3d 7e cd ff bd cc 41 90 bd
       -0.3974499 0.10180344 -0.124903664 -0.070438
000320 5b e0 59 3d 42 6f 82 be ab 9b ab bd b7 25 a7 3e
       0.053192478 -0.25475508 -0.08379301 0.32645962
000330 28 87 a3 be 37 96 85 3e d6 09 78 be b0 7d 18 be
       -0.31939054 0.26091167 -0.24222502 -0.14891696
000340 63 9c 98 3e 07 10 c2 3d 48 a6 0c 3e bf 69 2b bd
       0.29806814 0.09475713 0.13735306 -0.041848894
000350 8c b7 af bd 3e db d7 bc 07 a4 a1 3d eb 6e c5 be
       -0.08579931 -0.02634966 0.07892614 -0.38561186
000360 e7 66 d1 3e 1e ba 25 be 43 4f 35 3e f4 d0 8d bd
       0.4089882 -0.1618428 0.17706017 -0.0692462
000370 bf f9 bb 3d 5b 68 09 bc 6a c8 7a 3e f7 02 ad be
       0.09178495 -0.008386697 0.24490514 -0.33791324
000380 52 6c 58 3e 8c 2b b9 be ab 05 5d 3e 0c 10 a5 be
       0.21135071 -0.36166036 0.21584193 -0.32238805
000390 ba 1a cc bb ab 6e 3f be bc 45 92 be 7e c6 45 3e
       -0.006228772 -0.1869456 -0.28568828 0.19314
0003a0 1e 9f 54 3e 6c 13 92 3e ff 69 89 3e 9a 76 95 3e
       0.20763823 0.28530443 0.2683868 0.29192048
0003b0 f3 65 a3 3e 46 b8 c0 bd 7b b0 a8 bd 9c 1a 92 be
       0.3191372 -0.09410147 -0.08236786 -0.28535926
0003c0 cb d6 11 be 5a 71 4b 3e 1c ed a3 be b8 b6 9d 3e
       -0.14242093 0.19867459 -0.32016838 0.30803466
0003d0 e3 eb f5 bd 1a 7e b9 be 37 f2 96 3e 44 56 85 3e
       -0.120078824 -0.3622902 0.2948167 0.26042378
0003e0 13 6d b8 3e ba 28 39 be df a4 20 be 1a 44 40 3e
       0.36020717 -0.18081942 -0.15687893 0.18775979
0003f0 52 f3 1d 3d 7e 0d a4 be 5e 1e de 3d 49 61 05 be
       0.038562126 -0.32041544 0.10845636 -0.13025393

fc1.bias f4 [64]
000000 6b 04 76 3e 40 2d 10 be ee 1c 43 3e 5c 0e 09 be
       0.24025123 -0.14079762 0.19054005 -0.13384384
000010 bf 84 5b bd eb f1 12 3e d7 2b 33 3e 63 5c 97 3e
       -0.053593393 0.14350097 0.17497192 0.29562673
000020 9b c4 62 be d3 55 ab 3e 63 27 e5 3e 70 99 37 be
       -0.22145312 0.33463916 0.44756612 -0.17929626
000030 0b 9b a6 3e 7a b4 cc 3c 1a d1 67 3d cb 88 78 be
       0.32540163 0.024988402 0.0565959 -0.24270932
000040 73 6b a0 be 88 67 bd bd 2f 5d a2 3e 57 e2 ae bd
       -0.31331977 -0.09248263 0.31711718 -0.08539265
000050 9f a9 82 be 60 38 12 bd 58 e7 24 be 1f b1 95 3e
       -0.25520036 -0.035698295 -0.16103876 0.29236695
000060 90 3f 1c 3e aa c3 71 be 45 b6 84 3e df 61 93 bd
       0.15258622 -0.23609796 0.2592031 -0.07196402
000070 84 88 86 3e db 3e 5d be 3f b1 b6 be 67 71 a6 be
       0.26276028 -0.21606009 -0.35682103 -0.32508394
000080 48 39 a9 be 4f ac b0 3d 23 bd 8a be 6f e1 d3 3e
       -0.33051515 0.08626615 -0.27097425 0.4138293
000090 a0 91 a8 3d 83 b2 7d 3e 1b c3 d7 3e 7f f0 8c 3e
       0.08230901 0.24775128 0.4214104 0.27527234
0000a0 84 b9 3a 3d 98 34 24 be 97 1b 42 3c 06 6f 65 be
       0.045587078 -0.16035688 0.011847398 -0.22405633
0000b0 4b 27 64 3e d6 6c 74 be 0c 5f 30 3e 8a 01 63 3c
       0.22280614 -0.23869643 0.17223758 0.013855347
0000c0 94 97 b3 be c3 89 b9 bc 0f a9 23 3d 60 bc 10 be
       -0.35076582 -0.022648698 0.03995615 -0.1413436
0000d0 5b f6 c8 bc f7 05 a5 3d d3 79 52 3c 3f 55 e0 3e
       -0.024531534 0.08057778 0.012846428 0.43815038
0000e0 c3 27 4b be 33 73 3a 3e 77 52 a1 bd 17 03 88 be
       -0.19839387 0.18208008 -0.07877057 -0.26564857
0000f0 60 5d 15 3e 07 66 a8 3e eb 13 8a 3d 76 8a 56 3e
       0.14586401 0.3289034 0.0674208 0.20951256

fc2.weight f4 [64, 64]
000000 74 59 df 3d cf 5f 39 3d 4c 67 9f bc b6 33 7d bd
       0.10905734 0.045257386 -0.019458435 -0.061816894
000010 a0 93 35 3d bc 2a 9e bd 63 4c ca bd 14 7e 09 be
       0.04433024 -0.07722995 -0.09877851 -0.13427001
000020 c3 ad c2 3c 83 6b 2e 3c bd 2d 06 be 37 41 bb bd
       0.023764497 0.01064575 -0.13103385 -0.09143298
000030 83 7a 1f bc 64 bd ae bd 7e 7d 75 bc 53 9d f7 3d
       -0.009733799 -0.08532217 -0.014983533 0.12090554
000040 eb eb 05 be 3f 26 49 3c 63 7c ea 3b 9e db 60 3b
       -0.13078277 0.012277185 0.0071559413 0.003431059
000050 3f d6 e1 3d e8 97 3e be 5a b5 7a bd 0b 00 88 bd
       0.11027192 -0.18612635 -0.061208107 -0.06640633
000060 c2 05 5e bd ef 98 49 bd 03 0f c7 3c ef 90 db 3d
       -0.05420471 -0.049218114 0.02429915 0.10721003
000070 c6 45 74 bd c8 cf 8d 3d 46 e6 71 3c d2 7e e6 3d
       -0.059636854 0.06924397 0.014764374 0.11254658
000080 f4 d1 16 3c 18 34 ac 3d 76 57 c4 bd e0 1c 04 bd
       0.00920533 0.084083736 -0.09586994 -0.0322541
000090 06 0e fb 3d 5f 24 0d 3d 2b d1 f0 3a ef 29 0e bd
       0.12258534 0.034458514 0.0018372884 -0.03470796
0000a0 17 d7 7e bc 84 76 a8 3d 68 60 b7 bd 7b 8a 9c bd
       -0.015554211 0.0822573 -0.08953935 -0.076436006
0000b0 f7 c4 95 bd 2c 9d 00 be 67 f9 0c bd c6 f9 ef bd
       -0.07312959 -0.12559956 -0.034417536 -0.117175624
0000c0 a7 31 0d be d7 1f 9c bd da fe ef bd 8b 4b 19 bd
       -0.13788472 -0.076232605 -0.11718531 -0.03742556
0000d0 54 c7 a5 3d 3f 7f 9d bd 1f a5 dd 3d d4 e8 b3 bd
       0.080946594 -0.07690286 0.1082251 -0.08784643
0000e0 8f f0 c2 bd 98 20 82 bd f2 16 80 3d af ec 58 3c
       -0.09518539 -0.06353873 0.062543765 0.0132400235
0000f0 ca 8a f1 3c 5c 92 2a 3b c1 6b 00 3c e0 42 8a 3d
       0.029485125 0.0026027178 0.0078381905 0.06751037
000100 a0 e7 a2 3d 15 df 01 bd 33 50 6c bd da 80 48 3c
       0.07954335 -0.03170689 -0.05769367 0.012237752
000110 10 ac be bc bb 4b 9b bd 87 0c f5 bc 72 d9 e1 bd
       -0.023275405 -0.07582804 -0.0299132 -0.110278025
000120 de 78 cc 3d 6b 0c 9e 3c 0c 61 1f bd 9e 50 f3 bd
       0.09983991 0.01929303 -0.03891091 -0.11880611
000130 9f 13 bd bc 8c 74 8e 3d 8f 4f d2 3d a3 8b d7 3d
       -0.023080645 0.06955823 0.10269081 0.105246805
000140 3f ec ad 3b d6 45 55 bd e7 a1 16 3d 64 e2 aa bc
       0.0053077037 -0.052068554 0.036775496 -0.020859905
000150 44 f2 b2 3d ea 2e ec bd 0b c6 ad bc f3 56 41 3d
       0.08737615 -0.11532386 -0.021212598 0.04720206
000160 1b 75 8a 3d 18 93 a7 3c d7 60 a6 3d 8a 71 5c 3d
       0.06760617 0.020455882 0.081239395 0.053819217
000170 23 6e e8 bd ca 8a d3 3c 8f 1e 51 3a 8a 0d 5c 3d
       -0.11349132 0.025823016 0.0007977271 0.05372385
000180 70 c6 a3 3c 0b 90 00 3d c6 99 83 3d 1a d8 56 3d
       0.019992083 0.03138737 0.06425814 0.052452184
000190 fa cd 5d 3c 5b d3 8c bd d3 5b 25 3d 62 e0 db bd
       0.013537878 -0.0687625 0.040370774 -0.10736157
0001a0 ab 9b c9 bd 14 d3 8e 3d 7a 73 d8 3d 56 6b 73 3d
       -0.098441444 0.06973854 0.105689004 0.059428535
0001b0 e2 35 80 bc ae 8b d0 3d b0 86 a3 3d cb e1 b3 bd
       -0.015650693 0.10182892 0.07984674 -0.08783301
0001c0 c2 b1 f0 bd f6 17 85 3d 8c 21 34 3c 29 3b 80 3d
       -0.117526546 0.06498711 0.010994326 0.06261284
0001d0 ef 75 97 bc 1b 53 40 3d b2 19 64 3d b8 9e 12 be
       -0.018488852 0.046954256 0.055688567 -0.14318359
0001e0 4a 46 72 bd 70 c5 24 be d4 ca b3 bd c3 2d ca bc
       -0.059149064 -0.16090941 -0.08778921 -0.024680024
0001f0 88 57 b4 bc f3 2d ae bd 06 02 da bc 7f 62 13 bd
       -0.022014394 -0.08504858 -0.026612293 -0.035982605
000200 17 db c3 bd e9 b5 06 3d 37 5f ed bc 0f 7d c0 bc
       -0.095632724 0.032888327 -0.028976066 -0.023497133
000210 f6 7b 6d 3d 20 db 09 be 8f 15 37 bd b6 ad 7b bd
       0.057979546 -0.13462496 -0.044698294 -0.06144496
000220 23 16 83 bd ef 34 3f bd ca c1 0c be 77 ae e0 bd
       -0.064007066 -0.04668134 -0.137458 -0.109707765
000230 63 7f ec bc 49 f7 80 3c 9b 8a 90 3c e6 ea 4a 3d
       -0.028869336 0.015742915 0.017644217 0.049540423
000240 c7 df 52 3d 1e 80 f3 3d 42 d7 75 3c 03 7e f3 3c
       0.051482942 0.11889671 0.015004935 0.029723173
000250 1a f7 6e 3d 68 16 85 bd 73 75 d2 bb 0a b7 da bc
       0.058341123 -0.06498414 -0.0064226924 -0.026698608
000260 63 2c b3 3b 34 a1 2a 3d 8f 78 bd 3d 07 95 ab 3d
       0.005467938 0.04165764 0.0925151 0.08378034
000270 1f eb 7b bc 77 36 ef bd 73 36 bc bd 73 ac 91 bd
       -0.015375881 -0.1168031 -0.09190073 -0.0711297
000280 57 60 9a 3d f6 81 49 3d 63 09 47 bd 7b 3f ce 3d
       0.075379066 0.049196206 -0.048592936 0.10070702
000290 fe c6 5b bd 56 e5 e2 bd 40 8c 10 be 78 45 8b 3d
       -0.05365657 -0.110788986 -0.14116001 0.068003595
0002a0 84 3e 15 3e b6 ea 83 3d 70 ba b4 bd 22 da ef 3c
       0.14574629 0.06441252 -0.08824623 0.029278819
0002b0 4a 6e 82 bd 7f d9 99 bb df 83 8f 3c d7 c9 ab 3d
       -0.06368692 -0.004695117 0.017518936 0.08388107
0002c0 b2 27 f4 3d 3c 45 bd bd ef 16 08 3e 6f 21 46 bd
       0.11921634 -0.09241721 0.13289998 -0.04837173
0002d0 76 4d f6 3d 1e 79 11 3e b8 7f 27 be 54 81 1b 3d
       0.12026493 0.14206359 -0.16357315 0.037965134
0002e0 5c 13 98 3d 8c c8 ad 3d a3 f3 76 3d 80 77 a1 3d
       0.074255675 0.08485517 0.060290944 0.07884121
0002f0 3c 11 ba 3c 1a fb cc 3c dc cd 94 bd 8a dc f8 3d
       0.022713296 0.025022078 -0.07265827 0.121514395
000300 c4 fe a8 3d 6b 9f c9 3c 64 99 16 bc 37 bd b2 3d
       0.08251718 0.02461215 -0.009191845 0.08727496
000310 bc e6 8c 3d db 38 54 3d 63 67 af bd 20 b4 12 be
       0.068799466 0.051812034 -0.08564641 -0.14326525
000320 0e c3 ed 3d 66 5f c7 bc f0 08 11 be 3c 99 aa bd
       0.11609469 -0.024337482 -0.14163566 -0.083300084
000330 5e b0 ce 3d 40 ec bc 3d 5f 63 e4 bd 9f 48 12 3d
       0.10092233 0.092247486 -0.11151766 0.035713788
000340 d7 2d f7 bd 68 4a 3e bb 48 a9 18 bc e0 2f 9d 3d
       -0.1206929 -0.0029036049 -0.009317704 0.07675147
000350 f6 bb 69 3d 73 28 a7 3d 2b 8c f4 bc d7 07 07 be
       0.05706402 0.08162012 -0.029851994 -0.13186584
000360 43 17 98 3d 3f 13 11 bd 74 31 a3 bd eb b3 a8 3d
       0.07426312 -0.035418745 -0.07968417 0.08237442
000370 2f aa a0 3d df 70 a7 bd 33 dc 9c bc c4 68 a3 bd
       0.0784496 -0.08175825 -0.019147968 -0.07978967
000380 47 28 08 3d df e0 16 3d a2 40 6b 3d 53 6a 19 3c
       0.033241536 0.036835548 0.057434686 0.009363729
000390 b4 2c 8b 3d 07 53 b1 bd 83 89 c7 bd 9f e4 4d 3c
       0.06795636 -0.08658414 -0.09743025 0.012566715
0003a0 7a de c5 bd 7c ee a1 3d 7a 09 03 be 9c 19 bb bd
       -0.09661575 0.079068154 -0.12796584 -0.09135744
0003b0 90 00 00 3d e7 d5 e4 3d 43 96 e1 bb 28 e8 97 bb
       0.031250536 0.11173611 -0.0068843677 -0.0046358295
0003c0 f0 d0 03 be a9 dd 00 bc fa ae 54 bd e4 51 90 bd
       -0.12872672 -0.007865348 -0.051924683 -0.070468694
0003d0 78 4a bd bd 77 98 ce bd 77 bf 80 bd ee 0d dc bd
       -0.092427194 -0.10087674 -0.06286519 -0.107448444
0003e0 36 fe 73 bd 0a 1d fc 3d 90 78 d4 3c 17 2c 07 bc
       -0.059568606 0.12310226 0.025936395 -0.008250258
0003f0 ef 91 f8 bd b7 75 a7 3d a2 e2 f8 3d 9c cc ad 3d
       -0.121372096 0.08176749 0.12152602 0.08486292

fc2.bias f4 [64]
000000 d8 57 b4 3b dc 61 8d bd 08 aa 8c ba fe 88 e7 3d
       0.005503636 -0.06903431 -0.0010731826 0.11305426
000010 9b 8d 4e bd 9c 18 b2 bd d0 53 8e bc 14 40 a9 3c
       -0.050428014 -0.086961 -0.01737395 0.020660438
000020 a4 8a a6 3d f7 bb 8f 3d 94 81 17 bd b3 da eb 3c
       0.08131912 0.07018273 -0.03698881 0.028790807
000030 77 5c 08 3c 3a 65 80 bd 43 ab 42 bd 18 6a 99 3d
       0.008322827 -0.062693074 -0.04752661 0.07490939
000040 7c d8 bc bd 8a 9c c5 bd 67 14 f4 3d 72 b1 48 bd
       -0.092209786 -0.09648998 0.11917954 -0.04899735
000050 9e f6 d9 bd a4 ac bb bc 7c 2d b8 3d 7f 29 ae 3d
       -0.106427416 -0.02290947 0.089930505 0.085040085
000060 10 aa ac 3d d6 e0 df 3d a0 e7 8e bd de 1c 30 3d
       0.08430874 0.10931556 -0.06977773 0.04299628
000070 5b 3d a0 3c 0a 80 c6 bc 98 60 be bd 34 e3 ea 3d
       0.019560507 -0.024230976 -0.092957675 0.11469117
000080 8a ee 7f 3d 88 a9 9e bd e8 83 aa 3b a2 4d d9 3c
       0.062483348 -0.07747179 0.0052037127 0.026526276
000090 af f8 c7 3d 60 20 20 be 2b 28 cc 3d 0f 52 91 bd
       0.097642295 -0.1563735 0.09968599 -0.070957296
0000a0 df 44 8d 3a cf ab ae 3c b0 85 bd bd f3 21 1c 3d
       0.0010777971 0.02132216 -0.092540145 0.038118314
0000b0 ac 06 2a 3c bc 93 a8 3d 67 2b dd bd 46 01 70 3d
       0.010377567 0.08231303 -0.10799294 0.058594964
0000c0 3e c2 e1 3d 1b 3d 02 3e 03 c0 f7 bd 20 06 8c 3d
       0.11023377 0.12718622 -0.1209717 0.06837106
0000d0 92 ef 71 3d f2 bc c9 3c 23 ac 7a 3d 03 86 0c 3c
       0.059066363 0.024626229 0.06119932 0.008576873
0000e0 c2 77 86 bd b7 4c fd 3d 8e 9a 4d bd 3c 78 bc 3d
       -0.06565811 0.12368148 -0.050196223 0.092026204
0000f0 a4 fc 31 bd 46 15 80 3d f7 4e 63 bd 8f a6 ee 3d
       -0.043453828 0.062540576 -0.05549523 0.11652862

fc3.weight f4 [64, 64]
000000 9e a2 c4 3b c0 dc 3a bd df 11 cf bc 3f ca f2 bb
       0.006000831 -0.04562068 -0.025277076 -0.0074093635
000010 4c ce 26 3d 0b ca 3d 3d 94 7e 9a bd 17 e6 c2 bd
       0.040724084 0.04633526 -0.07543674 -0.095165424
000020 5b 5c f4 bc 9c 23 0e 3d 3a ba e3 bd 1e 41 c9 bb
       -0.029829195 0.03470193 -0.11119504 -0.006141796
000030 ba 70 ee 3d 1f 3f a8 bd 5f 0a 13 3d 0c 32 08 3d
       0.11642595 -0.082151644 0.035898563 0.033250853
000040 3b 80 9b 3d d7 18 3c bc f3 fc 59 3d cc d1 59 bd
       0.075928174 -0.011480532 0.053219747 -0.053178594
000050 0e 48 6a bd e8 fd b2 bd ae 58 02 bd 7a 6f f3 3d
       -0.057197623 -0.08739835 -0.031822853 0.11886497
000060 8f c1 a6 bd 4f a1 63 bc ee 30 cd 3c c3 c3 4f bd
       -0.08142387 -0.013893439 0.025047746 -0.050723802
000070 bb 1a ae bd 52 0f d6 bd ea 56 ce 3d d7 a3 90 3d
       -0.08501192 -0.10452141 0.10075171 0.070625
000080 4f 4d 5d bc a0 0f 99 bc 2b fc e8 3d fa 19 62 3d
       -0.013507201 -0.018684208 0.11376222 0.055200554
000090 0a de d1 bd 67 87 a4 3d c0 bf a0 3d c4 ad 03 be
       -0.10247429 0.080336384 0.078490734 -0.12859255
0000a0 97 29 be 3d 57 77 ec 3c fb 90 63 bd 37 cd 5e bd
       0.092852764 0.0288655 -0.055558186 -0.054394927
0000b0 9b e0 b7 3d 14 c6 07 3d 6c 0e 97 3c 6c 8d 95 bd
       0.08978387 0.033147886 0.018439494 -0.07302365
0000c0 1b 0c b7 bd ba b0 65 bd d6 7b 6a 3d 4a 3e df 3a
       -0.08937856 -0.056076743 0.057247005 0.0017032113
0000d0 5e db 2d 3e 67 f7 ac 3d 4b 44 ea 3d 5b f8 3c 3d
       0.16978213 0.08445626 0.11438807 0.046135288
0000e0 62 06 6d 3d 04 66 3b bd 1b bf bd bd 17 60 28 bb
       0.057867415 -0.045751587 -0.09264966 -0.002569204
0000f0 0e 2f fa bd ca 34 cf bd 1e 0c 56 be 13 3e 9c bd
       -0.12216006 -0.101174906 -0.2090306 -0.07629027
000100 90 4d 13 3c 50 af a3 3d 42 4a 84 bd ab 2a 24 bd
       0.00899066 0.079924226 -0.06459476 -0.040079754
000110 d4 b0 81 3c 9b 17 2e 3c 0c ba 01 be da 03 e6 bd
       0.015831389 0.010625745 -0.12668628 -0.112312034
000120 8b d2 01 3b 97 61 a9 3d 36 71 fe 3d 47 21 ad 39
       0.0019809331 0.08270567 0.12423937 0.00033021925
000130 06 d6 84 bd 77 5b a7 3d 0c 61 a4 3d db 87 a8 3d
       -0.06486134 0.081717424 0.08026323 0.082290374
000140 80 0c 1e 3d e5 d6 e2 3c 4c fd a4 bd c3 74 9c 3d
       0.03858614 0.02769036 -0.08056125 0.07639458
000150 b8 87 9a 3c 07 6f 95 3c 44 7c b0 bd 9f 7b a0 bd
       0.018863544 0.018241419 -0.08617452 -0.07836079
000160 57 85 ca bc f7 c1 63 3d 8c 81 07 be db 6c 39 bd
       -0.024721785 0.0556049 -0.13233012 -0.04526983
000170 c0 44 da bd 98 0e 31 3d 4c e0 9e 3c 22 cd 05 bd
       -0.10657644 0.04322681 0.019394062 -0.032666333
000180 dc 8a 06 be 92 43 d5 bc b6 c2 d2 3d 7b c6 b5 bd
       -0.13138908 -0.026033197 0.102910444 -0.08875748
000190 7c 34 b6 bc a0 2e b1 3d 5a 35 f8 3d fc 8b 03 3e
       -0.022241823 0.08651471 0.12119551 0.12846369
0001a0 0e f7 5c bc 76 53 c8 3b f4 d6 34 3d aa fa d3 bb
       -0.013486637 0.006113465 0.044150308 -0.0064690905
0001b0 f4 db b4 3c 8b 9d 30 3d ff 46 09 be 7c d6 e4 bd
       0.022077538 0.043118995 -0.13405989 -0.11173722
0001c0 5b 49 01 be 68 69 9f bd f7 27 ec 3c c9 2a 02 bd
       -0.12625639 -0.077837765 0.02882765 -0.031779084
0001d0 18 5e 16 3d c0 89 9a 3d 8b 32 4b bd de d7 ef bd
       0.03671083 0.07545805 -0.04960875 -0.11711095
0001e0 3c 35 66 3d 43 d4 64 bd 5b 5d 4b bd 30 81 a1 3d
       0.056203112 -0.05586649 -0.049649578 0.07885969
0001f0 3b 7b 2a 3d 67 4c a3 3d a8 40 2b bc be 3e 5b 3c
       0.041621428 0.07973557 -0.010452427 0.013381658
000200 07 c6 c0 3d 33 dc 92 bd 17 19 0b 3e f3 24 ee bc
       0.09412771 -0.07170906 0.1358379 -0.029070353
000210 9b 87 89 bd 47 01 a5 3d 04 0e 87 3c 7b 37 42 bd
       -0.06715318 0.08056884 0.016486175 -0.04741619
000220 4b 46 f7 bd c3 92 1c 3e 93 c9 9f bd ea dd 6c bd
       -0.12073954 0.1529036 -0.07802119 -0.05782882
000230 f7 e1 be 3c b3 08 07 be c3 46 e8 bc 2f 08 4f 3c
       0.023301108 -0.13186912 -0.028354054 0.012636228
000240 3f bb 13 3d b8 e3 ac bc b0 48 8c 3d cb cf 31 3d
       0.036067244 -0.021104679 0.068498015 0.043411057
000250 0f fc eb ba cb d5 c9 bd c2 b8 46 be 2b 0b cb bd
       -0.0018004196 -0.09855231 -0.19406417 -0.099142395
000260 10 91 9d bd 27 6d 6a bd 03 fb a8 3d 5c 9d a9 bc
       -0.07693684 -0.057233002 0.08251002 -0.020704918
000270 3b b1 bf bd 13 c7 f9 3c 3d 6b 02 be 7e 20 06 be
       -0.09359976 0.030490434 -0.1273622 -0.13098332
000280 af 02 96 3d 5c 0c b3 bc 7a 46 e5 bd fa 23 58 3d
       0.073247306 -0.02185648 -0.11195083 0.052768685
000290 ff b7 a4 bd f4 0d 92 bc 82 a1 dc bd b4 0b 13 bd
       -0.08042907 -0.017828919 -0.10772993 -0.035899833
0002a0 d8 c1 00 be c3 3b 94 bc 84 fe 89 bd 0a a9 05 3e
       -0.12573946 -0.018094903 -0.06737998 0.13052765
0002b0 06 08 d4 3c 14 80 8c 3c 38 5a b1 bd b7 cb 1c 3d
       0.025882732 0.017150916 -0.08659786 0.038280215
0002c0 c3 0e 7d 3d 10 5d 00 be 8b e1 b7 3c 06 f5 f5 bd
       0.061781656 -0.125355 0.022446414 -0.12009625
0002d0 68 0c 89 bc a3 72 48 bd 48 80 ad 3d f4 c7 25 ba
       -0.016729549 -0.04893745 0.08471733 -0.0006324046
0002e0 26 f1 b6 3c 90 81 16 bc 0d 5a 82 3d 3e c5 54 bd
       0.022331785 -0.009186164 0.06364832 -0.051945917
0002f0 d7 99 fe 3d c7 c9 cf 3b 26 bd d1 bd 5f c3 b6 3d
       0.12431686 0.0063411924 -0.10241155 0.08923983
000300 17 5f 47 3c 0f 08 b3 bd 33 27 0e bd 72 66 be bc
       0.012168667 -0.087417714 -0.034705352 -0.02324221
000310 cc ab 32 bd db 7e 36 bd 2c c0 b1 bd 22 ad f4 bb
       -0.04362087 -0.044554573 -0.08679232 -0.007466928
000320 36 7a 43 bc 67 fb 78 bd 26 24 d9 3d 83 99 a8 3c
       -0.011930993 -0.06078663 0.10602598 0.020581013
000330 ca 68 ff bd 18 d3 0a be 1a 45 44 bc 16 44 ce 3c
       -0.12471159 -0.13557088 -0.011979366 0.02517895
000340 e0 2b 9c 3c 5e b4 ed 3d 68 49 21 3e 0b b8 27 bd
       0.01906389 0.11606668 0.15750659 -0.040947
000350 3e 6b d9 bb 53 0d e7 3d 4b 9a b7 3d 62 69 64 bd
       -0.0066350987 0.11281838 0.08964976 -0.055764563
000360 10 92 08 3d c4 11 b4 bd 6c 60 d6 3d 64 75 97 3d
       0.03334242 -0.08792451 0.1046761 0.07395437
000370 90 f4 3e bd 93 2f 8a bd cc 4b bd 3d 1f ae ca 3c
       -0.04661995 -0.06747355 0.09242973 0.02474123
000380 50 e0 9f 3b 8f 13 20 bd ea 9a 81 3b e7 bc bc bd
       0.004879035 -0.039081153 0.003955235 -0.09215718
000390 6c aa e1 3c 3b 35 9b bd 38 8c 31 bd f6 9a 76 bd
       0.027547084 -0.07578512 -0.043346614 -0.060206376
0003a0 0b 2e af bd 52 5c de 3d 92 70 78 bd 26 45 47 bb
       -0.08553704 0.108574525 -0.06065423 -0.0030406206
0003b0 23 0c 16 bd 5c ab 2a bd 06 7a c6 bd 03 21 76 3d
       -0.03663267 -0.041667327 -0.09691243 0.060090076
0003c0 fc 4d 95 bd db f6 1d 3c 53 9c 78 3d f2 52 cf 3d
       -0.07290265 0.009641374 0.060695957 0.101232424
0003d0 ee 33 ca bd e6 59 72 bc 2f 24 0b 3c 9a e8 f5 bc
       -0.09873186 -0.014791941 0.008492514 -0.03001814
0003e0 7f 3c 48 3d 74 85 db 3c 9f 25 26 3c 98 ba 96 3d
       0.04888582 0.026797034 0.0101408055 0.07359809
0003f0 7c e3 b1 bd 06 99 f2 3d fa db 05 3e 17 c7 20 bd
       -0.08685967 0.11845593 0.13072196 -0.039252367

fc3.bias f4 [64]
000000 ce df e3 3d cb 5a 6a 3d df fe 34 3d 14 f7 97 3d
       0.11126672 0.057215493 0.044188377 0.07420173
000010 a7 f4 1c 3d 2f aa cd 3b ff 45 d5 3d 0b 39 90 3d
       0.038319256 0.006276391 0.10413741 0.0704213
000020 4f 3e 8d 3d e8 a1 a0 3c b0 bd 99 bc d8 b4 31 bd
       0.0689665 0.019608453 -0.018767208 -0.043385357
000030 2b 33 0f bd 10 64 b1 bd 20 af a6 bd a3 30 d3 3d
       -0.034960907 -0.086616635 -0.08138871 0.10312011
000040 3f 57 9d bd 22 dc 5e bd 1c 52 b2 3d 08 7d a0 bd
       -0.076826565 -0.054409154 0.08707067 -0.07836348
000050 2b 13 9b 3d e2 62 4f 3d c2 fe 78 3d 04 67 bf 3d
       0.075720154 0.05063141 0.06078983 0.093458205
000060 db 0d eb bc 46 61 02 be 67 af 60 3c fe 54 ee 3d
       -0.02869313 -0.1273242 0.013713694 0.11637305
000070 0f 98 70 3d 48 03 1e 3c a8 28 07 3e 77 95 d6 3c
       0.058738764 0.009644337 0.13199103 0.026194317
000080 3b ba 00 be e2 62 d4 bc 52 64 c2 bd 52 c1 49 3d
       -0.12571041 -0.025926057 -0.09491791 0.04925663
000090 a0 da 9b 3d 76 39 71 3c 13 90 1f 3d f7 c3 87 bd
       0.07610059 0.014723172 0.03895576 -0.06629174
0000a0 ee e4 fa bc cf 27 21 bd ae ad 7e 3b b6 c4 fd bd
       -0.03062674 -0.039344605 0.0038860845 -0.12391035
0000b0 8f cf 00 3e 9f 2c d6 bd 86 ac 07 3d 58 dc 39 3d
       0.12579177 -0.104577295 0.033123516 0.04537615
0000c0 76 1e 64 bd 6e e1 d8 3d e3 2e bd 3d 5e 67 c2 bd
       -0.055693112 0.10589872 0.092374586 -0.09492372
0000d0 cf 23 fa bd 82 ae 6d 3d cc 0d 35 3d d3 a2 65 bd
       -0.12213861 0.05802775 0.04420261 -0.056063484
0000e0 1f c1 8a 3c e4 4a b5 bd 9f 67 cd bd 80 f2 94 bd
       0.01693779 -0.08852175 -0.1002953 -0.07272816
0000f0 fe c2 bc 3d 83 a1 1b 3e f1 be 04 3e da af 81 bd
       0.09216879 0.1519833 0.12963463 -0.06332369

fc4.weight f4 [64, 64]
000000 67 d5 12 be 17 42 cb 3b 18 b8 1b bc 17 bc d8 3b
       -0.14339219 0.006202947 -0.009504341 0.006614219
000010 33 3e e0 bc e6 28 6c 3d 9a 36 6e bd d4 9f 03 3e
       -0.027373409 0.05765619 -0.05815754 0.12853938
000020 af 8c 9d 3d 06 49 05 bc 92 12 02 bd c6 e0 c2 bc
       0.07692849 -0.008135086 -0.03175599 -0.023788821
000030 43 db 26 bd 37 d0 10 3e cf 39 8f 3d df 22 cd 3d
       -0.040736448 0.14141928 0.06993448 0.10016417
000040 cb b4 d6 3c 80 40 9c bd 5c d2 92 3d 72 c4 c4 bb
       0.026209256 -0.0762949 0.07169029 -0.0060048634
000050 24 4c ab bd f2 d2 f4 3d c8 9a a9 bd fe 1c 47 bd
       -0.08364132 0.11954297 -0.08281475 -0.048611633
000060 23 fe 28 be 76 1e e4 bc d7 42 ab bb 2b 3c 0b bd
       -0.16503195 -0.027846556 -0.005226474 -0.033992928
000070 56 ad e3 3d d0 06 8b 3b 56 eb c8 bb 46 9f 6d bd
       0.111170456 0.0042427555 -0.00613157 -0.058013223
000080 b0 1b a5 3d 14 ed 1c bd 98 a5 12 b9 83 99 1e 3e
       0.080619216 -0.038312033 -0.00013985333 0.15488248
000090 b7 60 0a 3e 93 3e 19 be 6a f6 ea bb 17 a3 f6 3c
       0.13513456 -0.14965276 -0.007170488 0.030107064
0000a0 e0 8f 1c 3d 43 16 99 3d 4a 32 f2 3c fa 24 c8 bd
       0.038223147 0.07474949 0.029564995 -0.09772678
0000b0 5b df 94 bd ef 7f 08 be 89 ad 05 bc fa 1c c6 bd
       -0.07269164 -0.13330053 -0.00815905 -0.096734956
0000c0 a0 5b 3b bd ea f4 7d bd 5e 8b 81 bd 1d 74 00 bd
       -0.045741677 -0.062001146 -0.0632541 -0.031360734
0000d0 2a ec 46 bd 82 31 6d bd d4 ed bd bd 9b 48 d7 bd
       -0.048565067 -0.057908542 -0.09273878 -0.10511895
0000e0 f8 8b 26 bd d7 e1 ac 3d e0 48 13 3d f7 3d 56 3d
       -0.04066083 0.08441513 0.03595817 0.052305188
0000f0 27 60 d4 bd d3 02 a4 3d 7c e2 e1 3c 9a 1d fd 3c
       -0.10369902 0.08008351 0.027573816 0.030897904
000100 b7 b6 85 bc 8f 06 64 bc 5f af 63 bd 1a c3 11 bd
       -0.016322477 -0.013917579 -0.05558717 -0.035586454
000110 be be fb 3b 2d 64 80 3d 1f e6 12 3c a6 e8 52 bd
       0.0076826504 0.06269107 0.008965998 -0.051491402
000120 52 24 99 3d 83 46 12 3b 83 3d 2a 3d 57 ac 37 3d
       0.07477631 0.002231986 0.04156257 0.04484209
000130 22 62 f9 bd 77 55 3c 3c 78 ba bb bd 13 bd 90 bd
       -0.121769205 0.011494986 -0.091664255 -0.07067313
000140 92 f9 67 3d 8e 39 45 3c 24 60 0d bd 32 c2 6d 3d
       0.056634493 0.012037648 -0.034515515 0.058046527
000150 5c 3a ad bd f7 49 a7 3d 4c a8 b8 bd 8b 4d ec 3b
       -0.08458397 0.081684045 -0.09016475 0.0072113923
000160 d2 b6 6a 3d 0f ac cd bd 02 0c 5e bd 22 d7 ca 3d
       0.057303257 -0.10042583 -0.05421067 0.099043146
000170 83 1f 07 3d d3 3c 97 bd 93 3a cf bd 97 b9 35 3d
       0.032989036 -0.07384648 -0.10118594 0.044366445
000180 12 4c fc 3b be a8 f8 3d 03 ee b5 3d f3 97 e9 bd
       0.007699498 0.1214156 0.08883288 -0.11405935
000190 9b 92 08 bc c3 30 a4 3d ce a2 b0 bc b6 9f 52 bd
       -0.008335735 0.08017113 -0.021562006 -0.051421843
0001a0 93 77 17 3d fa d0 d0 3d be 19 fb 3d 76 09 f4 bd
       0.03697927 0.10196109 0.12260769 -0.11915867
0001b0 03 c5 00 be cb bf 94 3c 7b fd 17 3d fc b5 1b bd
       -0.12575154 0.01815786 0.037106972 -0.03801535
0001c0 bc 09 08 3e 46 11 c2 3d da 74 c0 3d 4e d2 73 3d
       0.13284963 0.09475951 0.09397288 0.059526734
0001d0 6a 03 59 bc 48 00 a1 b8 08 05 b9 bd 86 57 cd 3d
       -0.013245443 -7.6771306e-05 -0.09034163 0.100264594
0001e0 9e 79 ca 3d 87 a6 e2 bc 07 9c 2e bd 67 4f 1b 3d
       0.09886478 -0.027667297 -0.042629268 0.03791752
0001f0 3b 65 b6 3d 1b 00 e6 3b 0b d6 4f 3d 07 b9 be 3c
       0.08906027 0.0070190555 0.050741237 0.023281587
000200 be 92 66 bd eb 16 57 bd 3f 33 73 bd e0 16 0e 3d
       -0.056292288 -0.05251209 -0.059375044 0.034689784
000210 4e 08 7f 3d 68 25 93 3c 37 2a 20 bd 5b ef 13 3e
       0.06226378 0.017962173 -0.03910276 0.14446776
000220 ee a1 68 3d 53 29 14 be 74 cb 15 be e7 5c 5b bd
       0.056795053 -0.14468889 -0.14628392 -0.053555395
000230 10 e4 95 3d 83 3e 9f bc ac ad aa 3c ee 14 73 bd
       0.0731889 -0.019438988 0.020834766 -0.059346132
000240 91 04 01 3d 08 92 b8 bc 46 cd 7b bd 0b 35 a8 bd
       0.031498495 -0.02253057 -0.06147506 -0.08213242
000250 5e 10 e2 bd a2 b5 df 3d 53 37 8b 3d d8 f0 fc 3c
       -0.11038278 0.109233156 0.06797662 0.030876562
000260 40 4e ba bd 4a 7b 74 bc db 2f e2 3c 73 21 1f 3e
       -0.09096956 -0.0149219725 0.02761071 0.15540104
000270 a0 a4 ae 3d 5a 5c 74 bd d8 69 73 3d 48 99 ad 3d
       0.085274935 -0.059658386 0.059427112 0.08476502
000280 23 40 73 bc 13 f0 e9 bd 0f ab 08 3e 2f 57 9e 3d
       -0.014846834 -0.11422744 0.13346504 0.07731473
000290 6d fe 02 3e 00 fb 8e 3c e7 1c c6 3d d0 78 91 3c
       0.12792368 0.01745367 0.096734814 0.017757803
0002a0 a6 0f fa 3c 54 63 1b bd 3a 37 c6 3d e0 07 36 3d
       0.03052504 -0.037936524 0.096785024 0.044441104
0002b0 92 95 d6 3c c6 ee 0a bd ee ae e5 bc 8c 63 a4 bd
       0.026194368 -0.03391912 -0.028037515 -0.080267996
0002c0 73 44 db 3b d6 1e 7c 3d 17 0a 1a be 8b 84 c4 bd
       0.0066915094 0.061552845 -0.15042911 -0.09595593
0002d0 a7 fd 27 be 1e 3e cc bd 80 e3 0f 3c f4 f2 ac bd
       -0.16405354 -0.099727854 0.008782268 -0.08444777
0002e0 73 43 af bd 1b ed b2 3d de 91 d6 bc 87 7a c3 3d
       -0.08557787 0.087366305 -0.026192602 0.095448546
0002f0 a6 25 e9 3b ca 1a df bc ff fd ea 3a 7b fe c3 bd
       0.0071150837 -0.027234454 0.001792848 -0.09570023
000300 7f d6 21 3d ee 61 62 bd 82 e6 ec 3d 82 fc d1 bb
       0.0395112 -0.055269174 0.115674034 -0.006408275
000310 4f e6 46 bd c3 84 25 be c2 e2 e7 3d e4 96 be bd
       -0.048559483 -0.16163926 0.113225475 -0.09306124
000320 92 ee d9 3d 33 72 c5 bc fc e3 a9 bd 6b aa a0 3d
       0.10641207 -0.024102306 -0.08295438 0.07845005
000330 ef 82 0f be a6 f2 fd bd 4a 45 41 bd cb 71 e2 3d
       -0.14014791 -0.12399797 -0.04718522 0.110568605
000340 97 a5 d3 bd 37 ba 84 3d 07 51 3d 3d 0e 7a 03 3d
       -0.10334318 0.0648083 0.04621985 0.032098822
000350 cf 03 fc bc c6 81 e0 bd 9e ce f7 3d d7 6e 77 3d
       -0.030763535 -0.10962252 0.12099956 0.06040844
000360 3b 2e 98 3c 4c 1d ad bd 4c 69 89 3d a3 0e a0 3d
       0.018576732 -0.084528536 0.06709537 0.07815292
000370 3e c3 ef bd fb e4 e9 bd 5e 9a 69 3c 3e 65 e4 3b
       -0.11707161 -0.11420628 0.014257995 0.006970077
000380 6b 8e c1 3d f6 6e c8 3b d0 22 bf 3b 00 78 37 3b
       0.09450992 0.006116743 0.0058330074 0.002799511
000390 0a 59 e8 bd 77 08 11 3d fc 2b 8a bd 9a 97 44 bd
       -0.11345108 0.035408463 -0.067466706 -0.04799614
0003a0 0f 15 9c 3d dc 36 90 bd 77 4a db bd c0 ea ac 3c
       0.07621204 -0.070417136 -0.107075624 0.021108031
0003b0 1c b9 81 3d 63 b7 43 bb bc f6 38 bd c4 43 8c bd
       0.06334135 -0.0029863946 -0.04515718 -0.06848863
0003c0 ca 46 f4 bd 36 94 56 3d f3 c8 0b 3e 44 5c 04 be
       -0.119275644 0.05238744 0.13650875 -0.12925822
0003d0 0c 7b 0a 3e 70 e1 17 bc 44 28 96 3d b8 ee 92 bd
       0.13523501 -0.009270057 0.07331899 -0.07174438
0003e0 3f 5c b6 3c 4a b7 4c 3d 5e ab ce bd 62 0f df 3c
       0.022260783 0.049979486 -0.100912794 0.027229015
0003f0 e0 ec 84 3d 72 42 d3 3b b3 cf 35 bc 83 17 94 ba
       0.06490493 0.00644713 -0.011096883 -0.0011298511

fc4.bias f4 [64]
000000 3a 43 c0 3c 43 a6 0b 3e 5f b5 a1 bc 18 9e 35 bd
       0.023469556 0.13637643 -0.019739805 -0.044340223
000010 32 a2 5b bd 32 b1 ea bc 88 01 2b 3d 22 bd ee 3d
       -0.05362148 -0.028648946 0.041749507 0.11657168
000020 a7 42 95 bd eb 1a b5 bd ae 0c eb bc 9b ad 90 3d
       -0.072881036 -0.08843025 -0.02869257 0.070643626
000030 1f 50 dd 3d 40 f6 a3 3c 9c 2e 02 3e 47 24 25 3d
       0.108062975 0.020014882 0.12713093 0.0403178
000040 8b 3d 0e 3e c6 7c 79 bd 93 1f 1a 3e 3b 1a a2 3d
       0.13890664 -0.06091001 0.15051107 0.07915159
000050 2f 87 c3 3d e4 a3 b6 bc 2c 9f 96 3d 00 4d 92 3d
       0.095472686 -0.022294946 0.073545784 0.07143593
000060 d3 c6 99 bd b7 b4 8b 3d 6b 6f c2 3d 35 d2 02 3c
       -0.07508626 0.06821578 0.094939075 0.007984688
000070 5b 83 57 3c 0b c4 a5 bd cc b3 91 3d 97 b6 a4 bb
       0.013153876 -0.08094033 0.07114372 -0.005026649
000080 7f 80 0e 3e 83 be ec bd be 7c 4a bd 2e 84 f8 3d
       0.13916205 -0.11559775 -0.04943537 0.12134586
000090 b0 cd 93 3c 6b 20 14 bd 8a bf cf bd be f4 80 3d
       0.018042415 -0.03616373 -0.10143955 0.06296681
0000a0 c7 bd ae bd 9b 66 34 bd ab 45 05 be f8 8c 07 bd
       -0.08532291 -0.044043165 -0.13014857 -0.033093423
0000b0 f3 91 51 bd 18 b3 8c 3d ea d0 f4 3d bb 7c 0d be
       -0.05116458 0.06870097 0.1195391 -0.13817112
0000c0 5c 1d bb bc 1e ef 00 3d d7 1f ec bc af d0 60 bd
       -0.022841148 0.03147804 -0.028823776 -0.054886516
0000d0 27 ed 92 bc 3b fa d5 bc ef c6 aa bd ba a7 50 bd
       -0.017935349 -0.026120296 -0.08338725 -0.050941207
0000e0 88 6b a5 bd 76 11 81 3c 14 a5 8f bc e4 99 98 3d
       -0.080771506 0.015755396 -0.01753477 0.07451227
0000f0 d3 7f 95 bd a2 ef f5 bd 1c 80 bb 3d df cc 87 3d
       -0.07299771 -0.12008597 0.09155294 0.06630873

fc5.weight f4 [3, 64]
000000 ac 18 83 bd d8 da 00 3e 0a 5d df bc 83 80 3c 3d
       -0.0640119 0.12583482 -0.027266044 0.046020996
000010 07 c3 c3 bd 6b 9c 29 3d 34 19 21 be b0 e2 02 3e
       -0.09558683 0.041408937 -0.1573227 0.12781787
000020 17 8f 04 be e3 6d ab 3d 04 6f 3c bd ee c9 ca 3d
       -0.1294521 0.083705686 -0.04600431 0.09901796
000030 4a d8 7b 3d ab 8b ed bb 0c 03 b7 3d e4 9e 3b 3d
       0.061485566 -0.0072493157 0.08936128 0.045805827
000040 62 ee c8 3d 58 d7 1b be b3 7a 0d 3e 7b 64 65 3d
       0.09811093 -0.15218866 0.13816337 0.05600403
000050 8c e3 21 3d c6 5d e1 3d 43 18 58 bd 12 b9 f3 3d
       0.039523646 0.11004214 -0.052757513 0.11900534
000060 9f d7 81 bc 07 85 2c 3b 1c 1b b2 bc 74 2f 16 bd
       -0.015849886 0.0026324408 -0.021741442 -0.03666635
000070 f3 20 c0 3d b0 91 0e bd fc 93 8b bd 17 23 cc bd
       0.093812846 -0.034806907 -0.06815335 -0.0996763
000080 3c aa 04 3c 3c 32 23 3c 5b 3e 1f bc 9e b6 d8 3d
       0.008097228 0.009960707 -0.009719457 0.105817065
000090 0f e6 4f bd e2 38 08 be 8a 89 8d bd 4f 43 7b bc
       -0.05075651 -0.13302949 -0.06910999 -0.015335872
0000a0 fb 0b f0 bd 44 0b 10 bd 50 04 ae 3c cc e9 bf 3b
       -0.11721035 -0.035166994 0.02124229 0.005856728
0000b0 27 5b 31 3d 98 d0 a8 bd 43 87 c3 bc f3 41 ae bc
       0.04329982 -0.08242911 -0.023868209 -0.021271681
0000c0 e6 3e 7e 3d 62 02 58 3d 07 c7 a6 3b 07 37 a5 3d
       0.062071703 0.052736647 0.005089644 0.08067136
0000d0 d3 15 eb bb a2 0a 5b bc 0f 68 bc bd f3 26 04 be
       -0.0071742325 -0.013369234 -0.09199535 -0.12905483
0000e0 d0 4b 9b bb 83 d4 10 3b a3 1f bc 3c 00 6a 89 bd
       -0.004739262 0.0022099323 0.022964304 -0.06709671
0000f0 1f 30 50 bc ea c8 ed bd 23 92 97 3d 66 9a cd 3d
       -0.012706785 -0.11610587 0.0740092 0.10039215
000100 34 d7 2b bd c6 b4 5f bd b4 23 9e bd 87 a4 99 bb
       -0.04195328 -0.05461576 -0.077216536 -0.0046888026
000110 22 15 c9 3d ee 02 62 bd b4 74 36 bd 6c f3 e3 3d
       0.09818484 -0.055178575 -0.04454489 0.111304134
000120 08 17 d9 bc a8 9a ba 3d 95 8f 83 bd bb f3 5e 3d
       -0.02650024 0.091115296 -0.064238705 0.05443166
000130 9f af da 3d 3f 5b 01 3e 92 04 e2 bd 76 53 c8 bd
       0.10678028 0.12632464 -0.11036028 -0.09781544
000140 4b af 93 bd b6 a2 cf 3d 63 71 1b bd db 53 2f bd
       -0.07211169 0.101384565 -0.03794993 -0.04280458
000150 88 5d bd 3b f0 6c 96 3d 67 c4 c6 3d 60 6c 9f 3d
       0.005778972 0.07344997 0.097054295 0.07784343
000160 e8 98 bd 3d 40 64 2e 3d 3b 2b a0 bd e9 74 81 3d
       0.0925768 0.042576075 -0.078207456 0.06321127
000170 4b 49 02 3d 5f 0f ca 3d 98 93 29 bd 7e 43 e4 3d
       0.03180818 0.09866213 -0.041400522 0.111456856
000180 3b ae a9 bc 3f 77 2a bc e7 02 db 3d 7a 3c 7e bd
       -0.020712962 -0.010404407 0.10693913 -0.062069394
000190 9a db e9 3d f2 d9 c0 bd 8e 3a d8 3c c0 17 81 bd
       0.11418839 -0.0941657 0.026395109 -0.06303358
0001a0 e6 7f c2 3d f3 be ef 3d 9a f4 ee bb 93 7b 89 bd
       0.09497051 0.117063425 -0.0072923424 -0.06713023
0001b0 6a 23 70 bd 0f 0d b3 3d 6c f6 86 3b fe bc 74 3d
       -0.058627523 0.08742725 0.0041187312 0.05975055
0001c0 a0 c8 9e 3d cc 67 82 3c 7f 4a 92 bb 04 00 d1 3c
       0.0775311 0.015918635 -0.004464447 0.025512703
0001d0 7a 97 ee 3c 7c c0 22 bd d9 44 85 bd 7e 57 a3 3c
       0.029124964 -0.03973435 -0.06507272 0.01993918
0001e0 ee 5e 65 bc 24 97 12 3e 63 e7 cf 3d 3f 67 9c 3d
       -0.013999684 0.14315468 0.101515554 0.0763688
0001f0 30 ff be 3d a8 76 8e bd 10 b4 a2 3d e6 70 42 bd
       0.09326017 -0.06956226 0.079445004 -0.04747095
000200 2f 4a b0 bd d0 ce 9f bd af be b1 bc a3 44 ab 3d
       -0.086078994 -0.07803118 -0.02169737 0.08362701
000210 c0 6e 08 3d ca 0f c7 3d 5b f2 10 3d ea ad 38 3d
       0.033308744 0.097198084 0.03538738 0.045087732
000220 22 bb 0c bc 26 31 d1 bc ac 64 35 3d 93 98 2d 3c
       -0.008589538 -0.025536131 0.04428546 0.010595459
000230 a3 2a 5e bd b4 b9 8a bc 17 75 8e 3d bf c4 16 be
       -0.05423988 -0.016934253 0.06955927 -0.1472349
000240 5a cc 54 bc 82 80 01 bd be 17 46 bd eb 08 24 bd
       -0.012988174 -0.031616695 -0.048362486 -0.040047567
000250 82 bb ea bc c6 5e cc 3a 3e bb f2 3b c2 b2 b3 bd
       -0.028653864 0.001559221 0.007407575 -0.0877433
000260 02 14 a9 bb 0b 02 95 3d 9e 8a 4c 3d 32 ca c7 3c
       -0.005159856 0.0727578 0.049936883 0.024388406
000270 d7 37 b6 bd 6b df 18 3d b7 66 b6 3d 4c cc b2 3c
       -0.08897369 0.037322443 0.0890631 0.021825932
000280 e8 34 85 3d 67 6f b2 3d cb 7c 2f bd fb 70 9a 3d
       0.06504232 0.087126546 -0.04284362 0.075410806
000290 22 20 ff 3c 0f d3 97 bd 6a 92 d1 bd 5a 79 c3 bd
       0.031143252 -0.07413303 -0.102330044 -0.0954463
0002a0 96 14 62 3d bf 6c ee bc a2 fd 76 bd 8c b6 82 bd
       0.055195414 -0.029104589 -0.060300477 -0.06382474
0002b0 63 59 90 3d 1c a6 ae 3c f2 5e fa 3d 30 b7 ac bc
       0.07048299 0.021319441 0.12225141 -0.021083444
0002c0 9a db 4b 3d f2 94 f6 3d 1f 05 04 bb 16 ac de 3d
       0.049769975 0.12040128 -0.0020144654 0.108726665
0002d0 77 cf 35 3c a2 52 63 bd 10 cc 14 3d 82 d1 ad 3c
       0.011096827 -0.055498727 0.03632742 0.021218065
0002e0 7a ba 46 3d 20 d5 3c bc f3 82 a4 3d 18 34 01 3d
       0.04851768 -0.011525422 0.08032789 0.03154382
0002f0 18 cf 18 bd 66 e5 7f bd ca 47 78 bd 98 af 08 3d
       -0.037306875 -0.06247463 -0.06061534 0.033370584

fc5.bias f4 [3]
000000 77 dc 28 3c b2 a1 cf bd 26 9e 61 3d
       0.010306469 -0.10138263 0.055082463

actor_tracing.fc1.weight f4 [32, 3]
000000 63 a3 dc 3e 82 35 d0 be 7b e7 01 bf c3 8a 90 be
       0.43093404 -0.40665823 -0.50743836 -0.28230867
000010 2b 24 86 bd ac 61 9f be df b9 a9 3e 4f e5 f4 3e
       -0.06549867 -0.31129205 0.3314962 0.478312
000020 03 bd c8 bc bc ee c7 be 62 09 e0 3c 40 5b 8f be
       -0.02450419 -0.39049327 0.027348224 -0.27999306
000030 df 30 b5 3e 43 ea d8 3e c7 2b ff bd cc 94 82 bd
       0.35388848 0.42366228 -0.12459522 -0.06376037
000040 8b be e4 3e fc b9 62 bd 9e db d6 be b5 ee 81 3e
       0.44676623 -0.05535315 -0.4196443 0.25377432
000050 7f 38 29 be 6e e5 c5 be 4c 79 26 bf 4b 4e 51 3e
       -0.16525458 -0.38651603 -0.65028834 0.20440023
000060 47 c3 2b 3e a3 09 7a be 74 b1 9b 3c 1e b4 f1 be
       0.16773711 -0.24417739 0.019005515 -0.4720773
000070 04 68 e1 be 8f 0f d6 be 6f a4 0e bf d7 50 cf 3e
       -0.4402467 -0.41808745 -0.55719656 0.40491363
000080 dc 2e 09 be 76 d5 b4 3d 1c 77 ba 3e 9d 15 02 3b
       -0.13396782 0.08829777 0.36418998 0.0019849308
000090 2c ba 14 3d 78 70 ba 3e ba cb 00 be 64 b1 ab be
       0.03631036 0.36413932 -0.12577716 -0.33533776
0000a0 13 31 c2 bd 78 a5 bc 3e 03 62 97 be c8 d5 96 3c
       -0.094820164 0.36844993 -0.29566965 0.018412486
0000b0 6b cf ee be 76 bc d2 3e c8 d7 94 be 67 02 e3 bd
       -0.46642622 0.4115941 -0.29070878 -0.110844426
0000c0 5f 6a b0 3e 90 97 da bd e4 d6 a1 3e cf 48 ee 3c
       0.34456155 -0.106734395 0.3160926 0.029087452
0000d0 cb c9 5a 3e 78 59 2e 3e 56 dd c7 3e 4b ee e5 be
       0.2136604 0.17026317 0.39036053 -0.44908366
0000e0 a7 a6 c2 bc 17 79 14 3f a4 15 0f bf 2b 3a f1 3e
       -0.023761107 0.5799727 -0.55892396 0.4711469
0000f0 4f e9 96 be 57 30 31 bd e7 13 93 be 67 09 af be
       -0.29474875 -0.04325899 -0.28726122 -0.3418686
000100 94 b2 40 be 0e af 18 3d a2 fb 6e 3e 63 a8 e1 be
       -0.18818122 0.03727632 0.23338178 -0.4407378
000110 6c 2a a8 3e 92 64 66 be 10 8b 14 bf f7 a3 93 bd
       0.32844865 -0.22499302 -0.5802469 -0.07209008
000120 74 93 86 be 01 fa 04 bf 17 96 95 3e 46 48 d1 3d
       -0.26284373 -0.51943976 0.29216072 0.10218863
000130 20 64 26 bf d7 ad 02 be a0 d4 02 3e fb 02 7e bd
       -0.6499653 -0.12761627 0.12776423 -0.06201456
000140 eb 70 eb 3e 12 12 d2 3e 7c 70 27 3e df de d9 be
       0.45984587 0.41029412 0.16351503 -0.4255285
000150 70 df 04 bf 70 3f 6e 3e 5e 63 d5 3c 4b e1 a7 be
       -0.5190344 0.23266387 0.026048359 -0.32789072
000160 85 21 84 be 47 85 c6 bd 86 8b c2 be 6c 36 21 bf
       -0.25806823 -0.096933894 -0.37997073 -0.62973666
000170 5f 89 d2 be d4 b9 9c 3e a7 21 e8 3e 8e e2 e4 3d
       -0.4112043 0.30610526 0.45338175 0.111760244

actor_tracing.fc1.bias f4 [32]
000000 03 a6 8f be a4 49 ba 3d 6b 5b 7e 3e 52 97 81 be
       -0.28056344 0.09096077 0.2483956 -0.2531076
000010 10 9f 0a 3f 0a 72 8f 3d 8b 29 bb be 9b e4 10 bf
       0.5414896 0.07004173 -0.36555132 -0.56598824
000020 0b d0 ad 3e 18 77 aa 3e 32 16 c1 be eb ba d8 3e
       0.33947787 0.33293986 -0.37712246 0.42330107
000030 64 ac 08 3e 0b a2 95 3d 0a 95 c5 bd 36 b0 93 be
       0.13347012 0.07306298 -0.096475676 -0.28845376
000040 cb 8c a4 3e 0f b9 a2 bc 90 62 02 3e 3c dd 13 bf
       0.32138667 -0.019863633 0.12732911 -0.5775945
000050 ae 2a eb 3e 1e 76 e4 3e 70 f3 0a bf 43 d0 f7 bc
       0.45931 0.44621366 -0.54277706 -0.030250674
000060 62 9b b7 3e a4 57 9d be 77 7c 8b 3e ff 0d 2e bd
       0.35860735 -0.30730927 0.27243397 -0.042493816
000070 de 53 dd 3e da 42 80 3d 26 02 49 be 2b fb a8 bd
       0.43228048 0.06262751 -0.19629726 -0.082510315
